2_PoliceDQN_ThiefDQN_rl/models/police_dqn.pth (torch, 22630 bytes, 6 tensors)

0.weight f4 [64, 4]
-0.6042612 -1.1158113 -2.7611673 0.053178158 0.72455025 1.7051415 0.104414426 -0.38036117
-1.4050637 -3.2847726 -0.31552482 -0.90568066 0.69807965 1.527349 -0.27488306 -0.91454476
-0.76488805 0.044640128 -1.0956701 -0.34530795 -1.3142456 0.92033917 -1.4895408 0.20413074
1.0205189 0.625596 -1.6096271 -0.43099317 0.0049999533 -0.59139866 -2.42159 0.23644844
0.833736 -0.0790704 1.5752184 0.12723507 2.0360441 -1.0154473 1.3893709 -0.85710347
0.28175706 -0.3063894 -0.33386743 -0.4629544 0.3177776 0.63459045 -0.78998154 -0.21884745
-1.0655721 -0.73499405 0.0019854237 -0.7980802 -0.22938953 0.6456365 -1.8657644 -2.702813
1.7429198 -1.590229 -0.046452492 -0.34117952 -0.090132825 -0.8471449 0.06764437 0.29685128
-1.0054363 0.63962156 -0.22261542 -0.22454971 -1.503868 -0.3081952 -0.883433 -1.2391245
-0.019839289 -0.022370813 2.7816684 -1.4518803 0.9662369 0.47248685 -1.9082037 0.32611898
0.060549185 0.28493226 -0.98382384 0.45603648 -2.1456285 -0.78983206 1.0863191 0.49581614
-1.9343507 0.39698207 -0.65528417 -1.8154107 -0.68396086 0.6693038 -0.4945325 -0.22232562
0.054332588 -0.36044994 -1.4986422 0.42599353 -0.07465291 -0.2906829 -0.4803322 0.30612946
0.15757377 0.4653754 1.5370715 -0.083219394 -1.4220016 0.0645585 -0.84977925 -0.53243047
1.1734743 0.10600328 -3.8328776 0.16582528 -0.0094096735 0.63710535 -1.1196396 -1.0529877
0.5748663 1.401518 -0.6187316 -0.37779468 -3.7471411 0.6779809 0.6828114 -2.0960011
-0.3660007 -0.040613413 -0.040409803 -0.12790972 -0.13888359 0.018358834 0.13912128 -0.16996908
-0.38762602 0.9378753 0.49920952 0.28972426 0.45856708 -0.3710026 -0.3616948 0.1017583
-0.11024379 -1.0957927 0.18071175 0.48483944 -0.51034963 -0.105121404 -1.2915347 0.15613493
-2.4107285 -1.0846549 0.38398108 0.19928376 -0.22486489 0.0842432 2.2426171 -0.6918201
-0.6749496 -0.18914701 -1.9906043 -0.08263535 -0.4215645 0.1378001 -1.2902511 0.69904256
0.76780915 0.29459867 -1.4951566 0.71410024 -0.7947727 0.44323444 0.42735544 -0.4499375
1.5944936 -0.77686286 0.036077052 -0.13753048 -2.748274 -0.2970115 -4.105494 -1.1433884
0.11552757 0.5032036 0.48120674 -0.6063637 -0.12662667 0.14699852 -0.28176075 -0.39756185
1.3364549 -1.5261796 -0.5080089 -0.78751266 -0.1634345 -0.036374144 -0.052143335 0.12869501
0.8427343 -2.9876244 -3.3840492 0.060161732 -1.3867577 -0.19167103 -3.1641145 0.020951204
0.52891064 -0.1533435 -0.53383833 -0.16745019 1.7958397 0.46534732 -0.20060709 -0.68850386
-0.26781556 -0.9157432 -0.6269751 0.08022587 -0.63669276 -1.1493973 -0.27447888 -0.18802497
-1.3365535 0.21680735 -2.606963 -0.35049427 -1.5684649 0.7087497 1.577661 -0.52255964
1.9205585 0.09162098 -1.1335398 0.02084514 -0.07983621 0.02477826 2.2695892 0.16304474
1.1658055 -1.6130445 0.028698826 0.027255177 -0.25782454 -0.97750705 0.04187413 -0.44747388
2.3349178 -1.666559 -0.6388599 -0.67172796 -0.40509915 -1.0789934 -4.7005076 0.06704657
00000000: ddb0 1abf e8d2 8ebf f7b6 30c0 57d1 593d
00000010: 207c 393f 1442 da3f 3bd7 d53d b3be c2be
00000020: 21d9 b3bf b739 52c0 788c a1be b0da 67bf
00000030: 59b5 323f 2c80 c33f 79bd 8cbe 9b1f 6abf
00000040: b4cf 43bf 91d8 363d eb3e 8cbf 34cc b0be
00000050: 3339 a8bf 599b 6b3f 46a9 bebf a607 513e
00000060: 5da0 823f 0f27 203f 4308 cebf 23ab dcbe
00000070: a6d6 a33b e765 17bf 55fb 1ac0 8a1f 723e
00000080: b96f 553f a9ef a1bd c2a0 c93f e949 023e
00000090: 8c4e 0240 2dfa 81bf e8d6 b13f 226b 5bbf
000000a0: 7642 903e 12df 9cbe acf0 aabe 5c08 edbe
000000b0: bfb3 a23e 8574 223f 3b3c 4abf 8c19 60be
000000c0: ab64 88bf 9228 3cbf e21d 023b fc4e 4cbf
000000d0: 17e5 6abe 6f48 253f 5ed1 eebf e3fa 2cc0
000000e0: ff17 df3f a08c cbbf f844 3ebd 15af aebe
000000f0: 8f97 b8bd 7dde 58bf 2289 8a3d e4fc 973e
00000100: 23b2 80bf 3dbe 233f 4cf5 63be 5cf0 65be
00000110: bf7e c0bf c3cb 9dbe aa28 62bf a29b 9ebf
00000120: 0186 a2bc ff42 b7bc db06 3240 37d7 b9bf
00000130: 4d5b 773f cce9 f13e 0540 f4bf 11f9 a63e
00000140: 6c02 783d a4e2 913e e1db 7bbf 9d7d e93e
00000150: fa51 09c0 6f32 4abf 810c 8b3f 9ddb fd3e
00000160: ce98 f7bf 3c41 cb3e b4c0 27bf 615f e8bf
00000170: 0f18 2fbf 7e57 2b3f 5d33 fdbe 54a9 63be
00000180: d98b 5e3d e58c b8be 82d3 bfbf d31b da3e
00000190: a0e3 98bd 64d4 94be 1aee f5be 00bd 9c3e
000001a0: 055b 213e af45 ee3e c2be c43f ee6e aabd
000001b0: 2604 b6bf 3f37 843d 228b 59bf 5d4d 08bf
000001c0: 6834 963f 3f18 d93d de4d 75c0 1ace 293e
000001d0: 082b 1abc 5619 233f 5a50 8fbf 4dc8 86bf
000001e0: 702a 133f f164 b33f 3265 1ebf 4e6e c1be
000001f0: 29d1 6fc0 2890 2d3f bacc 2e3f e224 06c0
00000200: 7264 bbbe 405a 26bd c084 25bd c4fa 02be
00000210: 8037 0ebe 4465 963c cf75 0e3e 600c 2ebe
00000220: eb76 c6be 9818 703f 6498 ff3e bd56 943e
00000230: 4ec9 ea3e 0ef4 bdbe 1030 b9be a866 d03d
00000240: 7fc7 e1bd ef42 8cbf 800c 393e e03c f83e
00000250: 46a6 02bf e449 d7bd 0251 a5bf d6e1 1f3e
00000260: 6049 1ac0 f9d5 8abf 2b99 c43e 0b11 4c3e
00000270: fb42 66be b387 ac3d 0a87 0f40 1f1b 31bf
00000280: 7fc9 2cbf c1af 41be 1fcc febf b93c a9bd
00000290: 4dd7 d7be 781b 0d3e f326 a5bf 74f4 323f
000002a0: 248f 443f a3d5 963e 4b61 bfbf 46cf 363f
000002b0: 3976 4bbf a0ef e23e 55ce da3e 355e e6be
000002c0: 5e18 cc3f 7ce0 46bf 88c5 133d cad4 0cbe
000002d0: b9e3 2fc0 e411 98be 3560 83c0 8d5a 92bf
000002e0: b899 ec3d f3d1 003f bb60 f63e a73a 1bbf
000002f0: 6caa 01be c886 163e f242 90be 3a8d cbbe
00000300: f410 ab3f da59 c3bf df0c 02bf 6e9a 49bf
00000310: 605b 27be 0efd 14bd 4094 55bd a0c8 033e
00000320: 6fbd 573f 3d35 3fc0 4394 58c0 266c 763d
00000330: 4781 b1bf 6945 44be da80 4ac0 dca1 ab3c
00000340: b066 073f 1406 1dbe a1a9 08bf 1078 2bbe
00000350: 13de e53f 0142 ee3e f26b 4dbe ca41 30bf
00000360: 1f1f 89be 256e 6abf 7181 20bf 764d a43d
00000370: 4cfe 22bf 731f 93bf 7f88 8cbe 9e89 40be
00000380: 2f14 abbf bf02 5e3e 7bd8 26c0 fc73 b3be
00000390: 75c3 c8bf 9f70 353f ccf0 c93f 78c6 05bf
000003a0: dcd4 f53f c8a3 bb3d d517 91bf 6dc3 aa3c
000003b0: 2b81 a3bd c7fb ca3c f340 1140 33f5 263e
000003c0: 1d39 953f 3e78 cebf cd19 eb3c 4046 df3c
000003d0: 9401 84be e73d 7abf 3584 2b3d 4c1b e5be
000003e0: 4b6f 1540 ce51 d5bf 538c 23bf 5df6 2bbf
000003f0: 2869 cfbe 751c 8abf 8f6a 96c0 b64f 893d

0.bias f4 [64]
-0.07183592 0.09697668 0.6893192 0.3991734 -0.039332315 0.2024879 0.30645698 -0.23001656
0.18614009 0.5338312 -0.33219922 0.9431759 1.1528289 -0.10092812 0.49746603 0.40625483
0.7095049 1.0344756 1.1778376 0.9992328 0.5174877 0.2174914 -0.10305091 0.7195419
0.31419364 -0.38521922 -0.103643596 1.1310146 -0.14451791 0.57485193 -0.19649562 0.91245955
-0.35631955 -0.15832703 0.23688766 -0.5316377 0.40815172 -0.15445055 0.43459016 1.286836
0.35695276 -0.82890505 -0.1880387 0.22599123 0.13977864 0.13464598 0.4571934 -0.33240944
0.65846723 -0.14236696 -0.42919928 -0.027855363 0.021114914 0.51097786 0.65346026 0.41049284
0.27651232 0.010939614 -0.21109292 0.5530436 0.17480208 0.5390455 0.45039642 0.030792274
00000000: b61e 93bd b69b c63d 3977 303f 7560 cc3e
00000010: ec1a 21bd fd58 4f3e eee7 9c3e 7689 6bbe
00000020: 829b 3e3e 29a9 083f 0416 aabe fa73 713f
00000030: e68f 933f 67b3 cebd deb3 fe3e a200 d03e
00000040: 1da2 353f b269 843f 62c3 963f b9cd 7f3f
00000050: 137a 043f 11b6 5e3e 5b0c d3bd e633 383f
00000060: fddd a03e 743b c5be 1843 d4bd 16c5 903f
00000070: 81fc 13be 7f29 133f 2636 49be f396 693f
00000080: 846f b6be 7b20 22be ae92 723e 6919 08bf
00000090: 43f9 d03e 4928 1ebe 9a82 de3e 0bb7 a43f
000000a0: 83c2 b63e 1f33 54bf 388d 40be 3f6a 673e
000000b0: 2222 0f3e a3e0 093e 4115 ea3e 9231 aabe
000000c0: 4f91 283f a5c8 11be 02c0 dbbe ee30 e4bc
000000d0: 2ff9 ac3c 72cf 023f 2c49 273f 1e2c d23e
000000e0: 0693 8d3e 113c 333c be28 58be 4494 0d3f
000000f0: 51ff 323e e3fe 093f 5c9a e63e 1440 fc3c

2.weight f4 [64, 64]
0.23918137 -1.7487373 0.6592069 -0.45241067 1.7642351 0.3005045 0.4117765 0.19463299
-2.5192676 0.9565156 -0.0426282 -0.43033272 -0.5487028 -1.5982162 1.4611866 0.07823575
0.015359273 -0.9807042 -2.848148 -0.78097427 0.30904633 0.2023358 -0.3885458 0.38638923
0.32178292 0.036103487 0.17732635 -0.024693359 -0.43043277 0.18793668 -0.18882446 0.0026690937
0.021473378 0.032160744 0.13353811 -0.60587364 0.10535058 -0.14180829 0.75789076 0.3359586
-0.10312195 -0.62300324 0.36666283 -0.15236075 0.046066146 -1.707966 -0.7646453 0.01765962
-0.9710862 0.072469845 0.3467575 0.50359327 0.5114706 -1.5540813 0.12732577 0.3770099
0.24870375 0.30114144 1.1635607 -2.4744384 0.82036686 0.28373757 -0.38388866 0.6093511
-0.13046025 -0.5392337 -1.7491748 -0.81119514 0.13162448 0.2727122 -0.034449235 -0.0148740215
0.36501044 -0.31073952 0.09904127 -0.17036642 -0.4983432 0.21306303 -0.072252735 -0.07972609
0.040149942 -0.060996316 -0.8217831 0.31969863 -0.18685418 -0.26128238 -0.050217897 -0.14306363
-0.115261644 -0.11534247 -0.20408851 0.0017079663 0.05410378 -0.013752745 -0.6024175 0.047522277
-0.013090581 0.0047907494 -0.85816896 0.81026834 -0.13527513 -0.22240326 -0.06604192 -0.632886
-0.037894744 -0.50769293 0.022995787 0.27721438 -0.90097886 -0.19151698 -0.18470621 -0.082379565
-0.48353297 -0.034657806 -0.24124613 -0.18822184 -0.22485921 0.85850245 -0.17694807 -0.12347858
0.0399151 0.5093298 0.81592757 -1.8644177 -0.59240305 0.45328593 -1.4091158 -0.65827507
-0.11671309 0.024612444 0.022045419 -0.106410176 -0.11326073 -0.031077921 -0.08426286 -0.07143389
-0.05308524 -0.04643884 -0.038735554 0.040456116 -0.045434143 -0.0661788 -0.14445236 -0.12862444
-0.030656626 -0.044120513 0.08743716 0.102839604 -0.058744445 -0.041623816 0.013199076 -0.12399018
-0.012954433 -0.07950936 -0.08900327 -0.012870129 -0.08261126 -0.044215336 -0.02868387 -0.071658626
0.005454555 -0.0013455749 -0.0029154867 0.037172228 0.039151024 0.11249916 0.017734505 0.03376469
0.009603068 0.053493395 0.016999826 0.07380001 0.063486785 0.05032108 -0.07901976 -0.07166566
-0.041825812 -0.0604313 -0.039860934 -0.047406837 0.06589392 -0.123982176 -0.1446552 -0.011679694
0.11035299 -0.069127254 0.041960314 -0.115112774 -0.026749168 -0.10626739 0.044380687 0.028211907
0.17993702 0.021800654 0.46559623 -0.3452937 0.75715005 -2.3721292 0.08261273 -0.02222842
-2.8399286 0.85477686 -0.055989623 -1.1692276 0.27214134 -1.4071678 0.28005415 0.17161822
-1.4968703 -1.8755842 -1.3916867 -1.0580779 0.35920343 -0.024077622 -0.06585091 0.33067846
0.30097237 0.013039097 -1.3792281 0.12167208 0.31499144 0.13563952 -1.5034045 -0.3604302
0.030639932 0.098608464 -0.6122152 0.0006020136 0.1426481 -0.09847258 -0.6355392 -1.1935831
0.100985624 -1.1862785 0.16676693 -0.4117697 0.026628494 -0.73669344 -0.38219875 -0.02959694
-0.9596473 0.09504746 0.11540905 0.24961492 0.033084027 -1.2092973 0.24881415 0.39042848
-0.17908737 -3.5930152 -1.8356993 0.46791708 0.63777214 1.5801637 0.13927627 0.05006894
00000000: f6eb 743e a0d6 dfbf c9c1 283f 5fa2 e7be
00000010: 75d2 e13f badb 993e 5fd4 d23e df4d 473e
00000020: ae3b 21c0 35de 743f e89a 2ebd 9254 dcbe
00000030: c977 0cbf 5992 ccbf 2a08 bb3f 113a a03d
00000040: 76a5 7b3c 6e0f 7bbf 0f48 36c0 eeed 47bf
00000050: 523b 9e3e 1e31 4f3e 7aef c6be cfd4 c53e
00000060: bbc0 a43e 40e1 133d 0a95 353e ba49 cabc
00000070: af61 dcbe 7972 403e 335b 41be f6eb 2e3b
00000080: f0e8 af3c fcba 033d 37be 083e 891a 1bbf
00000090: 0bc2 d73d 3136 11be 2105 423f c402 ac3e
000000a0: 9a31 d3bd 247d 1fbf 3bbb bb3e 7504 1cbe
000000b0: dbaf 3c3d a19e dabf cbbf 43bf e8aa 903c
000000c0: 1b99 78bf 126b 943d 338a b13e 7deb 003f
000000d0: bdef 023f 23ec c6bf b061 023e 7107 c13e
000000e0: 32ac 7e3e 362f 9a3e 8fef 943f 335d 1ec0
000000f0: 9003 523f 0d46 913e 0e8d c4be 6ffe 1b3f
00000100: 5f97 05be 380b 0abf f6e4 dfbf 7caa 4fbf
00000110: 91c8 063e efa0 8b3e a41a 0dbd 2bb2 73bc
00000120: a6e2 ba3e 4019 9fbe 26d6 ca3d 8974 2ebe
00000130: d726 ffbe 322d 5a3e 3ef9 93bd 6f47 a3bd
00000140: 4474 243d 46d7 79bd 6160 52bf 8aaf a33e
00000150: b456 3fbe cec6 85be 48b1 4dbd 467f 12be
00000160: 4c0e ecbd ac38 ecbd 94fc 50be d7dd df3a
00000170: ed9b 5d3d 3253 61bc 0938 1abf b8a6 423d
00000180: e079 56bc b8fb 9c3b f6b0 5bbf bf6d 4f3f
00000190: 9085 0abe aebd 63be fc40 87bd d104 22bf
000001a0: 8537 1bbd 2af8 01bf a961 bc3c 0bef 8d3e
000001b0: 8da6 66bf 071d 44be a023 3dbe 9eb6 a8bd
000001c0: a291 f7be 58f5 0dbd 3a09 77be 3abd 40be
000001d0: 7e41 66be d1c6 5b3f e031 35be 56e2 fcbd
000001e0: 047e 233d 7063 023f a1e0 503f 3da5 eebf
000001f0: baa7 17bf 1815 e83e e85d b4bf b784 28bf
00000200: 4607 efbd 09a0 c93c 9898 b43c 94ed d9bd
00000210: 3ef5 e7bd 2097 febc 0292 acbd ee4b 92bd
00000220: e96f 59bd a736 3ebd 2ca9 1ebd 50b5 253d
00000230: 2719 3abd c088 87bd 52eb 13be 20b6 03be
00000240: 9b23 fbbc b6b7 34bd 4112 b33d 929d d23d
00000250: 049e 70bd bc7d 2abd f040 583c 90ee fdbd
00000260: d53e 54bc ced5 a2bd 5947 b6bd 3cdd 52bc
00000270: 1830 a9bd 241b 35bd 6ffa eabc c2c1 92bd
00000280: 20bc b23b 005e b0ba c011 3fbb e841 183d
00000290: d35c 203d f665 e63d f447 913c d84c 0a3d
000002a0: 3056 1d3c e41b 5b3d 3843 8b3c 7624 973d
000002b0: 5c05 823d 7a1d 4e3d 1dd5 a1bd 72c5 92bd
000002c0: 8b51 2bbd d086 77bd 3845 23bd ac2d 42bd
000002d0: 64f3 863d 5eea fdbd 7e20 14be 305c 3fbc
000002e0: c000 e23d 9792 8dbd 94de 2b3d 3fc0 ebbd
000002f0: 1221 dbbc b8a2 d9bd 86c8 353d a81c e73c
00000300: 6941 383e 4997 b23c a162 ee3e 56ca b0be
00000310: 96d4 413f f7d0 17c0 dd30 a93d 6018 b6bc
00000320: 64c1 35c0 a8d2 5a3f 6055 65bd 40a9 95bf
00000330: 1c56 8b3e 131e b4bf 4263 8f3e b0bc 2f3e
00000340: 7299 bfbf 2513 f0bf ca22 b2bf 196f 87bf
00000350: 83e9 b73e 6f3e c5bc d8dc 86bd b04e a93e
00000360: 0d19 9a3e f0a1 553c 8c8a b0bf 362f f93d
00000370: 8f46 a13e 16e5 0a3e 8f6f c0bf 4f8a b8be
00000380: 9800 fb3c 3cf3 c93d 23ba 1cbf 73d0 1d3a
00000390: 5812 123e feab c9bd b2b2 22bf 55c7 98bf
000003a0: 8dd1 ce3d f9d7 97bf f3c4 2a3e 7ad3 d2be
000003b0: 0024 da3c f197 3cbf 8eaf c3be 4875 f2bc
000003c0: 72ab 75bf 3ea8 c23d 945b ec3d 0e9b 7f3e
000003d0: 1e83 073d 41ca 9abf 23c9 7e3e 3ee6 c73e
000003e0: ae62 37be f6f3 65c0 32f8 eabf d492 ef3e
000003f0: 0945 233f ce42 ca3f 709e 0e3e 1715 4d3d

2.bias f4 [64]
0.6305264 -0.18885137 -0.074861735 0.60382223 0.967115 0.0159504 0.5007612 0.009566565
-0.07849369 -0.13878475 0.033727527 0.7039965 0.36013937 -0.02843568 0.12946323 -0.031384066
0.50074995 -0.12802121 -0.09912163 -0.10975293 0.22135027 -0.027959054 -0.16326186 0.05158213
-0.06797817 -0.17429416 -0.22702721 -0.53565186 -0.13434665 -0.060113385 -0.0004577713 -0.13380754
0.4447149 0.014228319 -0.065301724 -0.12597477 -0.11867689 -0.022619154 -0.027242042 0.27425942
-0.43674973 -0.11563952 0.008496923 0.40660918 0.4878924 -0.027138302 -0.08474022 0.053481426
0.4071826 0.25932798 0.059804585 -0.11030886 0.122518845 -0.11468531 -0.113998674 0.52400327
0.54452664 0.24227047 0.1525685 0.7139677 0.11743132 0.05278559 -0.06602113 -0.2707815
00000000: 2e6a 213f 4162 41be 1c51 99bd 1894 1a3f
00000010: d994 773f 6aaa 823c e331 003f 15bd 1c3c
00000020: 4dc1 a0bd 971d 0ebe e025 0a3d 1d39 343f
00000030: 3064 b83e f1f1 e8bc 0292 043e 948c 00bd
00000040: 2631 003f fe17 03be 4800 cbbd 25c6 e0bd
00000050: a5a9 623e 630a e5bc 1e2e 27be c947 533d
00000060: 2438 8bbd 2b7a 32be d279 68be 7b20 09bf
00000070: 2b92 09be 7439 76bd 0601 f0b9 d804 09be
00000080: acb1 e33e e51d 693c e9bc 85bd 88ff 00be
00000090: df0c f3bd ce4b b9bc b42a dfbc bb6b 8c3e
000000a0: a99d dfbe 6ad4 ecbd ae36 0b3c 142f d03e
000000b0: 08cd f93e 2551 debc 488c adbd 570f 5b3d
000000c0: 3d7a d03e a3c6 843e a7f5 743d 9de9 e1bd
000000d0: 29eb fa3d 22e0 eabd 2378 e9bd 1425 063f
000000e0: 1966 0b3f c015 783e eb3a 1c3e 96c6 363f
000000f0: d57f f03d b435 583d 1636 87bd dfa3 8abe

4.weight f4 [8, 64]
0.82386833 0.28069276 0.017974675 0.35962945 0.74752223 0.018220346 1.6053752 0.12030865
-0.012578234 0.079377696 0.02401875 0.7046877 1.396573 -0.025824277 0.7138224 -0.09482006
0.9553748 0.12689261 0.083502874 0.01279415 1.5066903 0.057618212 -0.056161493 -0.110123545
1.0698099 -0.0990283 0.9022062 1.474423 0.06375754 -0.10124242 0.063510075 0.1925825
0.30147833 0.86839926 1.2379401 0.20183884 -0.015067022 0.011092868 -0.04662979 1.526211
1.0758649 0.013650551 -0.07431966 2.3271751 -0.07660923 -0.059007492 -0.0073867715 1.5224272
2.4095714 1.7756251 0.8174882 1.3704686 -0.3509423 -0.0016857793 0.85238326 0.84204483
0.833177 1.9089073 1.3080533 2.6054785 0.8452799 0.8896149 -0.11873393 1.6937997
0.4483815 0.15266046 -0.043483034 0.34219164 0.50765485 0.013974722 3.2818894 0.0060879886
0.055565115 0.1154393 -0.0063573793 0.76035464 1.6870891 0.16261886 0.2842635 0.019176876
1.3262691 0.8425928 -0.041286975 -0.0054700524 1.3115246 0.108058415 -0.0106754005 -0.042203523
1.7981595 0.08565753 0.66234565 0.823054 -0.09682554 -0.014716148 0.002456427 -0.427662
1.023751 0.9190728 0.582895 -0.014725931 0.019771323 0.046254974 0.07498886 0.3798724
1.3343849 -0.034175828 0.07433775 1.273953 0.14900422 0.08207417 0.014723673 1.3652891
2.2303882 1.1494701 0.59643555 1.6352788 -0.30175063 0.11174975 -0.25554317 0.33682933
0.7759148 1.4751865 1.5754117 2.8742979 0.9966603 1.0252042 -0.038956776 1.930733
0.43566605 0.01655724 -0.017898202 0.8561529 0.9814161 -0.09052348 1.7172451 0.0192609
0.11920409 0.08433764 -0.040723547 0.71509993 0.78822476 0.16917835 0.7658871 -0.11127451
0.9104326 1.2063919 -0.06492056 0.08093266 1.2071229 -0.036531907 0.024025649 0.0043191556
0.42653167 0.018877286 0.97206545 0.87645197 -0.021153495 0.032450393 0.08936627 0.06735222
0.78253937 1.0030185 1.3049471 0.0289671 0.05812587 -0.01442883 -0.07303074 0.1640207
1.4473718 0.054234464 -0.015738279 1.9200374 1.1529962 0.021455674 -0.045225006 1.0479122
1.992581 1.1082399 0.56762385 1.2331847 -0.3897101 -0.011553417 0.28191483 0.8555221
0.9170981 0.99644357 1.4593463 2.3832133 0.3738164 0.79294115 -0.0022782981 2.3378093
0.67086464 0.42502087 -0.11600745 0.58632755 1.0412252 0.075484484 2.3641684 -0.017678332
-0.08401215 -0.0791385 0.021805087 1.1727861 2.5122283 -0.0829052 1.0103747 -0.023873959
1.0071207 1.0295215 0.026554704 0.10387413 1.2464637 -0.011350687 0.03034724 0.08889785
2.0342193 -0.05796808 0.05170041 0.52518976 -0.10673162 0.0891528 0.048518963 0.8573588
1.5327224 0.24112548 2.182805 0.0817804 -0.10751673 0.013277119 -0.06337574 1.3953874
1.3627212 -0.09886121 0.004811406 2.063991 0.103851914 -0.03870371 -0.001890969 0.9194903
2.989645 1.4441186 1.1363629 1.636545 -0.25923815 0.02367394 0.97674096 0.55358976
0.78505766 0.55627656 1.3330209 2.570411 0.8222814 1.1654841 -0.042954084 1.8982519
00000000: 09e9 523f f6b6 8f3e a03f 933c 5a21 b83e
00000010: 9e5d 3f3f d642 953c ef7c cd3f 6264 f63d
00000020: f014 4ebc c690 a23d f8c2 c43c 6a66 343f
00000030: e7c2 b23f 6f8d d3bc 11bd 363f 0531 c2bd
00000040: 7193 743f 23f0 013e 8e03 ab3d 8e9e 513c
00000050: 3adb c03f 1301 6c3d 9809 66bd 7488 e1bd
00000060: 88ef 883f 59cf cabd fcf6 663f e5b9 bc3f
00000070: 5093 823d 3058 cfbd 9211 823d 5934 453e
00000080: 5e5b 9a3e 6a4f 5e3f d274 9e3f d7ae 4e3e
00000090: acdb 76bc dcbe 353c e1fe 3ebd e25a c33f
000000a0: f1b5 893f 90a6 5f3c e834 98bd 70f0 1440
000000b0: 4de5 9cbd d7b1 71bd bb0c f2bb e5de c23f
000000c0: 6b36 1a40 af47 e33f e846 513f 846b af3f
000000d0: b6ae b3be 5ef5 dcba ca35 5a3f 4090 573f
000000e0: 164b 553f 1357 f43f 4a6e a73f 29c0 2640
000000f0: 4364 583f cdbd 633f c62a f3bd 6ece d83f
00000100: 4392 e53e 0653 1c3e 441b 32bd be33 af3e
00000110: abf5 013f 3bf6 643c 7a0a 5240 c07d c73b
00000120: 3f98 633d 716b ec3d 9051 d0bb 9aa6 423f
00000130: 89f2 d73f 8f85 263e fc8a 913e d318 9d3c
00000140: 30c3 a93f 29b4 573f 881c 29bd 203e b3bb
00000150: 0ae0 a73f bb4d dd3d e0e7 2ebc 9add 2cbd
00000160: 172a e63f 376d af3d 7c8f 293f abb3 523f
00000170: 784c c6bd 001c 71bc 02fc 203b 83f6 dabe
00000180: 460a 833f 5b48 6b3f 9b38 153f 0845 71bc
00000190: 78f7 a13c db75 3d3d c293 993d a37e c23e
000001a0: 20cd aa3f f4fb 0bbd 643e 983d e410 a33f
000001b0: 9094 183e 8116 a83d 903b 713c cbc1 ae3f
000001c0: aebe 0e40 d621 933f 00b0 183f d150 d13f
000001d0: 0f7f 9abe 0edd e43d 8ed6 82be e574 ac3e
000001e0: 5aa2 463f e9d2 bc3f 17a7 c93f 7ff4 3740
000001f0: 2125 7f3f e439 833f 2491 1fbd 4222 f73f
00000200: 9f0f df3e 0da3 873c 409f 92bc d62c 5b3f
00000210: 163e 7b3f 6064 b9bd b0ce db3f 09c9 9d3c
00000220: 4621 f43d 36b9 ac3d bccd 26bd ca10 373f
00000230: 19c9 493f 173d 2d3e 2d11 443f e4e3 e3bd
00000240: 1c12 693f 0d6b 9a3f 12f5 84bd 06c0 a53d
00000250: 0183 9a3f 7ba2 15bd 70d1 c43c b487 8d3b
00000260: 5c62 da3e 8aa4 9a3c 48d9 783f 285f 603f
00000270: 184a adbc b4ea 043d aa05 b73d f6ef 893d
00000280: 8054 483f e962 803f 8208 a73f 694c ed3c
00000290: 6415 6e3d e666 6cbc 2491 95bd 0bf5 273e
000002a0: 7b43 b93f f524 5e3d 90ed 80bc c9c3 f53f
000002b0: 6195 933f cfc3 af3c db3d 39bd fd21 863f
000002c0: e50c ff3f ceda 8d3f cc4f 113f ffd8 9d3f
000002d0: 1588 c7be 8b4a 3dbc 2457 903e 7f03 5b3f
000002e0: f1c6 6a3f ed16 7f3f dccb ba3f 9186 1840
000002f0: dd64 bf3e 31fe 4a3f 804f 15bb ab9e 1540
00000300: c9bd 2b3f 569c d93e 5095 edbd 9019 163f
00000310: de46 853f 9c97 9a3d 894e 1740 26d2 90bc
00000320: 900e acbd 5e13 a2bd 95a0 b23c db1d 963f
00000330: 59c8 2040 34ca a9bd f553 813f 5293 c3bc
00000340: 55e9 803f 5cc7 833f 4089 d93c f6bb d43d
00000350: 1f8c 9f3f 3bf8 39bc c69a f83c 1310 b63d
00000360: a630 0240 f06f 6dbd cfc3 533d d672 063f
00000370: 1c96 dabd be95 b63d d2bb 463d de7b 5b3f
00000380: 3f30 c43f 99e9 763e 14b3 0b40 7b7c a73d
00000390: bb31 dcbd 4688 593c 24cb 81bd 0e9c b23f
000003a0: a66d ae3f bf77 cabd 00a9 9d3b 6e18 0440
000003b0: 50b0 d43d c887 1ebd 64da f7ba b763 6b3f
000003c0: 5856 3f40 e1d8 b83f 5774 913f 4e7a d13f
000003d0: ddba 84be daef c13c b20b 7a3f 0fb8 0d3f
000003e0: 8af9 483f 2468 0e3f 6ea0 aa3f 9d81 2440
000003f0: 0981 523f 952e 953f 9ff0 2fbd ebf9 f23f

4.bias f4 [8]
0.41879678 0.34285247 0.37180683 0.18684712 0.84497 0.0083284825 0.7017053 0.15400904
00000000: 886c d63e 5c8a af3e 775d be3e da54 3f3e
00000010: f44f 583f 3074 083c f5a2 333f 8cb4 1d3e
