2_PoliceDQN_ThiefDQN_rl/models/thief_dqn.pth (torch, 22684 bytes, 6 tensors)

model.0.weight f4 [64, 4]
00000000: b2e7 f5bf f00a 08bf 4b6b 2cc0 bd2b 99bb
00000010: 4eae a3bf 6296 45bf 96a3 81bf 31ec 5cbd
00000020: f575 c13f a650 b9be 36b1 01bf 5ed5 403f
00000030: b943 3f3f 82f9 4dbf 7394 0040 2807 b53e
00000040: c7ca 8c3d ed2a a53f 5de5 2d3f c190 5ebf
00000050: 869f 87bf ce6d 1cbf 7303 a8bf 10bc 4f3e
00000060: fc08 aabf aaba ffbd 6b2a 0040 c8cb f83d
00000070: 1b64 c73f 9ecc 0abf 6e8b 0940 674b 5d3f
00000080: d0fe 00bd b805 6fbe ac28 a7be 1809 dcbe
00000090: e74d d53f 253f 223f 3ccb d1bf b222 d7be
000000a0: ad8b ed3e 607b 1e3e d86a 47be 7ede 9b3d
000000b0: 51f1 f7bc 8fd2 86bf 8861 813e c6df 803f
000000c0: 50cf f33d 977b ae3f 7c15 e23d 878c 37bf
000000d0: c83e d8be c56e 193f 978c b33f 429f eebe
000000e0: 52ca ad3f 5786 d6bd 410c ab3e 2fbd bd3d
000000f0: 7297 07c0 0a10 66bf 05ad 1fbe 6f52 17be
00000100: ba2d 0bbe 1044 74bd a47c 863f e1cd 8c3d
00000110: f55b c1bf 2dc6 27bf 5667 d5bf 4c30 45be
00000120: da19 303f 48e4 463f afb2 d43f a32e 41bf
00000130: 8ea1 9b3f 35e4 06bf 53eb a8bf 7f48 2f3f
00000140: 41bc 5a3f 0a8e 2d3f f695 94bf 29af 09bf
00000150: e60b b7bf 9a89 f0be 563c 0bc0 89bc 1e3f
00000160: 702e 193f 9552 24bf 5828 bdbf f3d8 0a3f
00000170: 5dea fe3f 2a14 743f 5b5a e8bf 4990 21bf
00000180: 0e75 98bf 9c57 a6bd 857f 21c0 b909 c03c
00000190: faac 21c0 f0ec 583d 8720 76bf 3256 a9be
000001a0: 3726 10be ab51 e3be 4619 35be 732d 8bba
000001b0: 8476 4d3f 8c7f db3d 09a0 f33f d017 f2be
000001c0: 611c ccbe b576 51bf 9e98 debd e322 313f
000001d0: a381 63bf ffb3 5bbf aad7 b8bf e7ca fbbe
000001e0: 7f22 85bf 6681 9bbe 42b8 0440 1f0d d43e
000001f0: a343 14bf deb2 8ebf 23f3 cc3d f6cf 03bf
00000200: 899a 933f 70e2 823e 3d61 2a3f 151e 02bf
00000210: 6fcc 98be c68d 1fbf 27ca 6f3d 8344 a6be
00000220: 0250 22bd 523d 153f 57f2 c03f dbce d4be
00000230: 7224 7f3d e366 97bf ac4e 483f bd5a bb3e
00000240: 53eb c3bf 322e efbe cffd 1a40 46fe 303f
00000250: f163 90c0 1a40 233e 85ad 6fc0 eea6 adbe
00000260: 8cea 383f 3ebd 26bf 6b55 d9be 8906 003f
00000270: 67e2 dc3f 1070 7dbd f333 913f cf7e 373d
00000280: 162c 13c0 5031 24bf 1ac2 33bf af33 82be
00000290: 0f20 173d 0f46 47be 1894 c1bd 6e01 d2be
000002a0: 1a93 4ec0 eac2 cd3e a740 bbbf a01e f3bd
000002b0: f8a5 d6bc 4f4e b43e 730e 55be 9b13 82be
000002c0: bb40 6dbf 042a 29bf 357a 3d3f b29a 323f
000002d0: f7aa 20c0 32ca bebe bf2a 5abf 7a12 b0be
000002e0: 59f0 a63f a3e3 b43f 2d79 cfbe 85d6 15bf
000002f0: 3fa7 23c0 ba6b 33be fc66 ef3f c414 8e3e
00000300: 12bf 89bf d99b 6b3f 6e42 c9bf ad35 5abf
00000310: b1bc 32bf cba3 033e 8968 c53e 7bbd 363f
00000320: 3582 7abf b1ae 5fbf 983a 323d 5894 10c0
00000330: 5e5a 29c0 30d3 41bf 3f3c afbf 0e89 a4bc
00000340: 6f0a 8b3e 66e5 1cbf a65d 033f 342f 363f
00000350: 00dc 9dba a6d4 f4be d230 8fbe b8bd f3be
00000360: 34a7 113f 215c 503f 7fe1 2bc0 97e2 4fbf
00000370: 085b 70c0 8c4d cd3e b40c 8bc0 a77b 2e3e
00000380: e45b a6be ebcb fabb ff42 11c0 d62c 8f3d
00000390: 689b f33e 47f9 723f 60a3 3fbf 6d21 92bf
000003a0: 9032 ae3f 3717 21bf 578f 773f 9b8d 643f
000003b0: 7614 0fc0 d2d7 3ebf 2f29 e3be 9b18 003f
000003c0: d1f0 aa3e 53e8 273f 6f70 7a3f dc52 16bf
000003d0: ba6c 23c0 ff47 06bf 4568 a43e 3db7 b73e
000003e0: fecd 86c0 f595 babe 0f91 1fc0 c2a0 da3d
000003f0: 3190 a1bf fa19 7dbd d2f0 1240 e0d6 c43e
-1.9211333 -0.5314169 -2.6940486 -0.0046744035 -1.2787569 -0.7718259 -1.0128047 -0.053936187
1.5114123 -0.36194342 -0.5066103 0.7532557 0.7471271 -0.80458844 2.0090606 0.35357022
0.06874614 1.2903725 0.67928106 -0.86939627 -1.0595558 -0.6110505 -1.3126053 0.20286584
-1.3283992 -0.12486775 2.002589 0.12148243 1.5577425 -0.5421847 2.149135 0.8644318
-0.031493008 -0.23342025 -0.32648218 -0.42975688 1.6664399 0.633776 -1.6390147 -0.42018658
0.46395627 0.15476751 -0.19474351 0.076107964 -0.030266436 -1.0533007 0.25269723 1.006829
0.11904776 1.3631467 0.11039254 -0.716988 -0.42235398 0.59934646 1.402728 -0.4660588
1.3577368 -0.10474842 0.33407786 0.092645995 -2.1186185 -0.89868224 -0.15593345 -0.1477754
-0.13591662 -0.059635222 1.0506787 0.06875206 -1.5106188 -0.6553677 -1.6672161 -0.19256705
0.68789446 0.7769208 1.661703 -0.75461787 1.2158678 -0.52691966 -1.3196815 0.68469995
0.854435 0.6779486 -1.1608264 -0.537829 -1.4300506 -0.46979982 -2.1755576 0.6200643
0.59836483 -0.6418851 -1.4777937 0.5423729 1.9915272 0.9534327 -1.8152574 -0.63110787
-1.1910722 -0.08122179 -2.5234082 0.023442136 -2.5261827 0.052960336 -0.9614338 -0.33073574
-0.14077078 -0.44398245 -0.17685422 -0.0010618403 0.80258965 0.10717687 1.9033214 -0.47283792
-0.398654 -0.8182176 -0.10868953 0.6919386 -0.88869685 -0.8582153 -1.4440815 -0.4917824
-1.0401152 -0.3037216 2.0737462 0.4141626 -0.57915705 -1.1148336 0.10007312 -0.514892
1.1531535 0.25563383 0.66554624 -0.5082715 -0.2984347 -0.62325704 0.058542397 -0.32474145
-0.039627083 0.5829669 1.5073956 -0.41564068 0.062290616 -1.1828274 0.78245044 0.36592665
-1.530619 -0.46714932 2.4217412 0.6913799 -4.5122 0.15942422 -3.7449658 -0.3391642
0.7223289 -0.6513251 -0.4244798 0.5000997 1.7256593 -0.06187445 1.1343979 0.04479867
-2.2995658 -0.64137745 -0.7021805 -0.25430056 0.036895808 -0.19460319 -0.09452075 -0.41016716
-3.2277284 0.4018777 -1.4629105 -0.11871076 -0.026202187 0.35215995 -0.20806293 -0.25405583
-0.92676896 -0.66079736 0.740146 0.69767296 -2.5104349 -0.37263638 -0.85221475 -0.34389096
1.3042098 1.4131969 -0.40522137 -0.58530456 -2.557083 -0.17521563 1.8703303 0.27750218
-1.0761435 0.9203468 -1.5723398 -0.8523815 -0.6981917 0.12855451 0.38556316 0.71382874
-0.9785493 -0.8737593 0.04351291 -2.2590542 -2.6461406 -0.7571287 -1.3690261 -0.020084884
0.27156398 -0.61287534 0.5131477 0.71165776 -0.0012043715 -0.47818488 -0.27966934 -0.4760568
0.56895757 0.8139058 -2.6856382 -0.81205124 -3.755556 0.40098226 -4.3453007 0.17039357
-0.32491982 -0.0076537034 -2.269714 0.06990974 0.47579503 0.9491162 -0.74858665 -1.1416451
1.360918 -0.6292605 0.96703094 0.8927857 -2.2356238 -0.74548066 -0.44367358 0.50037545
0.33386853 0.65588874 0.9782781 -0.58720183 -2.5535111 -0.5245361 0.321108 0.35881987
-4.2126455 -0.36442533 -2.4932287 0.10675193 -1.2622129 -0.06179235 2.2959485 0.38445187

model.0.bias f4 [64]
00000000: 7d4a 10be 5023 a93b ce8d e8bb ae24 b6bd
00000010: 5294 8d3d fbb5 58bf 8665 a23f 26ad af3e
00000020: 987b aebe 6452 77be c5f8 2140 f154 33bf
00000030: 483e 883f b679 fd3d 1258 263f f852 943f
00000040: 0e4d 6a3d ee9f 843f b0db 08be 96ca 9bbf
00000050: 14eb a93c 3aac 9d3f 3fdc e2be 79f2 3fbd
00000060: 6349 abbe f3b7 44bf 896b 9fbd 4633 513f
00000070: 6217 5cbe 1916 cc3f a7cf b13e 6ac9 cb3f
00000080: ed11 e53f 2702 093f de0f 923f 689d 29bf
00000090: 4cc7 0abf a99b 973f fae6 f73f ebea 0abf
000000a0: 6548 8f3f ea8d 14bf 4293 483f ba6a 5940
000000b0: b5c6 d63c 3b19 803f d7f2 96be 2dbb 04bf
000000c0: 990a a0be ce5b ffbe e230 ce3f c2e2 e8bb
000000d0: b9d0 3c3f d09b 69be 0528 83bc cc08 49bf
000000e0: b1ce 80bf 9945 7e3f 7154 1ebf 75f6 8f3d
000000f0: 87d2 f8bd df68 98be 405c 843f d27d 15bf
-0.14090915 0.0051616803 -0.0070969826 -0.08893715 0.069130555 -0.8465268 1.2687232 0.3431179
-0.3407867 -0.24152523 2.5308087 -0.70051485 1.0644007 0.1237673 0.64978135 1.158782
0.05720239 1.0361307 -0.13365054 -1.2171199 0.020741977 1.2318184 -0.4430866 -0.0468621
-0.33454427 -0.76843184 -0.077841826 0.8171886 -0.21493295 1.5944244 0.3472874 1.5920842
1.7896096 0.5351891 1.1411092 -0.6625581 -0.5421035 1.1844379 1.9367363 -0.54264706
1.1193968 -0.58029044 0.783497 3.397139 0.026217798 1.00077 -0.29482147 -0.5184811
-0.31258085 -0.4987473 1.6108668 -0.0071071098 0.73755985 -0.22813344 -0.016010294 -0.7852905
-1.0063077 0.9932495 -0.618476 0.0702943 -0.1214953 -0.2976751 1.0340652 -0.5839511

model.2.weight f4 [64, 64]
00000000: 32ee 97be 946b 5c3e 4f9c efbd ab32 463f
00000010: c7f5 c3be 88b4 9a3e 4d36 afbe 723b 14bf
00000020: 3298 9e3d 6735 423d 0d4e 08be 4eae 38bf
00000030: 4a1f 89bf 996c 2bc0 95fa 57bf 3937 ca3f
00000040: f6ce 65bd be8f c43e a969 e1bf 400b 90bf
00000050: 7c46 cfbf 3fc8 7fbe 9d49 8dbf a9ee 1cc0
00000060: b7a3 ecbe 87a1 b3bf ef99 db3d 1334 5c3d
00000070: 44f2 e6be 24d2 9d3f 4963 41bf d8d6 783f
00000080: 5808 2a3d ff1b b6bd 0798 3dbe a76b dabf
00000090: a58a dabd 0a8c 243e 4613 813f 0a0b c73e
000000a0: a5ec 223f 387f de3d 688f 2cbf 0b74 853f
000000b0: 6c23 3ebc 72a8 9c3d 1922 c1bf e651 0b3e
000000c0: 22e0 a3be f3e3 253d 4b3a 163f 7252 95bf
000000d0: d897 993f 8051 ddbd 6084 83bf ddc9 71bf
000000e0: 07d9 90bd 8032 b63e 5211 38bf 2a0c 1fbe
000000f0: 148d 13c0 0c64 b4ba 54ca 2c3f e7fb 71bf
00000100: f7c6 683e 0351 6dbf ce56 c6be f881 cfbd
00000110: 54bd 42bf 3ba2 753e 7d82 e13d a8f8 bbbe
00000120: 9019 05bd 1c61 b6be a6f4 8b3d 31ba 42bf
00000130: 1e0f 1cbf 9086 16bf b424 a43b 0c5e 72bd
00000140: a893 7dbe f86a 3f3f 7eb8 6ebe 6813 98bc
00000150: 4a29 f3be 6cd7 023f c26b 583e 3ed7 b6bf
00000160: 2c1f 7a3e f54d 793e 24a3 de3c 52f2 7dbf
00000170: 28c4 313e 50a1 b4bf ff8a 7d3f 8b54 a3bd
00000180: f799 64bf 20f1 01be d5c3 15bc 46d3 6bbf
00000190: 9b61 9bbf 310b a63d f8ae 72be 37a0 d13e
000001a0: a3f2 3abf 28b1 18bd f083 ad3e 62d4 f03d
000001b0: 4d5e 42bf 1f7e 6f3e 7e14 21bf 130e a33e
000001c0: f0fa 23bd 467b 37bd 465e 7b3e a6f8 abbf
000001d0: e7a5 86bf e6ad ef3d 9127 4ebf 54c7 f23d
000001e0: d688 703e fbcd 9bbe 4bbe 2ebf 38d3 3fbf
000001f0: b841 323e d5c0 953e 5e35 1d3d 81c0 2dbe
00000200: d7e0 3dbd 04da 3b3f c040 27c0 551a fcbf
00000210: bd43 97c0 083c 813f 6370 8a3e bdc3 4a3e
00000220: ca66 cbbd 3279 66c0 1aa9 a83f dc63 69bf
00000230: 69b8 28c0 de60 ad3e 37ff 55bf 3ec2 a83e
00000240: 5c17 1b3f 78f0 943f 725b 56c0 7aca bebf
00000250: 144f dabf 7064 683f 0cca d8bf 7324 24c0
00000260: 7abd b7be 8e75 033f 48e6 1ebe 212f d43f
00000270: a010 f83e 95de 1340 46f4 13c0 9f2e ca3f
00000280: 11dc 07bc 0f81 8e3d 5480 4ec0 1463 303e
00000290: c67f 3cbf 94e5 8c3f 6acc e13f 35dd a5bf
000002a0: 6b3e 0b40 6dd4 a63b d684 c83e 8023 0540
000002b0: fbb2 81bf 8799 db3f 3aaa 89c0 e2aa aebf
000002c0: c699 83bf eb16 b53f db99 4b3e 3e9e cd3d
000002d0: d7c4 f53e 126d 903d d883 18c0 a581 1b3f
000002e0: 504a 9abe d915 acbf ad6c 6bbf 20bb e9bd
000002f0: d80a e7be 79b4 b63f 3ecc af3e 2b29 1fc0
00000300: 592a e73e 5dc2 383e 4bf2 ed3d 403a 18bf
00000310: 6a80 a1bf c427 b13d d013 d3be a511 c6be
00000320: 88ab 1dbd e2d3 94be b88b 853e 70d4 cc3e
00000330: b1b9 5ebf f77b a9be 028b a3bf 1ea5 583f
00000340: d921 45bf 0a7f f6be 4f8b 4ebf 1d92 cf3e
00000350: 1924 9b3e cdc9 2fbe cbf0 c5be 6293 ffbe
00000360: cbda 993e bd38 cb3e ef92 993d 42d9 f8be
00000370: 2674 683b 9d56 863e b57e a3be 6ef2 0c3c
00000380: a9b6 50be ffbf ff3e cfcf c7bf 5c27 51bf
00000390: afab 233f 98f2 82bd 8699 1dbf 1453 8fbf
000003a0: 0475 7cbf 548a c43d 1460 413f 9d8e 02bf
000003b0: a149 703f 2e81 e03c 7ab5 5bbf 37d3 673e
000003c0: a9db c1bf 530f 3dba 7289 ffbe 12e1 873e
000003d0: a6fd e4bd fc33 00bd 223d 93bf 2f30 96bd
000003e0: 3006 ee3e 7608 323e bf71 ee3d b9de e83c
000003f0: 70d8 c2bf 8e74 783d 1243 153f 4134 b4bf
-0.29673916 0.21525413 -0.116997354 0.77421063 -0.3827345 0.3021586 -0.34221116 -0.57903206
0.07743873 0.04741421 -0.13311024 -0.7214097 -1.0712674 -2.6785033 -0.8436673 1.5798103
-0.056105576 0.38390917 -1.761037 -1.1253433 -1.6193385 -0.24978732 -1.103809 -2.4520667
-0.46218655 -1.4033669 0.1072272 0.0537606 -0.4510671 1.2329755 -0.7554212 0.97202826
0.041511863 -0.088920586 -0.18515025 -1.7064103 -0.106709756 0.16069046 1.0084007 0.3887561
0.6364234 0.10864109 -0.6740632 1.0426039 -0.011605125 0.07649316 -1.5088531 0.1360546
-0.32006937 0.040500592 0.586827 -1.1665785 1.1999464 -0.108065605 -1.0274773 -0.94448644
-0.07072645 0.35585403 -0.7190143 -0.15531984 -2.3054857 -0.0013762726 0.6749623 -0.94525
0.22732149 -0.9270174 -0.38738102 -0.101322114 -0.7607014 0.23987667 0.11011217 -0.36713147
-0.03249508 -0.35620964 0.06833772 -0.76065356 -0.60960567 -0.58799076 0.005009258 -0.05917172
-0.24763358 0.74772596 -0.23312566 -0.018563941 -0.4749244 0.5110996 0.21134856 -1.4284437
0.24425954 0.24346144 0.0271774 -0.99197876 0.17359984 -1.4111729 0.99040216 -0.0797511
-0.8929743 -0.12689638 -0.009140928 -0.9211925 -1.2139162 0.08107603 -0.23699558 0.40942547
-0.73026484 -0.037278324 0.33889723 0.11759259 -0.7592514 0.23387955 -0.62921894 0.31846675
-0.040034235 -0.044795297 0.24547681 -1.3435256 -1.0519379 0.1170309 -0.80529124 0.11854425
0.23489699 -0.30430588 -0.68259114 -0.7493167 0.17407882 0.29248682 0.038380973 -0.16967966
-0.046357002 0.7337954 -2.613327 -1.9695536 -4.727019 1.0096445 0.2703887 0.1980123
-0.09931715 -3.6011472 1.3176606 -0.91168 -2.6362555 0.33862966 -0.8359255 0.32960695
0.6058252 1.1635885 -3.3493314 -1.4905541 -1.7055383 0.90778255 -1.693666 -2.5647247
-0.35886747 0.5135125 -0.15517533 1.6576883 0.48450184 2.3104603 -2.3117843 1.5795478
-0.008292214 0.0695821 -3.2265825 0.17225295 -0.73632467 1.1007562 1.7640507 -1.2958132
2.1756847 0.005091241 0.39163846 2.0802917 -1.0132746 1.7156228 -4.3020296 -1.3645899
-1.0281303 1.4147619 0.1988291 0.10039948 0.4800174 0.070520535 -2.383047 0.60744697
-0.3013482 -1.3444167 -0.919627 -0.114126444 -0.4512546 1.4273826 0.34335512 -2.4868877
0.45149496 0.18042894 0.11618479 -0.5946388 -1.2617314 0.08650163 -0.41226053 -0.38685337
-0.038493663 -0.29067904 0.2608316 0.40005827 -0.8700209 -0.3310239 -1.2776797 0.8462695
-0.7700477 -0.48143798 -0.8068132 0.40541163 0.30300978 -0.17166825 -0.38660273 -0.49917132
0.30049738 0.39691725 0.074987285 -0.48603255 0.003546962 0.26237956 -0.31932607 0.008602722
-0.2038218 0.4995117 -1.5610293 -0.8170068 0.63933843 -0.06393927 -0.61562383 -1.1197228
-0.9861605 0.095966965 0.7553723 -0.5099886 0.9386235 0.027405348 -0.85823786 0.22639166
-1.514516 -0.00072120613 -0.4990955 0.26538903 -0.11181192 -0.031299576 -1.1503031 -0.07333409
0.46489096 0.1738604 0.11642789 0.028426515 -1.5222301 0.06065803 0.58305466 -1.4078447

model.2.bias f4 [64]
00000000: 476b 793e 3693 80be 31ec 2040 a09b 21be
00000010: e731 773f bb71 e23c cf54 8e3d 609a e03d
00000020: 7df5 db3e c9eb 69be 745a f33d 2743 793e
00000030: 2db6 b83e e017 263f 5def 993e ee14 f5bd
00000040: d53a e23e 5dee 613d 68b9 023c 8fe1 d33f
00000050: 9b13 95bd 506b 143f eeb9 1cbe 8662 353e
00000060: cdb2 1d3f 3090 fbbd 0357 913e 9b37 ffbd
00000070: f733 50bd 1c10 e63e 457c eabd 68cb b03d
00000080: 7bbb 253f b6f2 ec3d fcf9 1a3f 2063 283f
00000090: 2f54 19be 95d1 2a3c 9407 023f 8061 62bd
000000a0: f8da 38bd 736d 43bd b772 fcbd 482d 14be
000000b0: 9f48 213f 363c 5b3f 0345 6e3e 323b a5be
000000c0: 377d cf3c cd47 d83f d431 8d3e 6804 c83e
000000d0: 18b8 a83f c6fa 3bbe 592e 44be 5c46 d83e
000000e0: daab 11bd d444 8d3d 4b50 aa3d f9b9 e2bd
000000f0: 671c de3e 9005 153f 30d3 21be 459f 6dbe
0.2435733 -0.25112313 2.514416 -0.15782022 0.9656052 0.027642122 0.0694977 0.10966945
0.4296073 -0.22843851 0.11882487 0.24342023 0.3607649 0.6488018 0.30065432 -0.11966883
0.4418551 0.05515896 0.007978775 1.655321 -0.0727913 0.57976246 -0.15305302 0.17713365
0.61600953 -0.12283361 0.28386697 -0.12461778 -0.050830808 0.44934165 -0.11449484 0.08632547
0.647392 0.11569731 0.60537696 0.6577625 -0.1497352 0.010425945 0.50792813 -0.055268764
-0.0451307 -0.0477118 -0.123265676 -0.14470398 0.63001436 0.8563875 0.23268513 -0.32271725
0.025328262 1.6896912 0.27577078 0.39065862 1.3181181 -0.18357381 -0.19158305 0.4224118
-0.03556428 0.068978935 0.08316096 -0.11070628 0.43381044 0.5821161 -0.15803218 -0.23205288

model.4.weight f4 [8, 64]
00000000: 01ee d7be b3c0 623f 7c04 7dbe d838 483f
00000010: 48fe f43d c5eb eebd da63 ac3e f5a1 e3bd
00000020: 510a 27bf 694c eb3d 9a86 adbe 49e8 263e
00000030: e0c4 6e3f 6ed5 12bd 0e06 a1bd 55c9 b43d
00000040: 08cc b63e 2f53 c03e e813 0e3f bad5 9ebe
00000050: 4a53 d63d acdf e0be a26f 383e 2212 863e
00000060: 3e87 c0be bcc0 10be efae 3a3d ac06 3cbd
00000070: a40e 5b3d 9b33 303f 2433 693d 922e 26bf
00000080: 664d 843e 0eb6 b23e 956d 36be c580 53bf
00000090: d885 b93d d83e 333f dea6 403d cf4d 763d
000000a0: 7165 613b e217 463e 1f25 aabd e0d6 38bd
000000b0: c75d 0cbf 7553 12bf 9800 e0be 1439 973e
000000c0: 11d8 85bb 2f43 6cbf 4208 1e3f 5a51 aebf
000000d0: 15a8 02bf 30d4 443f f254 7dbc c6c4 4fbe
000000e0: 3e8f 583a 2a6e 763f bcb8 ee3d fe79 aa3b
000000f0: 43d1 363d a9f9 f8be 22be 843f a141 0d3f
00000100: 0e4b 54bf 0937 023f 46e0 16bf 2fe5 003e
00000110: dc3a 953f 0d90 993c c57a 733d 4b48 543e
00000120: c237 1e3f acf2 4dbe d88b 3e3d 8e35 ffbd
00000130: 8eac 9d3f d9c3 15be fd01 0ebf 7132 923d
00000140: 8ab1 71be 8432 f6be 56ac f43e 9583 aebe
00000150: 9949 e63e f9f3 a1bf d653 3f3d 17e6 863f
00000160: 3767 50be 7079 0f3f 39a5 413e fc05 363d
00000170: a4ae afbd 1e82 223f ca78 afbc 7b77 7ebf
00000180: abfd f53d 9a70 d53e 6dfe 14be 2b59 73bf
00000190: 0f44 12bd 7803 0a3f 370d 55bf b613 e7bc
000001a0: 9b49 a53d 7cf4 3bbe c17c a53d c2bc b43d
000001b0: fe07 efbd 0957 9fbe a3bd 6bbe 5162 1abf
000001c0: 41eb 4cbb 8a12 b0be 647c fc3e f8a7 543f
000001d0: 0da3 af3d 130f e13c 56a4 97bd c924 de3e
000001e0: 5f66 c3bd 3f51 dc3e 2f35 b53e b932 e63d
000001f0: 6675 b4be d74c 68be 7929 473f 4005 923e
00000200: 76b7 113f 7b49 223f f6b2 f7be 6e81 8d3e
00000210: c4fb 173f 1591 663c caaa 763f cac8 ef3e
00000220: c17c 27bf 199d 38be 2537 4d3e 21df 1dbf
00000230: 4855 773f 079e 113f b36c 1f3f ab1d a63d
00000240: 004b 663f 9cd1 c43e ff06 923e c73e 80bf
00000250: 8a39 22bd 3d63 873e 6b69 c73e 9989 703f
00000260: c187 85bf 1943 803f 0f08 edbe 3d12 cfbc
00000270: 9c13 bfbd 1801 84bf 00fd 85bd 8053 ebbe
00000280: 9e51 303f 852d d43e 2df4 583f 46cb d93e
00000290: d698 62bd d3da cc3e f147 d63e 03b4 1d3c
000002a0: 7446 953c 65c1 2cbf 76ae cf3b d5f3 a4bb
000002b0: 7362 2f3f b770 ad3e 2e1c 133d 9d2b 4fbd
000002c0: 2263 813c 0648 903e 7c1b ee3d 57fc 6a3f
000002d0: 3016 66bf 2021 c63d e467 dd3b 7803 253e
000002e0: fe32 cdbc 2114 33bf 7bb2 1ebe 2b2e a03c
000002f0: c747 e5bf f4c2 11bf e6ac 743f 4243 b73f
00000300: 5ac6 66be 8901 22be 3a0a e3be 3fb7 e43e
00000310: 6ddc 10be 6780 edbd 7bb3 113f 31fb b03e
00000320: cc7b f7be b520 20be e6bd adbe a6aa 0a3d
00000330: 2c5e 76bd 7254 94bf eb1b 1f3f d4c1 d63c
00000340: 0c34 c4bd 7aa6 34bf 36a7 343e faff 71be
00000350: 4db7 003d 49a5 243f 8e8f c9bb 84ce 933e
00000360: af29 013e 539c e83e 86c4 aa3e c23e 63bd
00000370: 0a72 97bc 16b9 f03d 453c 1fbc d2e1 18bf
00000380: a2b2 5b3f 9303 d03e 54de 59bd 838f a13e
00000390: 9a65 85bd 7e67 4c3f 9840 9b3c 36a7 8c3d
000003a0: fa5a 07bd 0fc4 233f 7a64 023e 03bd e13d
000003b0: caa2 343d 6560 9c3e a042 2bbe 787b d7be
000003c0: 0032 b23c e4ff 84be c91c 3f3f 41fc 1dbf
000003d0: e20f 2bbe 0855 0fbf 240b f73b aeb2 163e
000003e0: e621 9a3b 76b1 053f 9444 56bd 0efe b9bd
000003f0: a8be a43d 029d 793f e883 d9be 0744 ed3e
-0.4217377 0.88575286 -0.24708742 0.78211737 0.11962563 -0.11666063 0.3366993 -0.11114875
-0.65250117 0.114891835 -0.33891755 0.16299547 0.9326916 -0.035848074 -0.07862483 0.088274635
0.35702538 0.37563464 0.55499125 -0.31022435 0.10465105 -0.43920648 0.18011335 0.2618571
-0.37603182 -0.14136022 0.045576986 -0.0459048 0.05348076 0.68828744 0.056933537 -0.6491481
0.258403 0.34904522 -0.1781524 -0.8261836 0.09058732 0.70017767 0.047034137 0.060132798
0.003439274 0.19345048 -0.083078615 -0.045126796 -0.5483059 -0.57158595 -0.43750453 0.29535735
-0.004084595 -0.92290014 0.6173135 -1.3618577 -0.5103772 0.7688627 -0.015462147 -0.20289907
0.0008261091 0.96261847 0.11656329 0.005202531 0.04463316 -0.48627976 1.0370524 0.55178267
-0.82927024 0.50865227 -0.58935964 0.12587427 1.1658587 0.018745447 0.059443254 0.20730703
0.6180383 -0.20112103 0.046520084 -0.124613866 1.2318285 -0.14625491 -0.55471784 0.07138527
-0.23602882 -0.48085415 0.47787732 -0.34084764 0.44978026 -1.265258 0.04671081 1.0538968
-0.20351873 0.56044674 0.18910684 0.0444393 -0.08578232 0.63479793 -0.021419901 -0.9940106
0.12011274 0.4168747 -0.1455018 -0.95057935 -0.035709437 0.5391154 -0.8322329 -0.028207641
0.0807068 -0.18354982 0.080804355 0.08825065 -0.11671446 -0.3112109 -0.2302156 -0.6030627
-0.0031268152 -0.34389144 0.49313653 0.830688 0.08576021 0.027473008 -0.074043915 0.4338744
-0.0954101 0.43030736 0.35392138 0.11240143 -0.35245818 -0.22685562 0.7779766 0.2851963
0.56920564 0.6339337 -0.48378724 0.2763781 0.5936854 0.014072676 0.96354353 0.46832877
-0.65424734 -0.18028678 0.20040567 -0.6166859 0.96614504 0.56881756 0.62275237 0.081111275
0.8995819 0.3844117 0.28520963 -1.0019158 -0.039605655 0.264429 0.38947615 0.9395996
-1.0432054 1.0020477 -0.4629521 -0.025277251 -0.09329912 -1.0312834 -0.065423965 -0.45962143
0.6887454 0.4144098 0.8474758 0.42537898 -0.055321537 0.400107 0.41851762 0.009625438
0.018222071 -0.67482597 0.006337936 -0.00503395 0.68509597 0.33875057 0.035915546 -0.050578702
0.01579434 0.2817995 0.11626336 0.9179129 -0.89877605 0.09674287 0.0067567695 0.16114604
-0.025048729 -0.6995259 -0.15497772 0.019553265 -1.791253 -0.569381 0.9557632 1.43174
-0.22536603 -0.15820898 -0.4434374 0.44671056 -0.14146586 -0.115967564 0.5691449 0.34566644
-0.48336637 -0.15637477 -0.33933944 0.03385415 -0.060148403 -1.1588271 0.62151974 0.026215471
-0.0958024 -0.70566523 0.17641911 -0.23632804 0.03142481 0.64314705 -0.0061511463 0.28868496
0.12613557 0.45431766 0.3335306 -0.055479772 -0.018486995 0.11754052 -0.009718959 -0.59719574
0.8581945 0.40627727 -0.053190544 0.31554803 -0.065135196 0.79845417 0.0189517 0.068678305
-0.033045746 0.63971037 0.12733641 0.11022379 0.04410056 0.30542293 -0.16724634 -0.42086387
0.021752357 -0.2597648 0.746533 -0.61713034 -0.16705278 -0.5598912 0.00753917 0.14716598
0.004703748 0.5222391 -0.052311495 -0.0908166 0.08044177 0.975052 -0.4248345 0.46340963

model.4.bias f4 [8]
00000000: 730c 393e ab60 453f 7645 5f3f de26 043f
00000010: 122c 2a3f f631 8a3f da3c 513f 672d b03e
0.18071155 0.7710063 0.87215364 0.51621807 0.66473496 1.0796497 0.8173348 0.3440964
