3_PolicePPO_ThiefDQN_rl/models/police_ppo.pth (torch, 42466 bytes, 11 tensors)

0.weight f4 [64, 4]
00000000: e94c 57bd 2c86 37bd a928 1e3e 8c20 603e
00000010: 1e1c a83d ec1f 31bd 4558 5b3d 2125 be3e
00000020: f7be e4bd a88e 77bd a57f 46bd 7b21 ea3e
00000030: 2a2d 323e b2ef 213d f99e 0ebe 2761 8dbe
00000040: 6c2d 92bd f27b efbd 07e9 933c 986b 4cbd
00000050: 0fbd efbd 59b5 143d 703c d93d be9e 303e
00000060: 9521 833c c481 39bd 3a3b 9ebb ff9f f33c
00000070: 45a5 ba3d 5e5b b83c ac55 88bd df63 23be
00000080: c7ea 99bd 61e1 0cbe a10e 0bbe 8e00 9a3c
00000090: 4038 f33d 3e35 413e b339 64bc 328a ce3d
000000a0: 1a75 bc3b 65ce 98bd 02f0 c2bd 02ca 5abc
000000b0: 5b31 863c 7829 0dbd b68a 143e 76d8 543e
000000c0: 29d2 e0bd 08ce 1f3c 4616 043d 9808 633d
000000d0: 6e60 91bd 7e2f 7fbe 914c a1be ec68 bcbd
000000e0: cbf7 73bc 4eb1 493d 3fdc aebd 4455 673e
000000f0: 4a60 a4bd f11a 8ebe 63a1 d7bd 3f29 2fbe
00000100: d1bd 783e 1e9e 0cbe 55f6 02be 9df3 7dbe
00000110: 9a8d 11be 9a98 4b3e 194b 84bd 2afb a83e
00000120: 904d 943d 4e76 703e c710 f13c 25dc db3e
00000130: 9277 aa3e e6d5 4e3e eb00 923e c6cf 3cbe
00000140: b89e 9dbd b393 01be 7941 b23d 2b9d 54bd
00000150: a28f f73d bf7e c13b 7ddc 133e d706 253d
00000160: 2075 863e 771b 473e 3995 2b3d 3d87 963e
00000170: 7ac6 823e 8afc dcbd 8243 463e 923c 8ebe
00000180: 2167 403e 105f ffbc 8162 8bbd 5828 223e
00000190: 8bd8 4f3e 012e 4abd d932 aabd 799a 6fbd
000001a0: e37b d9bb 0890 593e 7008 de3d 544b 503e
000001b0: 69cf 873e 4ceb a03d 0f4e 10be 4656 81bd
000001c0: 0ffe 9abd 740b 16bd 44ea cd3d 07e0 34be
000001d0: f071 9c3c 8fd3 173e 6126 2d3e 0692 a9bd
000001e0: b1ef 6e3d 7352 b33d e6ae b2be 8b38 b7be
000001f0: 857d f9bc 59cc d43d 9b5f 323d c018 a8bd
00000200: 4d86 243d a921 6d3d c2a6 98bd ec5c 80bc
00000210: 32a4 713e 434c 0f3d d7e7 cb3d b2a0 c5bd
00000220: d2fe 0c3e 19db 3b3b 1e92 41bd 9461 b73e
00000230: f615 13bd 0075 98bd 4fe1 2f3d 83b9 babe
00000240: 13c0 a9bd 2b46 fd3c db41 2ebc 6abc 8cbd
00000250: 81b4 30be 88fe 27bd 7287 54bd 38af e73d
00000260: d300 55be 320d 56be c272 da3e dd0f d03e
00000270: 9564 babb 92dd 0b3d 1414 3d3e 46a5 3eba
00000280: 5da2 0ebe 2668 ca3d 4e46 933d 5f35 c93d
00000290: 59b4 2abe e392 20be 37d5 d7bd 5a38 8bbe
000002a0: 6269 47be 5941 93bb f920 803e 8d42 b23e
000002b0: da05 cdbd 19c3 b5bd a48f 503e edb6 1b3d
000002c0: 0ad3 18be 7f08 61be 0f9a a8bd b22f 92be
000002d0: 87dc 133e d7ea 3ebe e8e4 7c3d e8ce aebe
000002e0: 3991 813d 5366 603c bd45 a3ba 0070 50be
000002f0: 0155 b53e 599a 62bb aba8 583e 6fe4 12be
00000300: 0272 61bc efe2 acbd b8be 8f3e 5f8a 463e
00000310: b569 a4bd 0b06 33bc 7a8e 723e 9ed3 823e
00000320: 6f8f a9bd 5458 d83d 1ac3 83be b89d 323e
00000330: b2fe 57be d699 ec3d 0dfc 58be 7c9e 87be
00000340: b3ac 01be a5bf 3e3d 9430 9f3d 2f1e 9cbe
00000350: 3495 8cbe 0d88 2abe 481f 33be 1871 97be
00000360: c3e6 b03d 73e2 df3d b690 44be c771 f13d
00000370: a392 a13d 025f f5bc c075 61bd d474 34be
00000380: 3361 bd3d 7a75 16bd 3b57 45bd 1594 4fbe
00000390: 1e9f c4bd a5d9 16be c8d6 5c3e 1b4d c0be
000003a0: b004 683e a40b 13bd d0b3 563e 73d1 93be
000003b0: 0265 5a3e 912d 5a3e 42be cc3e daae cf3d
000003c0: 93ec f93d 6c09 983e ccaf b53e 4870 f23a
000003d0: 5253 efbd 0801 83be 0b55 81be 78e9 dbbd
000003e0: 9dcb b4bd 014a 80bd 554c 053d b79f 4fbe
000003f0: 70bd 2d3e 97ee 09be 3a56 3fbd d688 0abe
-0.05256358 -0.04480569 0.15445198 0.21887416 0.08208488 -0.043243334 0.053550977 0.37137702
-0.11169236 -0.060438782 -0.048461575 0.4572867 0.17400041 0.039535232 -0.13927831 -0.27613184
-0.0713757 -0.116935626 0.018055452 -0.049907297 -0.11705982 0.03630576 0.10607231 0.17248055
0.016007224 -0.04528977 -0.0048288377 0.029739378 0.09113554 0.022504505 -0.066569656 -0.15956067
-0.07515483 -0.1375785 -0.13579799 0.018799093 0.11875963 0.18867967 -0.013929772 0.100849524
0.0057512643 -0.07461242 -0.09518434 -0.0133538265 0.016380956 -0.034463376 0.14506039 0.20785698
-0.10977585 0.0097537115 0.032247804 0.055428118 -0.07098471 -0.2492046 -0.31503728 -0.091997
-0.014890621 0.049241357 -0.08538102 0.2259112 -0.08026178 -0.2775493 -0.10528829 -0.17105578
0.24291159 -0.13732192 -0.1278928 -0.24799962 -0.14214173 0.19882432 -0.06459636 0.33004123
0.072413564 0.2348263 0.029426945 0.42941394 0.3329435 0.20198783 0.28516325 -0.18438634
-0.07696289 -0.12653999 0.08703894 -0.0519077 0.12087943 0.005905002 0.14439578 0.040289726
0.26261234 0.19444071 0.041890357 0.29400054 0.2554205 -0.107903555 0.1936169 -0.27780586
0.1878934 -0.031173259 -0.068058975 0.15835702 0.20297448 -0.04936028 -0.0831048 -0.058496926
-0.006637083 0.2124635 0.10841453 0.20341235 0.2652543 0.07857379 -0.14092277 -0.063152835
-0.07567989 -0.036632016 0.10054448 -0.17663585 0.019097298 0.14826797 0.16909172 -0.08279805
0.058334056 0.0875596 -0.34899062 -0.35785326 -0.03045536 0.10390539 0.043548208 -0.08207846
0.04016714 0.05789343 -0.074536815 -0.015669309 0.23597792 0.03498484 0.09956329 -0.09649791
0.13769081 0.0028664528 -0.04725849 0.35816634 -0.035909615 -0.07444191 0.04293948 -0.3646966
-0.082885884 0.030917248 -0.010635818 -0.06871875 -0.17256357 -0.041014224 -0.051886983 0.11312717
-0.20801096 -0.20903471 0.42665678 0.40637103 -0.00568826 0.034146853 0.1846469 -0.00072725525
-0.13929124 0.09883146 0.07191144 0.09824633 -0.1667036 -0.15681033 -0.105387144 -0.2719143
-0.19473794 -0.004493874 0.25025156 0.348164 -0.10010882 -0.088751025 0.20367295 0.03801625
-0.14924255 -0.21975897 -0.08232509 -0.28552014 0.14439593 -0.18644272 0.06174174 -0.34142232
0.06326527 0.013696271 -0.0012456697 -0.20355225 0.35416415 -0.0034576862 0.21158092 -0.14344953
-0.013760092 -0.08441722 0.28075194 0.19388722 -0.080279745 -0.010926734 0.23687163 0.25552076
-0.08279311 0.10563722 -0.25734788 0.17442977 -0.21093252 0.115527794 -0.211899 -0.264881
-0.12663536 0.046569485 0.077729374 -0.30491778 -0.27457583 -0.16653462 -0.17492402 -0.2957847
0.08637764 0.10931864 -0.19195828 0.117892794 0.07889297 -0.02995253 -0.055043936 -0.17622691
0.09247055 -0.036733128 -0.048178893 -0.20271333 -0.09600662 -0.14731462 0.21566308 -0.37558827
0.22658038 -0.035899773 0.2096703 -0.28870735 0.21327594 0.21306445 0.39988905 0.10140772
0.12203326 0.29694688 0.35485685 0.0018496597 -0.11685814 -0.25586724 -0.25260195 -0.1073789
-0.08827899 -0.06264115 0.0325435 -0.2027577 0.16966796 -0.13469921 -0.04671309 -0.13528761

0.bias f4 [64]
00000000: eba5 5abe dd5b a0be 5d2c 9cbe eba1 553e
00000010: f787 c6bc 15f0 80bd 3054 2dbc b91a 963d
00000020: 88eb 753d 9cfe 1d3c 2cbd fe3b e99c 20be
00000030: 808d f8bc 5b41 cc3e 74db 9dbd 169e b63d
00000040: 2f41 133e 44f1 24be 28f4 79be 52d6 173d
00000050: 2dc1 b1bb da08 62bc 0065 70be 45d8 c8bc
00000060: fe2d d1bd 7fe8 de3c 7b2c dabd 2192 cf3a
00000070: e8f6 8e3d 409f ebbb 3fb1 be3e 9ed2 1e3d
00000080: 8906 9a3c e6fb ac3d f165 a4be 7c40 993e
00000090: 7e65 003d 83ef b1bb c3a2 e3be 5679 37bd
000000a0: 9644 52bd 27b6 823e 6c0c bebe 824f 85bd
000000b0: aa0c 783e 3993 ea3d 5672 173e abaa 4bbd
000000c0: 67b0 51be a66e 5bbe 04de aa38 be35 b53e
000000d0: 1d33 603e 174c cb3e 66de 723b 7ece 033e
000000e0: 24c5 0a3e d268 1a3e acb0 153d 0ff3 78be
000000f0: 20b8 13be e160 5b3e 2e7f 173e c290 963c
-0.21352355 -0.31320086 -0.30502596 0.20862548 -0.024234755 -0.06295792 -0.010579154 0.07329316
0.060039073 0.009643223 0.007774016 -0.15684856 -0.03034091 0.39893612 -0.07707873 0.08916871
0.14380334 -0.1610766 -0.24409544 0.037069626 -0.0054246397 -0.013796056 -0.23476028 -0.024517188
-0.102138504 0.027210472 -0.10653015 0.0015836396 0.069806874 -0.007190615 0.37244603 0.03877508
0.018801944 0.08446483 -0.32109025 0.2993201 0.03134679 -0.0054301633 -0.44460115 -0.04479345
-0.05133494 0.25529596 -0.37118852 -0.065093055 0.24223581 0.11453862 0.1478971 -0.04972331
-0.20477448 -0.21428928 8.147585e-05 0.35392565 0.21894498 0.3970649 0.003705883 0.1287174
0.13551766 0.15079048 0.03654544 -0.2431147 -0.14425707 0.21423675 0.14794609 0.018379573

2.weight f4 [64, 64]
00000000: e750 29bc 0028 8c3c 3e17 c1bb ca0b 5abd
00000010: 0b23 7cbe e55c 51be ccf1 213e 79e9 d5bd
00000020: e04a bf3d 2dcf 0d3d 846f d53d 10cf 693d
00000030: 6ca6 9c3d 4ad2 383e 86e9 953c e140 14bd
00000040: a724 d6bd d193 c83d ed07 e03c b69a 913d
00000050: 7a8c ec3d 6dd7 0a3e 2ed7 b23b e267 203d
00000060: 4525 113e 18d5 da3c 791c dd3d 9c9f ecba
00000070: b901 14be 7ae9 983c 7dae 8f3d 4147 59be
00000080: 07db 843e 895e 0f3e 4e15 773e 0e44 23be
00000090: 6faa 9d3d 0888 d03d 7919 31bd 8dc2 ab3b
000000a0: 9ff4 15bd 8e27 5bbd 4529 083c 1c7a 893d
000000b0: aded cabd 3f70 cdbb 63db a0bd 98a5 b13d
000000c0: a792 173e 3cd7 91bd bbf3 50bd 6009 83be
000000d0: 122a bfbd 841e 92bb b814 8b3d fd25 ba3c
000000e0: b93c 8abd c99c 5ebd f0ae 843d 2d60 84bd
000000f0: fb05 18be 4ba5 17be a566 1fbd ba85 efbd
00000100: acae 3e3e fb41 053e 9a8b a1bc 4f48 e63d
00000110: 0b89 53bd ede9 653e 0d87 0dbe 9643 dcbd
00000120: ddc4 573d 62f3 f23c 9c04 023d 3005 9a3d
00000130: 5faf f0bc 5722 8dbd de90 9c3d bb3a 033a
00000140: 45ac 1cbe 9d6f 283d fa11 2ebd da53 cb3c
00000150: 7cb7 62be 25b5 8d3d 434b f23d c240 84bd
00000160: 842f 4e3d dd06 cabc 622d a0ba 4da0 b63a
00000170: 08ed 2ebe 1101 e2bb b2ed f83c a077 b1bd
00000180: 33c9 2c3e b58b 82bd ef26 1cbe 9186 90bb
00000190: 89a3 c8bc 230a 2d3e 77b0 14be 516f a93d
000001a0: 05fd 8bbc 9254 ee3c 5b80 d23d 0359 a0bd
000001b0: 4e6b a1bd bc62 1f3d 4e72 13be 6bb3 1fbe
000001c0: 9d29 8d3d 9c27 d4bc 9d41 6e3d 760e 17be
000001d0: a821 563e 9e70 08be 2797 723c 27dd e9bd
000001e0: dd78 38be f0a1 1bbd 1bd4 183c 404d 37be
000001f0: 6644 0e3d 306f 99bc ef15 25bc 9140 70be
00000200: e187 2abd b6ff 6abd ef88 943d 9638 183d
00000210: 933f bcbd e066 10be 95c0 113e 2852 053e
00000220: 6c4b 1cbc 9860 bd3c f68a 423e a5ac a6bd
00000230: 0837 0f3e 05d2 bf3d 63fe 2e3e d5ad 7cbc
00000240: cf16 353d 2b89 003e 8f1c efbc b0f5 e8bb
00000250: c79f 813c a46b c73d af2a 0dbe aa03 21bd
00000260: 1d79 593d 1d43 783d ebd4 3cbd a751 06bd
00000270: 02ce 463c 7cca b23d f3d2 43b9 604a 43be
00000280: 4a41 053e 4d7a eb3c 5560 ee3b 2fb5 c6bd
00000290: 254a f13d fe68 d63c c6ae dc3d bb98 76bd
000002a0: 60a1 b1bc fb9d 9e3d 5ba0 a93d 9df1 ebbd
000002b0: 0d04 783c 2c3e 52be d464 abbb b466 cd3d
000002c0: 9380 6dbd 36fb 5a3d e9c3 803d 4837 fabb
000002d0: 4ca8 60bd df52 ab3d e3c6 08bd c94a 33be
000002e0: 5709 263a b8c4 dbbd a87d e3bd c705 bab9
000002f0: 2830 823d b665 2d3c 7755 3fbe 3d89 98bc
00000300: 5eba 58bd dccc 0bbd 5c93 a1bd af96 a0bb
00000310: b4b6 833c 5086 483e 34ca e6bd ba3d d63d
00000320: 4eec 2c3d 4b52 453e fc0b d8bd eee4 aa3d
00000330: 93f0 51bc 5a3b 23be 0da1 bf3d 72f7 16be
00000340: 30e0 29be 505c 463e 2be7 d7bd 4a02 9c3d
00000350: af95 223b 70a3 873d 191f bfbd 850f e7bc
00000360: daa5 09be 96a9 5cbe bd82 2c3e b642 cabd
00000370: 34f2 9b3d eaa9 4bba 72cf 87bd aabe 633c
00000380: 775a 76bc c043 60bd 75b3 3ebe 6ab1 503c
00000390: 60cc f2bd 4339 d0bc cc7d 353e 164e 8d3e
000003a0: 282d 843e bb58 70bd 4a5f 033e a793 21be
000003b0: b364 a03c 56fe 803d e5a7 253e 311f e3bd
000003c0: 4859 263d 573d 383e dd2c 49bd 6483 03be
000003d0: 6132 8d3d 5fa0 16be d93a 0d3d ba50 84bd
000003e0: e9aa 0cbe 5da5 7d39 02ab 23be c5a0 993d
000003f0: 30dc 9b3d ef75 afbd 7faa 4a3e 87ef 8fbe
-0.01033423 0.017108917 -0.0058926633 -0.0532339 -0.24622743 -0.20445593 0.15814894 -0.10444922
0.09340453 0.034621406 0.104216605 0.057082236 0.0764893 0.18048969 0.01829983 -0.036194686
-0.1045621 0.09793819 0.02734753 0.07109587 0.11550231 0.13558741 0.0054577803 0.03916157
0.14174373 0.02671294 0.10796446 -0.0018052938 -0.14453782 0.018666018 0.07015703 -0.21218587
0.25948355 0.14000906 0.24129221 -0.1594393 0.07698523 0.10182196 -0.043237183 0.005241698
-0.036610242 -0.05350452 0.008310621 0.06712744 -0.09908614 -0.0062694843 -0.07854345 0.086741626
0.14802037 -0.07121131 -0.05101369 -0.2559309 -0.09334196 -0.004459204 0.06791061 0.022723192
-0.06749863 -0.05434874 0.06478679 -0.064636566 -0.14846031 -0.14809148 -0.03891625 -0.11695428
0.1862132 0.13013451 -0.019719888 0.112442605 -0.051644366 0.22452517 -0.13821049 -0.107550785
0.052677978 0.02965707 0.031742677 0.07520521 -0.029380498 -0.068913154 0.07644819 0.0005006005
-0.1530009 0.041122068 -0.042497613 0.024820257 -0.22140306 0.06919316 0.11830761 -0.06457664
0.050338283 -0.024661476 -0.0012220556 0.0013933271 -0.17082608 -0.0068971 0.03038678 -0.08665395
0.16873626 -0.06374303 -0.15249227 -0.004410573 -0.024492042 0.16898398 -0.14520441 0.08273185
-0.017088423 0.02909306 0.10278388 -0.07829478 -0.07881795 0.03891252 -0.14399073 -0.15595786
0.06892703 -0.025897793 0.058168042 -0.1475161 0.20911276 -0.1332421 0.014806545 -0.114191346
-0.18014856 -0.037996233 0.009327914 -0.17900562 0.0347332 -0.018729776 -0.01007603 -0.2346213
-0.04163349 -0.05737277 0.072526805 0.03716334 -0.09191813 -0.14101744 0.1423362 0.13019621
-0.009539466 0.023117349 0.18998322 -0.08138398 0.13985837 0.0936623 0.17089228 -0.015422304
0.044211205 0.12552325 -0.029188422 -0.0071093664 0.015823258 0.09737328 -0.13785814 -0.039310135
0.05309402 0.06061088 -0.046101492 -0.032792713 0.012134077 0.08730027 -0.00018675234 -0.1907134
0.13013187 0.028744841 0.0072746673 -0.09702527 0.1178172 0.026173111 0.10775523 -0.06020425
-0.021683395 0.07744976 0.082825385 -0.115206935 0.0151376845 -0.20531529 -0.0052305255 0.10029355
-0.057983946 0.05346223 0.06287367 -0.0076359846 -0.054848 0.08365416 -0.0333928 -0.17508997
0.0006333789 -0.107308805 -0.111079514 -0.0003548099 0.06356841 0.010583332 -0.18684946 -0.018620128
-0.05291211 -0.034130916 -0.07889435 -0.0049007754 0.01607833 0.19582486 -0.11269036 0.10460992
0.042217545 0.19269674 -0.10549161 0.08344446 -0.012813705 -0.1594061 0.0935689 -0.1474283
-0.16589427 0.19371152 -0.10542139 0.07617624 0.0024808457 0.0662297 -0.09332103 -0.028205642
-0.13442174 -0.21549067 0.16846748 -0.09876005 0.07614556 -0.00077691546 -0.06631364 0.013900438
-0.015036217 -0.05475211 -0.18623145 0.012737611 -0.11855388 -0.02541793 0.17723769 0.27598637
0.258157 -0.05867837 0.12829319 -0.15778981 0.019579267 0.06298511 0.16177328 -0.11089934
0.04061249 0.1799215 -0.04911505 -0.1284309 0.06894375 -0.14709614 0.03447995 -0.0646071
-0.13737072 0.00024189563 -0.15983203 0.075013675 0.07610357 -0.08567416 0.19791602 -0.28112432

2.bias f4 [64]
00000000: 7cdf 9b3a e61b 4dbc cc5e a0bd a8ab 5ebc
00000010: 70ac 093e 75e8 fcbd 9f1e 9bbd 1133 eb3d
00000020: 556b bb3b 53cb 063e 1eb7 c1bd fef4 713d
00000030: b05b 853d 78c1 02be 4a61 453a 35e8 a8bd
00000040: 19a2 a7bd eca0 8b3d 3ec3 963d bb0c 89bd
00000050: 8ee9 98bd 095a a3bb 76fc af3d 7771 393e
00000060: 60e1 99bd 898d 7fbd e380 403d 6b71 513d
00000070: 60fa c83c d5a3 b1bc 53a0 99bd e0b5 9d3c
00000080: a61c bebc 5902 9c3d 6bcb cabd 4a6d 6d3d
00000090: 7091 8b3d 0625 f2bd 423b d6bd 9527 75bc
000000a0: eb4a b53d ba51 b13d 6ae4 e93a 2adc 82bd
000000b0: e6b8 3f3c a9e7 043c 2e31 353b 631d a13b
000000c0: 38fd 4e3d c11e 953d fa65 57bd d4df 7bbc
000000d0: 1055 c53c a1db b23d 3536 96bd 11cc a2bd
000000e0: 34c8 153d b40d 333c 85d8 253e 41de 0ebc
000000f0: d616 ce3d 021c 043e 73f2 9cbc 8d61 473d
0.0011892165 -0.012518859 -0.07830581 -0.013590731 0.13444686 -0.12349025 -0.075742 0.114843495
0.005719582 0.131635 -0.09458755 0.059071533 0.06511629 -0.12769115 0.0007529451 -0.08247415
-0.081852145 0.06817803 0.07361458 -0.06691881 -0.07466422 -0.0049850983 0.08593075 0.1810969
-0.0751369 -0.062390838 0.046997916 0.051133554 0.02453345 -0.021684567 -0.075012825 0.019251764
-0.02320702 0.07617635 -0.0990208 0.057965554 0.068148494 -0.11823468 -0.10460521 -0.01496305
0.0885218 0.08658166 0.0017844562 -0.06389649 0.011701798 0.008111873 0.0027647722 0.0049168332
0.050534457 0.072812565 -0.052587487 -0.015373189 0.024088413 0.08733297 -0.07334558 -0.07949079
0.03656788 0.01092856 0.16195877 -0.008719982 0.10062949 0.12901309 -0.019158578 0.048677016

4.weight f4 [8, 64]
00000000: 8e0d 733d e358 53bd b182 12be 3cec 903d
00000010: 5048 e73d 01f3 b1bd 9be0 a8bd 79a6 6d3d
00000020: d61b cc3d c445 5fbc 43a5 d8be 6085 a43e
00000030: 326c 5d3e 16a0 6bbe c740 823d 53a3 af3d
00000040: dd8b e8bd 7f43 203e 97a4 153e 80f1 9abd
00000050: 7f32 6abe 55bb a13b a3c5 d4bb e402 993e
00000060: db65 18be 9c33 9dbc 448b 1e3e 6eb7 b23e
00000070: 2fd0 3b3e 97c8 ebbd 204e 87bd 7a34 19be
00000080: 4505 8abe 76f0 773e fdbe f7bd 26ea 3e3e
00000090: eb75 343e b013 71bc d4ba 053d a2f3 e03c
000000a0: 924d 793e 0b09 833b 9b82 44be 7ecc 0b3e
000000b0: 6235 ebbd 6c50 1b3e 263b 94be 9a9d 913c
000000c0: 692d a73d 5f6b 3a3d ba42 04be bfc3 843e
000000d0: 70a7 713e fec0 03be 8fbb 0cbe 4ccb a4bd
000000e0: 8105 4d3c 3ea1 543d cc5a d03e 82d3 763d
000000f0: 4a3d ca3d 85c4 1d3e 926e 5bbd b9d4 583e
00000100: 162b 6e3d 09eb 9dbd 7841 b7bb f0b4 85be
00000110: 60d4 603e 7be6 b2bd 94c3 f9bd 69f4 b0bd
00000120: 0413 2a3e f732 8d3d 1ad4 83be 5b57 ae3d
00000130: a709 a03e b867 c5bd 5d25 313e 0aa0 0e3e
00000140: 2465 51be a8b6 313e 64ad 93bc 366a 42be
00000150: 0e1f 84be 1b2f 053e e689 c0bb 02c7 be3e
00000160: 5698 edbd b247 4dbe ac52 c8bc 73c5 473e
00000170: 93e9 573e 1f51 05be 32d0 04bd 1913 83be
00000180: af67 13bb 3535 8b3d 9c54 14be 6d2a af3d
00000190: 9285 343e 3391 b03c e92c 1cbe f7a6 ebbc
000001a0: e821 163e 8292 dd3d 7267 aabe 7759 dfb9
000001b0: 901a 47bd a8da 503c 3c44 e13d 3ea1 783d
000001c0: d0ef 3e3e a935 62bd b989 e0bd 8d71 943e
000001d0: 134f c73e 16b4 a3bd a78c 8fbd 4eda 88be
000001e0: 2e0a b1bd 85b5 6dbd dec0 943e 212c e63d
000001f0: c2bb ab3e 4b38 4a3e d494 ffbc d16d 4f3e
00000200: 8240 293e 9337 283d a59a d1bc ae69 51be
00000210: 6f32 893e 6a68 8cbe 6865 9ebb fb1c 8e3d
00000220: 3895 603d 11da e63d a36c 8dbe d97d 343e
00000230: 3f8a 983e bb3a 38bb 6efc 9a3d 7492 4e3e
00000240: a361 68be d98c eb3d 6224 e5bd 448d 50be
00000250: 1736 70be e183 8f3d 1d40 0e3e f8c1 fa3e
00000260: 9177 a8bd 2781 28be c10f bcb9 1754 043e
00000270: 2c6d 113e 183b 2dbd e33a ce3c 2452 45be
00000280: ac97 333d 62ce 533e 5c5f 6ebe ddff 0e3e
00000290: d8a1 653e af6c 14be 2949 a6bd f321 df3d
000002a0: a4be ab3e 3739 ca3d d574 89be 344c 123d
000002b0: cf15 58bd 2934 9e3d a8b5 32be d0de 50bc
000002c0: f887 103e 694a aa3d e326 52be 24d7 4d3e
000002d0: 6d5f 4a3e 2bea fabd 9e3d e8bc 76c7 52be
000002e0: df62 97bd 7f57 b2bc 928f d33e 31c5 473e
000002f0: 3dc1 323e 6363 9f3e cc10 f1bd 4d2a c83d
00000300: 2baf 3f3e 30a3 24bc af19 d6bd 47ef cdbd
00000310: e371 423e c845 44be 6da9 98bd 26ea eb3d
00000320: 053b c73c e6e8 e53d 027e c8be 2111 893e
00000330: 4fdc 993e 3d68 4bbe bd16 9bbc 5801 0c3e
00000340: e296 32be 6ad4 c13d 9f46 a63d 4eae 22be
00000350: 9cce 61be dcf3 b63d 9372 db3d 7eed bf3e
00000360: fe9b eabd 42b3 bebd 4431 813d a427 343e
00000370: 0cb3 063e 93c1 56bd 2265 62bd 1f7a 13be
00000380: f356 69bd 1b10 6d3e 6309 58be 080a 203e
00000390: 8937 843e ccd4 fbbd bd7d 84bd 8e29 b93c
000003a0: 05f7 a23e a47c 363d e5b9 84be cdcf 533d
000003b0: 8f89 eabd d24a 293e 3080 b7bd 3a43 f03c
000003c0: 8bd7 113e 68de ed3d 29ed 51be cec3 573e
000003d0: 3444 0e3e 3804 90bd 0127 87bd 4de6 3fbe
000003e0: d17a 0ebd 18d3 663d 9683 ae3e e1f9 653d
000003f0: 8358 993d ef5d 573e 6e79 d8bd 7f87 b13d
0.0593391 -0.05159844 -0.14307667 0.07076308 0.112930894 -0.086889274 -0.08245965 0.05802009
0.09966247 -0.013627473 -0.42313585 0.32133007 0.21623304 -0.23010287 0.063600115 0.085760735
-0.11354802 0.15650748 0.14613567 -0.07565594 -0.22870825 0.004935662 -0.0064932867 0.29885018
-0.14882605 -0.019189648 0.15482813 0.3490557 0.18341134 -0.11512869 -0.06606698 -0.14961424
-0.26957145 0.24212822 -0.12096975 0.18644008 0.17623107 -0.0147141665 0.032648876 0.027459923
0.24345997 0.0039988807 -0.19190447 0.13652226 -0.11484791 0.15167397 -0.28951377 0.017775346
0.08162958 0.045512553 -0.12916079 0.25930592 0.23599029 -0.1286659 -0.13743423 -0.08046588
0.012513519 0.051911585 0.40694273 0.060260303 0.09874971 0.15406998 -0.053572245 0.21174897
0.05814656 -0.07710845 -0.0055925213 -0.26114607 0.21956015 -0.08735367 -0.12195507 -0.086403675
0.16608816 0.068944864 -0.25747758 0.085127555 0.31257364 -0.096389234 0.17299409 0.13928238
-0.20448738 0.17354834 -0.018027015 -0.18985829 -0.25804943 0.1300625 -0.005875814 0.37261206
-0.116013214 -0.20046881 -0.024453484 0.19508915 0.21085195 -0.13019226 -0.032425113 -0.25600508
-0.002249222 0.06797258 -0.14485401 0.08553014 0.17629078 0.021553611 -0.15251507 -0.028766138
0.14661372 0.1081896 -0.33282048 -0.0004260053 -0.048609316 0.012747444 0.10999343 0.060700648
0.18646169 -0.055226956 -0.109637685 0.28992882 0.38927516 -0.07993333 -0.07009249 -0.26729053
-0.0864452 -0.05803444 0.29053396 0.11238886 0.33541685 0.19748037 -0.031198896 0.20256735
0.16528514 0.041068625 -0.025586436 -0.2045047 0.2679629 -0.27423412 -0.004833866 0.06939121
0.054829806 0.112720616 -0.27621946 0.17626132 0.29792973 -0.0028111178 0.075676784 0.20173055
-0.22693495 0.11501474 -0.1118858 -0.20366389 -0.23458134 0.07007576 0.13891645 0.4897611
-0.082259305 -0.16455518 -0.00035869892 0.12922703 0.14201802 -0.042292684 0.025174564 -0.19269615
0.043845817 0.20684198 -0.23278564 0.13964792 0.2242502 -0.14494585 -0.08119423 0.10895147
0.33543885 0.09874194 -0.26846948 0.035717204 -0.052755173 0.077247925 -0.17452109 -0.012748435
0.14114368 0.08314974 -0.20522647 0.20101601 0.19762965 -0.12251695 -0.028349694 -0.20583901
-0.07391905 -0.021770237 0.41320473 0.19508816 0.17456527 0.31130514 -0.11770782 0.09773693
0.18719165 -0.010048673 -0.104541175 -0.10055404 0.18988757 -0.19167244 -0.074541904 0.1151927
0.024320135 0.112260625 -0.39158636 0.2677088 0.30050895 -0.19863982 -0.01893174 0.13672388
-0.1744037 0.09464343 0.08118939 -0.15886804 -0.22051471 0.08933231 0.10715213 0.3748588
-0.114555344 -0.093115345 0.06308225 0.17593247 0.13154238 -0.0524307 -0.05527223 -0.14402054
-0.056967687 0.23150675 -0.21097331 0.15628827 0.2582362 -0.12296447 -0.06469295 0.022602823
0.31829086 0.04455246 -0.25923076 0.051711846 -0.114520185 0.16532448 -0.08959997 0.029328931
0.1424238 0.11614686 -0.20500626 0.21070787 0.13893205 -0.07032055 -0.06599236 -0.18740197
-0.034785096 0.05635366 0.34084767 0.056146506 0.074875854 0.21031927 -0.10570036 0.08668422

4.bias f4 [8]
00000000: cdc1 343f 6772 243f 9e84 323f 85d3 1f3f
00000010: 724f 383f 4c2d b73e f8c4 063f 7bfc de3e
0.70608217 0.64237064 0.6973361 0.6243213 0.71996224 0.35776746 0.526443 0.43552002

0.weight f4 [64, 4]
00000000: 2001 c03c ec95 e0be 58ca 54be fe59 a2be
00000010: 4659 80be 08ca 883e 2c8a b7be 9c7a df3e
00000020: c0f5 863d 2662 c13e d036 763e 7481 963e
00000030: 605f 37bd 7056 c5bd a0af 9cbe 3860 e1be
00000040: 9c07 523e f454 bbbe c4f5 ec3e 20c5 e6bc
00000050: 80b1 8ebb 3cad 3dbe 5c56 33be aad5 a33e
00000060: ec2b 26be 6032 bf3d d09c b13d 58d6 95bd
00000070: 286c 8a3e 3815 28be 48f5 c93d 0cb5 343e
00000080: 680b 893d 00cc 873c cccb a03e 780e 67be
00000090: f011 003e e47a 34be 1687 f03e a8cf ca3d
000000a0: 0653 a53e 6ed5 c7be 94eb 0c3e 8866 d93e
000000b0: 9a4e 853e 368e a33e e847 953e fa83 afbe
000000c0: 7c90 193e 0045 413e aef7 9a3e 60f0 b7bd
000000d0: 6c45 f63e fc21 9cbe ee86 e63e 4cc6 5a3e
000000e0: 3012 22bd e0a1 b9be 008c 1f3d b4ca 2b3e
000000f0: 2648 c2be 6405 a6be 7c4a 613e 38b1 c33d
00000100: ec93 383e 5acf debe a08f 533d 5897 fdbd
00000110: 82bf debe 70eb aebd e839 bc3e e84d 8abe
00000120: 8435 ddbe 9472 6f3e 3803 aebd 307f 3a3e
00000130: c887 f83d 8a20 86be a4f4 c63e 10d8 c43d
00000140: 1881 2fbe 80d3 e83e 746b b13e 3861 313e
00000150: 80de 79bc a090 76be 9665 c6be 06f5 8cbe
00000160: 4824 8abe 7a1e 9d3e d6e9 eebe 0622 b3be
00000170: b004 5cbe a059 5fbd 0095 a73b 1051 933d
00000180: d024 45be 2811 acbd 9c6e 823e a8cc 87bd
00000190: 5a2e a33e 4800 563e 4860 adbd eca8 1dbe
000001a0: e6c5 b3be 1843 6c3e 14a1 e9be 70ba debe
000001b0: 7a89 debe e028 75be b8da c0bd a215 a0be
000001c0: da2b b2be b8a8 e93d f0b8 473d 185d a4bd
000001d0: 4002 b6bd 5a59 b2be a64d d83e a058 07bd
000001e0: 30f4 8b3e 1034 903e 10be 45be 0e6f e43e
000001f0: 0c51 463e 60b8 053e ee52 8d3e c020 3fbc
00000200: 74d6 1d3e 48e3 4b3e 58f8 c03e 86be a5be
00000210: b4ac 7dbe 2419 dc3e 206c 003e 9005 91be
00000220: c07d 833c 163e 91be f0c4 1e3d 187b 87bd
00000230: a8e1 39be 6893 733e 0034 aa3d f076 58be
00000240: 7436 8abe 7046 5d3e b476 9fbe 661b dcbe
00000250: 20d2 9f3c 5cfb 4f3e 60f5 923c f8f9 a23e
00000260: d6c9 973e b034 793d 7e48 e03e 30d5 d53e
00000270: 500e 68bd 6c4e b9be e8b2 783e 2057 c03e
00000280: 70cd dc3e 984c 953e 9469 eabe 5a05 cc3e
00000290: b471 713e 028c 993e 42a4 c93e 4423 f8be
000002a0: ac41 bcbe f438 69be e6ff e1be e2a1 febe
000002b0: a8fb fbbe a40a 5cbe f8c3 8e3d c6e8 c83e
000002c0: 26d8 853e e6ad e33e d0f6 e33d 7015 f23d
000002d0: d012 cfbd 800e 56be eac0 eb3e c2aa aebe
000002e0: 4254 a43e d2ae a13e ca68 903e f8e4 85bd
000002f0: 9029 0bbe 4451 9dbe 1095 3bbe ec26 43be
00000300: 52d0 ea3e 6825 213e e0cd f3be 4e31 a63e
00000310: b011 c03e 003c 7a3d 0040 c8ba 1ce6 3abe
00000320: 8881 d33d 861e 8ebe 68b3 9cbe e01d 1cbd
00000330: 08fb 8e3d 0c33 0fbe ea96 dfbe 4a4b 8dbe
00000340: 7ea5 b63e 4c0b e13e f666 c83e 0075 8c3b
00000350: a080 fd3c 82c5 933e 70d3 88bd ec46 5d3e
00000360: ac72 833e 2648 c2be e0bf 073d 54ba b23e
00000370: baed a13e 9ec3 ed3e 76a0 c0be 785b a1bd
00000380: 2489 543e a0fc 48be faec 9abe 06e8 e4be
00000390: 862c 903e 28e0 183e f424 b5be dc07 b0be
000003a0: 4237 ff3e 40a2 b0be 36c3 8a3e 7c0c dcbe
000003b0: 6076 87bc 20a3 0cbd e008 aa3e 38fd b13d
000003c0: 5c4d 5a3e d8a1 f13e 5cf6 9fbe 0872 883e
000003d0: 608d ac3c be48 dcbe bc47 f73e 005c 28bb
000003e0: 549b 08be e8b4 933e 1695 e3be 5cd8 6fbe
000003f0: 9cdf 393e 9c7e fabe b8b2 f2bd 5cd2 a73e
0.023438036 -0.4386438 -0.20780313 -0.31709284 -0.2506811 0.26716638 -0.35847604 0.4364823
0.06589842 0.37770194 0.24044347 0.2939564 -0.04476869 -0.09635627 -0.3060274 -0.44018722
0.20510715 -0.36588252 0.46281254 -0.028170168 -0.0043546557 -0.18523115 -0.17513412 0.3199895
-0.16227692 0.0933578 0.08672488 -0.073162735 0.27035642 -0.16414344 0.09861237 0.17647189
0.06691629 0.016576767 0.31405485 -0.22564113 0.12506843 -0.17625004 0.46978062 0.099028885
0.32289904 -0.3903002 0.13761741 0.42461038 0.2603653 0.31944436 0.29156423 -0.34280378
0.14996523 0.18873978 0.3026709 -0.08981395 0.4809984 -0.30494678 0.45024818 0.21364707
-0.039568126 -0.36256313 0.038951874 0.16776544 -0.3794567 -0.32425988 0.2200107 0.09555286
0.18025178 -0.43517572 0.051650643 -0.12382382 -0.43505484 -0.08541 0.3676293 -0.27012563
-0.43204892 0.23383552 -0.08496708 0.1821258 0.12135273 -0.261967 0.3885852 0.09611523
-0.17139089 0.45473862 0.34652293 0.17322242 -0.015250802 -0.24078608 -0.3874938 -0.27530688
-0.26980805 0.30687314 -0.46662778 -0.34986895 -0.21486163 -0.054528832 0.0051141977 0.07193196
-0.19252324 -0.0840171 0.25475013 -0.06630832 0.318713 0.20898545 -0.0846563 -0.1539647
-0.35111922 0.23072469 -0.45630705 -0.43501616 -0.4346426 -0.23941374 -0.09416717 -0.31266505
-0.3479908 0.11409134 0.048760355 -0.08025569 -0.08887148 -0.34833795 0.4224674 -0.033043504
0.27334738 0.2816472 -0.19310784 0.44615978 0.19366854 0.13058615 0.27602333 -0.011665523
0.15413839 0.1991092 0.3768947 -0.3237192 -0.24772912 0.4298793 0.12541246 -0.28324556
0.016051173 -0.2836768 0.038762033 -0.06615275 -0.18152487 0.237867 0.083106995 -0.21139121
-0.2699467 0.21608901 -0.3114525 -0.42989653 0.019509375 0.2031073 0.01793927 0.31831336
0.29646176 0.060841262 0.43805307 0.41764212 -0.056654274 -0.36192644 0.24286997 0.3756647
0.43125486 0.2916 -0.45783675 0.39847833 0.2357853 0.2998963 0.3938313 -0.48464406
-0.36768854 -0.22775632 -0.44140548 -0.49732882 -0.49215436 -0.21488434 0.06970972 0.39240092
0.2614147 0.4446861 0.1113106 0.11820495 -0.1011101 -0.20903969 0.4604562 -0.34114653
0.32095534 0.3157869 0.28204948 -0.06537813 -0.13590074 -0.30726063 -0.18318582 -0.19057816
0.4586206 0.15736926 -0.47618008 0.32459491 0.37513494 0.061092377 -0.0015277863 -0.18251842
0.103274405 -0.27757663 -0.30605626 -0.03811443 0.06981474 -0.13984317 -0.43669826 -0.27596503
0.35673136 0.4395393 0.39141053 0.0042864084 0.030945122 0.28861624 -0.066809535 0.21609086
0.25673425 -0.3794567 0.03314197 0.34907782 0.31626683 0.46438307 -0.37622422 -0.078787744
0.2075544 -0.19627619 -0.30258924 -0.4470827 0.2815897 0.14929259 -0.35379755 -0.34380996
0.49846846 -0.34498787 0.2710206 -0.42978275 -0.016535938 -0.034335256 0.33209896 0.08690876
0.21318573 0.4719379 -0.31242645 0.266495 0.021063507 -0.43024248 0.48296916 -0.0025689602
-0.13340503 0.28848958 -0.4444968 -0.23422378 0.18151706 -0.4892472 -0.11850494 0.3277768

0.bias f4 [64]
00000000: d47a 023e a096 ae3c 8001 80be f635 e23e
00000010: 640b 0dbe a0b0 2b3d 4019 203d b8f0 c9be
00000020: 80f6 3b3d 289d 033e 68ca a4bd 186d 20be
00000030: 2889 ca3d f03f cb3e 5c23 663e bce3 75be
00000040: 28a4 bf3d 3882 d7be 86c6 d2be 3088 9a3d
00000050: f87c aabe 80f8 71bc 0836 c43d f46f b43e
00000060: 4e30 b23e 3652 e2be a4a3 94be 1669 ce3e
00000070: 8a78 fa3e 485a 163e 00f4 0fbd b253 813e
00000080: e607 99be bcec 0fbe c0f7 de3e e019 b43e
00000090: 58e7 0f3e d4e6 7d3e eac6 da3e 3067 33be
000000a0: 24a5 87be 702b f4bd 84c7 dbbe 2ccf dc3e
000000b0: e8ba 90bd 9cb4 cc3e ba18 9c3e e851 e8be
000000c0: 40a0 f3be 64ae 58be 10dc 02bd 8e73 973e
000000d0: 482c e8be 88e3 fd3e 5835 ff3d 9ca8 e0be
000000e0: 1494 08be 4096 1e3e 7e5f b7be 880a 053e
000000f0: 6040 febe f45f fd3e c841 f4be e05c 15bd
0.12742168 0.021312058 -0.25001144 0.44181794 -0.13773876 0.04191649 0.03908658 -0.39441466
0.045889378 0.12852919 -0.080464184 -0.15666616 0.09889442 0.39697218 0.22474426 -0.24012655
0.09357482 -0.42091537 -0.41167086 0.07545507 -0.3329847 -0.01476872 0.09580618 0.35241663
0.3480248 -0.44203347 -0.29031098 0.4031455 0.4892009 0.14682877 -0.035144806 0.25259167
-0.2988884 -0.14055151 0.43548393 0.3517599 0.14053094 0.24795085 0.42729884 -0.17519832
-0.2649318 -0.119223475 -0.42925656 0.4312681 -0.070668995 0.39981544 0.30487615 -0.4537499
-0.475832 -0.21160275 -0.03194815 0.2958035 -0.45346284 0.49587655 0.124613464 -0.4387864
-0.13337737 0.15487003 -0.35815042 0.12992299 -0.4965849 0.4948727 -0.47706437 -0.036465526

2.weight f4 [64, 64]
00000000: 52bd b4bd 9669 853d 4040 7f3b 1202 8d3d
00000010: b44d 50bd f068 5d3c f41e cfbd 6065 73bd
00000020: 96ce a83d a632 bebd 80aa cbbd b033 ed3c
00000030: 40f7 80bd 6c2d 4f3d a44e aebd f076 e03d
00000040: 4828 783d 0026 d739 cc66 b13d 40b3 233b
00000050: a6cf dbbd 906d 543c 245b 77bd c8a7 7bbd
00000060: faf2 e2bd 90ad ee3d 0c30 433d 1639 c13d
00000070: b88d 93bc 6879 b03d d028 39bd fa7d e8bd
00000080: c888 b2bd 2cb2 60bd e035 24bc e858 663d
00000090: 7c8a 6abd c002 05bd 8ce0 3d3d 32a1 a03d
000000a0: 8c4f d5bd 103d 833d 7087 64bc c85e f8bd
000000b0: 8224 8e3d 60c5 50bd 1a0c f3bd 9894 c7bd
000000c0: e47b 483d 1416 11bd c8d0 b33d d058 503d
000000d0: 30d8 b53d b2d5 cf3d 6c17 68bd 685e cd3d
000000e0: f8f5 883d 2ca8 573d 4079 a33b 80c4 56bb
000000f0: 70b6 2e3d 10d6 623c dc11 1e3d 8e1d b3bd
00000100: b894 603d 1c21 553d 744d 20bd a0b9 cf3b
00000110: 388b d33d 3803 903c 3c29 a73d 5a02 c83d
00000120: 5aa6 9b3d eabc 9ebd 3259 fcbd b8a3 f8bc
00000130: dc2e 5a3d 4ece babd 74e8 a63d e0f0 13bd
00000140: b65b fabd 0861 28bd 00a1 43bc 4061 0a3d
00000150: 2efd c53d f482 54bd 82bb 88bd a83a 943c
00000160: 48a8 e93c 0cf2 2f3d 643d 993d ec38 45bd
00000170: fab9 e4bd c0f4 c8bd a097 f2bb e8bb 1dbd
00000180: b069 66bd 42c8 b1bd c222 c7bd c222 e4bd
00000190: 105e c0bc 50ce 59bc 38f2 393d c8a4 d8bd
000001a0: b8a1 ea3d 00c6 f9b9 90d0 983d ba7f bebd
000001b0: 5e94 e8bd 800f fd3b 14a5 9a3d d0a0 fbbd
000001c0: 2687 d5bd d086 05bc 1831 fb3d 940d 5e3d
000001d0: d0a2 7abd 1077 1c3c 004b 51bb 0452 42bd
000001e0: dcf9 15bd 0a41 b53d 34aa 32bd 14aa a5bd
000001f0: 240e a2bd 78e2 7cbd d2b1 c63d 3426 673d
00000200: bc15 f03d 8e81 c5bd 5013 2ebc 28e8 76bd
00000210: 64fc 9dbd 14b4 3cbd 048b 5ebd 36a3 993d
00000220: f4b6 9cbd 0065 783c 1429 4dbd e4ba 2abd
00000230: c825 c7bd 306a 56bd 50f1 1cbc f8c6 34bd
00000240: 7ac0 8fbd 4091 1a3b 6066 babd b05e f2bc
00000250: d04f a2bc 6c7a f63d 68a2 e23d 98bb 623d
00000260: 2af2 eb3d 0083 003a 68fb 6abd 44ee 25bd
00000270: da5e ff3d 008a 90b9 983e 9bbc 0625 dfbd
00000280: 7075 4fbc d8ad eebd d037 debc 007c 1fbd
00000290: 4829 8a3d f05e e2bd 74cc 713d 3087 b63c
000002a0: 480a f9bd 3678 cf3d 4cd1 49bd e0df 98bc
000002b0: dc1b 10bd 8893 c3bd 5a98 e93d 1ca6 ae3d
000002c0: d070 23bc 8640 bdbd b0ba 1bbd c8fb 76bd
000002d0: c845 d6bd 2457 8e3d d011 99bc 3c1d 4bbd
000002e0: 38c9 50bd d004 313c 78e9 63bd 80d3 82bc
000002f0: 58f6 e33d aa9e 86bd 448d 64bd 308b 893d
00000300: 1055 f6bd e038 f03d 2246 b73d 965d dc3d
00000310: 70dc fc3c 129e e53d c036 2bbb 60f7 693d
00000320: 1c71 153d 747f 87bd 00ab 3e3a b82a 343d
00000330: aae7 b2bd a290 e03d d884 433d 7062 3cbc
00000340: 8448 8a3d 04ea 0fbd f075 b03d 8097 d73d
00000350: 004c 8c3c 0047 30bc 325c ebbd 20f9 6c3d
00000360: d404 e53d 1ada ecbd 8c8c 7b3d 1c5a ba3d
00000370: 16c4 d8bd 12a1 af3d 10fb 753d 0458 7d3d
00000380: 089b 0fbd e08c 08bd 6cad a23d 8880 933c
00000390: 30fe 5dbc 340d d4bd a023 cf3b 608b 9bbb
000003a0: f874 d1bd 80ed bdbb ea4c bebd 80a3 2e3c
000003b0: 8845 e8bc a874 fdbd 70ef 09bd c432 703d
000003c0: 4a77 b5bd 6207 943d 2076 7b3c 98e4 403d
000003d0: d8a7 b03c d429 fe3d d42c 84bd 08c6 d8bd
000003e0: bc04 2f3d c08e 513d 3448 c5bd d012 253d
000003f0: 421b ad3d 88b4 fabd e8f1 ed3d 2026 6ebc
-0.088251725 0.065142795 0.0038948208 0.068851605 -0.050855353 0.013513789 -0.10113326 -0.05942285
0.08242528 -0.09287004 -0.0994463 0.02895531 -0.06297159 0.050580427 -0.08511093 0.109601855
0.06058529 0.00041036308 0.08662185 0.0024978667 -0.10732965 0.012965575 -0.060389653 -0.061439306
-0.110815 0.11654198 0.047653243 0.094347164 -0.018011913 0.086169064 -0.045204937 -0.11352153
-0.08717495 -0.054857418 -0.01002261 0.05623713 -0.057260975 -0.032473326 0.046356723 0.078432456
-0.10415563 0.06408131 -0.013948306 -0.12127453 0.06940557 -0.05096948 -0.118675426 -0.09745139
0.048946276 -0.035421446 0.08780056 0.05086595 0.08879125 0.10148181 -0.05666296 0.10027772
0.0668754 0.052650616 0.0049888194 -0.0032770932 0.042654455 0.013844982 0.03859125 -0.087458715
0.05482933 0.05203353 -0.039136365 0.006339267 0.10329288 0.01757966 0.08162162 0.097660735
0.076000884 -0.07750876 -0.123217 -0.030351505 0.053267345 -0.09121381 0.08149806 -0.03611839
-0.12224524 -0.04110816 -0.011940241 0.03378415 0.09667431 -0.0518827 -0.06676389 0.018094376
0.028522626 0.042955443 0.074824125 -0.048149988 -0.11168285 -0.09812307 -0.007403329 -0.03850928
-0.056253135 -0.08680774 -0.097234264 -0.11139442 -0.023482352 -0.013293818 0.045397013 -0.105783045
0.11456627 -0.00047640502 0.07461655 -0.09301706 -0.11356424 0.007722795 0.075510174 -0.12286532
-0.10426168 -0.008149818 0.12265223 0.054212168 -0.061190426 0.009549871 -0.0031935573 -0.047441497
-0.036615238 0.08850296 -0.04361935 -0.080890805 -0.07912853 -0.061739415 0.09701885 0.056432918
0.117228955 -0.09643851 -0.010624722 -0.060279995 -0.07714155 -0.046070173 -0.054331794 0.07501833
-0.07652083 0.015160799 -0.050088003 -0.04168214 -0.09724003 -0.052347362 -0.009579018 -0.044135064
-0.07019134 0.002358511 -0.09101558 -0.029586166 -0.019813448 0.12035069 0.11066133 0.055354685
0.115207985 0.0004902333 -0.057368666 -0.04051043 0.124692634 -0.00027568638 -0.018950745 -0.108957335
-0.012662277 -0.11654252 -0.027126223 -0.038936615 0.06746155 -0.11053264 0.059032872 0.02228126
-0.12160164 0.1013035 -0.049271867 -0.01866144 -0.03518282 -0.09549624 0.11406012 0.085277766
-0.009975627 -0.092408225 -0.038019836 -0.06029871 -0.104625285 0.069502145 -0.018685251 -0.049588427
-0.050973147 0.01080437 -0.055642575 -0.015969992 0.11130971 -0.065732315 -0.055798784 0.06716001
-0.12027943 0.11729598 0.08948924 0.107600376 0.030866832 0.1121179 -0.0026125163 0.05712068
0.036484823 -0.06616107 0.0007273406 0.043986052 -0.08735593 0.109650865 0.04773411 -0.011498079
0.067521125 -0.035135284 0.08616245 0.10526943 0.017126083 -0.010759115 -0.11492194 0.05785477
0.111825615 -0.11565037 0.061413333 0.09099218 -0.105842754 0.085756436 0.060053885 0.061851516
-0.03505996 -0.033337474 0.07943234 0.018005624 -0.013549373 -0.10354081 0.0063213855 -0.0047468394
-0.10227388 -0.0057961345 -0.09292014 0.010659099 -0.028353468 -0.12375766 -0.03367561 0.058642164
-0.08860643 0.07227971 0.015347987 0.047093004 0.02156441 0.12410322 -0.06453863 -0.105846465
0.042729124 0.051161528 -0.09632912 0.040301144 0.08452465 -0.12241465 0.116184056 -0.014535457

2.bias f4 [64]
00000000: 64c5 59bd 96c7 d33d c806 cd3d 3c25 f4bd
00000010: 186b ecbc 5883 74bd 5480 3f3d 005d 28ba
00000020: 2c8a 73bd 5009 0c3d b459 98bd 109d 5e3c
00000030: 800f 27bd 4e4f ef3d 9289 843d 22b5 8d3d
00000040: d055 893c 084a a83d 347b 9a3d 2e06 c9bd
00000050: a228 f43d b0ef 48bd 7c44 e83d c0bc 73bc
00000060: 321b c2bd d064 2a3d 180d bcbc 5c5e cc3d
00000070: 54ca 23bd f4ca 19bd 9883 263d 6ca1 12bd
00000080: 20fe 2fbd b227 883d 5610 e23d e036 b73d
00000090: 4089 4ebc 00b8 dc38 6c8a 563d 20f1 813c
000000a0: 14db 79bd 9251 c5bd 045d 85bd 48ed f93c
000000b0: 0a59 f73d 9e6b d03d 388a 783d d863 153d
000000c0: d021 8c3d f8d8 c0bc 30c6 893c ae30 b33d
000000d0: 98a1 bb3c 8057 983d 16c6 873d 547e ec3d
000000e0: 543d b83d 781a 98bd 90fb 83bd 46e9 a0bd
000000f0: ae15 ec3d 6af9 f6bd ece6 073d eabb 8fbd
-0.053166762 0.10340802 0.10011059 -0.119211644 -0.02885966 -0.05969557 0.046753243 -0.00064225495
-0.059457943 0.03418857 -0.074389845 0.013587251 -0.040786266 0.11685048 0.06471552 0.06919314
0.016764551 0.08217245 0.075430304 -0.09815632 0.119218126 -0.04905671 0.11341187 -0.0148765445
-0.09477843 0.04160005 -0.022955462 0.09978935 -0.039987877 -0.037547067 0.04065284 -0.035798475
-0.04296696 0.06648196 0.11038272 0.089460135 -0.012605965 0.0001052469 0.052378103 0.015862048
-0.060999945 -0.09634699 -0.06511882 0.030508652 0.1207753 0.10176776 0.06067869 0.03647217
0.06842387 -0.023540959 0.016818136 0.08749519 0.022904202 0.07438564 0.06629579 0.11547533
0.089960724 -0.074269235 -0.06444466 -0.078569934 0.115275726 -0.12059291 0.03317921 -0.07018264

4.weight f4 [1, 64]
00000000: b4aa 5cbd 5073 c23d 0809 5bbd cca4 13bd
00000010: 408c b03d 8068 7dbd fc3d ac3d 5c8d dabd
00000020: 4a10 863d 94ab 35bd 3002 d83d 648e 273d
00000030: dc83 a1bd 8e55 943d 2caa b1bd d00c cf3d
00000040: cc7f a53d 5c80 633d 14c4 24bd 0009 9d3c
00000050: 502a 2dbc 1041 2abd 947a fabd 6e30 b6bd
00000060: a057 d23b f4fc f33d 2077 463c 6efa a5bd
00000070: 7434 78bd 063d dabd 0c86 cdbd 9c3e 9b3d
00000080: 5e61 98bd e02f f83b 2496 9f3d dc0e 95bd
00000090: c8a7 b73c d8b3 efbc 86bb a13d d86f dbbd
000000a0: d838 e33d e060 2b3c 20bb f7bd 80fa fe3d
000000b0: 58a6 d6bd 50ba 963d f85c c5bc 0c31 e2bd
000000c0: 52cd eabd 4c0a 48bd ea43 d5bd ecba e13d
000000d0: 80bd 11bb a22d dfbd 18b3 cd3c 6c4f d03d
000000e0: 583d e03d 5039 d8bc f645 9d3d 00a1 1dbb
000000f0: 5062 44bd c0c8 2b3b 1420 c53d 6c1f 2d3d
-0.053873733 0.0949465 -0.05347541 -0.036045834 0.086205006 -0.061867237 0.0841026 -0.106714934
0.06546076 -0.044353083 0.10547292 0.04090728 -0.07886478 0.07242881 -0.08675036 0.10109866
0.08081016 0.055542335 -0.040226057 0.01916933 -0.01056917 -0.041565955 -0.12230411 -0.08895956
0.006419137 0.11913481 0.012113363 -0.08104406 -0.0605969 -0.106561705 -0.10035333 0.07580301
-0.07440446 0.0075740665 0.07792309 -0.07278225 0.022418872 -0.02926056 0.078970954 -0.10714692
0.110948265 0.0104601085 -0.12096238 0.12450123 -0.10480946 0.07359755 -0.024092183 -0.11044511
-0.11464943 -0.048837945 -0.10413344 0.11021981 -0.0022238195 -0.10897376 0.025109813 0.101713985
0.109492004 -0.026394516 0.076793596 -0.0024052262 -0.04794532 0.0026212186 0.09625259 0.042266294
