3_PolicePPO_ThiefDQN_rl/models/thief_dqn.pth (torch, 22620 bytes, 6 tensors)

0.weight f4 [64, 4]
000000 60 d6 a3 3d b8 e3 71 be c0 35 db 3d 64 b2 50 be
       0.07999873 -0.23622024 0.107036114 -0.2038055
000010 65 53 55 3f b5 ba b2 3e 80 36 ef bc 04 40 13 3f
       0.83330375 0.3490807 -0.029200792 0.57519555
000020 4f 9c 24 3f 86 2b e6 bd 95 76 ae bc ab ab 77 3f
       0.6430101 -0.1123877 -0.021296779 0.9674632
000030 2a 31 6d 3f 05 1e 1c 3e 93 59 9f 3d 98 0e c0 3e
       0.92653143 0.15245827 0.07780757 0.37511134
000040 95 23 8e bf 8e 68 c6 3e 0d 89 bb 3e af 6b 6d 3e
       -1.1104609 0.38751644 0.36628 0.2318561
000050 a1 08 7b be 44 2d 6a 3e e1 4d be 3e 49 d1 f6 3e
       -0.2451501 0.2286883 0.37168792 0.48206547
000060 bb f3 52 be 05 5d 13 3f 8f a5 62 3f 6d da 82 3e
       -0.20600788 0.5756381 0.8853387 0.2555727
000070 94 eb c1 bf 48 95 00 bf b0 e3 1f 3f 0d 40 5a 3e
       -1.5150018 -0.50227785 0.624568 0.21313496
000080 d6 7d 99 3e 21 90 f3 3e f7 f0 a9 bd 83 84 32 3e
       0.29978818 0.475709 -0.082979135 0.17433362
000090 98 9d c9 be 0c 6b 7c be 66 b6 1b be 56 02 86 3e
       -0.39378047 -0.2465021 -0.15206298 0.26173657
0000a0 db 5a 27 3f a3 62 1b be c1 4a 81 3f 60 ce 3c 3f
       0.6537301 -0.15174346 1.0100938 0.73752403
0000b0 08 60 81 3e 2f 81 b9 bc 49 9e 1c bf 23 5f 4a 3e
       0.2526858 -0.022644607 -0.61179024 0.19762854
0000c0 e0 52 67 be 70 4c 3b 3e f4 7a 20 be e8 ca 8e 3d
       -0.22590208 0.18290877 -0.15671903 0.06972295
0000d0 c7 3e 65 bf 43 1f 08 3f 78 1b d2 3c c8 0b 43 c0
       -0.89548916 0.531727 0.025647864 -3.047594
0000e0 d0 50 d2 be 24 b8 ee be a4 e1 0e be fc e4 5c be
       -0.4107728 -0.46624863 -0.13953263 -0.21571726
0000f0 3c 13 88 3f ec 37 8e be 76 1a 9f 3e 7e bd 77 3f
       1.063087 -0.2777704 0.31074876 0.9677352
000100 19 cf 8d 3d 7e 04 4f 3d c6 56 44 3f 93 bb f3 3d
       0.06924266 0.050541393 0.76694906 0.11901011
000110 95 3d 5f 3f ba b0 00 be 70 a1 fe 3e 28 60 07 3f
       0.8720334 -0.12567416 0.49732542 0.528811
000120 66 a2 82 bf e6 fb d6 3e 89 0f 5d 3e 66 5c 84 3e
       -1.020581 0.41989058 0.21587957 0.25851744
000130 fa 3c c8 3e 36 95 68 bd fe 1e d1 3e 7b fd 19 3f
       0.3910902 -0.056782924 0.40843958 0.60152406
000140 66 86 64 3f 03 aa 93 bd d1 a9 81 3e 46 82 1b 3e
       0.89267576 -0.072101615 0.25324872 0.15186414
000150 a8 e6 c2 3e 62 d9 26 3f 7d 15 ec 3d 22 7d 2f be
       0.38066602 0.6517545 0.11527536 -0.17137578
000160 ab 23 9f be e5 1c 6c 3e 9c eb 46 3f 54 80 1b 3f
       -0.310819 0.23057897 0.7770326 0.6074269
000170 10 8d 1a 3f bd 28 30 3f ab db cf 3e 46 1b 87 3e
       0.60371494 0.6881216 0.4059728 0.26387995
000180 e8 a7 d4 be bc 3d 2d 3e c6 16 a1 be 66 5c f2 be
       -0.41534352 0.16918081 -0.31462687 -0.4733612
000190 00 45 a0 3e 83 f1 3d 3c 3b 6a 9b be 3d cd 13 3f
       0.31302643 0.011593225 -0.30354485 0.57735044
0001a0 c2 4d 8e 3f 2b 65 a0 be 95 0f 4f 3f 6b 44 83 3f
       1.111748 -0.31327185 0.8088315 1.0255255
0001b0 2f 96 2c 3f 4a 08 10 3e 97 92 92 3f 93 f0 a6 3e
       0.6741666 0.14065662 1.1450986 0.3260542
0001c0 32 1b 95 bf fe cc 45 c0 ad 67 44 3f 4b eb 95 bd
       -1.1648924 -3.0906367 0.76720697 -0.07320269
0001d0 02 0a c7 be 4c 71 05 3e f4 a9 7e be 90 a0 c9 be
       -0.38874823 0.130315 -0.2486952 -0.39380312
0001e0 f7 d5 a9 3e 5e f1 ff 3d 76 db 86 be 5d 8b 20 3b
       0.33171055 0.12497209 -0.2633931 0.002449713
0001f0 a8 d1 4e be ac 2d 02 be 68 de fc bd 8c 66 a8 be
       -0.20197165 -0.12712735 -0.12347108 -0.32890737
000200 67 67 b9 ba f3 a9 8b be a7 eb 15 3f 30 a6 0a 3f
       -0.0014145196 -0.27278098 0.585627 0.5415983
000210 7d d7 28 c0 06 2b 96 3f e4 d8 ae be 41 1b ef bf
       -2.6381524 1.173188 -0.3414985 -1.8680192
000220 92 57 20 bf 40 58 b3 3f 0b da 34 3f a6 bf a6 bf
       -0.6263362 1.4011307 0.7064521 -1.3027236
000230 d8 33 69 3f 36 9a 1f bf 95 d7 87 3f 40 c0 da 3e
       0.9109473 -0.6234468 1.0612665 0.427248
000240 6e b5 7c c0 8b ca bb bf 8e c9 b2 3f 7a d5 1a c0
       -3.9485736 -1.4671186 1.396776 -2.4192796
000250 91 11 05 bf cd e3 26 c0 6a d0 eb 3e ee 01 8b be
       -0.5197993 -2.6076539 0.46057445 -0.2714991
000260 58 f8 6e c0 59 2b de bf 11 d9 6d 3f a3 4b 04 40
       -3.7339077 -1.7356979 0.9290934 2.0671165
000270 6e 8e e0 3c 66 f5 82 be b6 c6 12 3f 6c 0e 43 3f
       0.027411666 -0.2557785 0.5733446 0.7619388
000280 7f c8 dd bd 04 3b e9 3e 53 ba 64 3f 2a 94 92 3e
       -0.10829257 0.45552838 0.8934681 0.28628665
000290 80 95 21 3c a2 1e da be d0 f2 98 be c0 c3 8e bd
       0.009862304 -0.42601496 -0.2987275 -0.0697093
0002a0 b3 a7 5b 3f 51 5c 9a 3f 6b 5a 22 3f ce b9 45 be
       0.85802764 1.2059423 0.63419217 -0.1930916
0002b0 4c d3 1d c0 57 1a 0d bf 75 de d1 3f 69 d3 19 bd
       -2.4660215 -0.55118316 1.6396013 -0.037555132
0002c0 d6 d4 ac 3d 6e 82 15 3f df a8 ef bd c1 d2 98 3e
       0.08439033 0.58402145 -0.117021315 0.29848292
0002d0 d0 66 2b 3f d7 53 4d 3f e4 6b 03 3d 70 39 4f 3e
       0.66953754 0.80206054 0.032085314 0.20236754
0002e0 20 0e ab 3d c8 6a 86 bc 59 90 83 3e 6a dd e3 3e
       0.083523035 -0.01640834 0.25696066 0.44504863
0002f0 7e d4 c1 be 42 cb eb be 4b 3c 76 3e 63 29 d4 be
       -0.3785743 -0.4605351 0.24046437 -0.41437826
000300 cf 04 60 3e 17 32 cc be d6 e9 94 3f df 55 80 3f
       0.21876834 -0.39881966 1.1633861 1.0026206
000310 c4 95 3b 3f de e0 52 3f 33 dc c9 3e 2a c4 38 3e
       0.732754 0.8237437 0.3942581 0.1804358
000320 6e 1d c7 bc cf fb 99 3e c4 6b 18 c0 e9 69 a3 bf
       -0.024306025 0.30074927 -2.3815775 -1.2766696
000330 cc 80 46 3f c8 bb a8 3f 7f 1c 57 bf 82 b8 ae bf
       0.7754028 1.3182306 -0.84027857 -1.3650057
000340 04 b3 e2 be 7a 66 ca be 94 dc 0c 3e 8e 58 9e be
       -0.44277203 -0.39531308 0.13756019 -0.30926937
000350 6f 4e 80 3f 78 17 0d 3d 9b 9e 8e 3e da 58 e9 3e
       1.0023936 0.03444621 0.2785538 0.455756
000360 6e 9c 35 3f 5f 12 94 3e 01 bd b6 3e 27 53 09 3f
       0.7094182 0.28920266 0.35691074 0.53642505
000370 25 96 36 3f f6 54 1e 3f c6 65 f4 3e ef 7d f2 3e
       0.7132285 0.6184839 0.47733897 0.47361705
000380 03 65 28 bf 1f 04 ab be 92 70 3a 40 52 ec 60 be
       -0.6577913 -0.33401582 2.9131207 -0.21965149
000390 47 8f bb 3d 2b 26 cf be 90 df df 3e ac 8d 38 be
       0.09158187 -0.40458807 0.43725252 -0.18022794
0003a0 71 8d de bf cc 9f b7 bf 80 cc 6f 40 e2 db 59 3f
       -1.7386914 -1.4345641 3.7468567 0.8510114
0003b0 2f 6d 5d bf 36 83 7c c0 de 7b 7b bf 02 9e dd 3f
       -0.86494726 -3.9455085 -0.9823588 1.7313845
0003c0 dd c7 32 3f 83 4f 2a 3f 61 05 3e 3e aa 54 32 3f
       0.6983622 0.66527575 0.1855674 0.6966044
0003d0 27 9e 30 3f a6 c0 0e 3f bc 74 5c bd 8e fd 08 3f
       0.6899132 0.5576271 -0.053822264 0.53511894
0003e0 0f 0b 59 3f 6b ee 43 3f 07 04 ef 3e 2f 51 36 3d
       0.847825 0.7653567 0.4668276 0.044511016
0003f0 98 45 0e bf f6 95 22 3e 5c 0c 85 3f 44 e4 34 3e
       -0.5557494 0.15877518 1.0394397 0.17665201

0.bias f4 [64]
000000 84 0c 2e be bc 44 36 3f 6c 14 87 3f d7 5c 12 3f
       -0.16996962 0.7119863 1.0553107 0.5717291
000010 c4 d2 6b bf 0e 04 9d 3d ed e7 f9 bd ea 94 a8 3e
       -0.9211848 0.07666789 -0.122024395 0.32926112
000020 fc bf 7b 3f 15 6d 97 be 7f d9 04 3f 0e ac e3 be
       0.9833982 -0.2957541 0.5189437 -0.44467205
000030 ec e8 d9 be 16 c9 19 3f aa d2 aa be bc 83 78 3f
       -0.42560518 0.6007246 -0.3336385 0.9707601
000040 90 77 06 3f 66 1f 65 3f 3b a4 56 bf eb da 6c 3f
       0.5252619 0.89501035 -0.83844346 0.9252154
000050 70 36 79 3f 37 76 52 3f 92 74 9f 3e 75 8e a1 3e
       0.9734869 0.8221163 0.31143624 0.31554
000060 8a 0d c8 be 71 4a 81 3f 9e a6 52 3f cf 88 e3 bd
       -0.3907283 1.0100843 0.8228549 -0.111100785
000070 70 b5 0c 40 dc e8 f9 be 70 58 e9 be 80 2c 4f bc
       2.198574 -0.4881047 -0.45575285 -0.012644887
000080 b6 ad 27 3f 30 86 44 3d 64 f8 f0 3c 22 a0 31 3f
       0.65499437 0.047979534 0.029415317 0.6938497
000090 e8 6c 60 3f b7 c2 8b 3f ca 05 6a 3f 17 b5 32 3f
       0.8766618 1.0918797 0.91415083 0.6980757
0000a0 23 dd 47 3f 10 b2 f3 be 2b a3 b2 3d a6 78 11 bf
       0.780718 -0.47596788 0.08722528 -0.5682472
0000b0 5b a1 42 3f c6 29 2e 3f a6 59 4b 3f 9f 13 8f be
       0.7602746 0.6803249 0.7943367 -0.27944657
0000c0 c5 e8 2d 3f 74 40 21 3f 9f 35 92 3f 09 ad 5e 3d
       0.67933303 0.6298897 1.1422614 0.054364238
0000d0 d2 52 e2 be cf 59 38 3f 26 1d 8c 3e 62 30 5e 3e
       -0.44203812 0.7201204 0.27365988 0.21698144
0000e0 01 5f 38 3c 71 e7 9a 3f d1 e4 ba 3e f2 15 b3 3f
       0.011253119 1.210188 0.36502698 1.3991072
0000f0 d8 75 28 3f 79 85 00 3f 2b 3d e8 3e f0 4f 96 3e
       0.65804815 0.50203663 0.45359167 0.29357862

2.weight f4 [64, 64]
000000 f0 dc 7c bd fd 56 df 3d 25 e2 27 3d 5a d6 e9 3c
       -0.06173414 0.109052636 0.040987153 0.028544594
000010 e9 4f 82 bf 90 30 9a be 1e e5 32 3e 7b 00 a1 3e
       -1.0180637 -0.30115175 0.17470214 0.3144568
000020 4f 40 3c 3e 26 0d 3a bd bd 0b 9b be a9 41 83 bd
       0.18383907 -0.045422696 -0.30282393 -0.06409008
000030 c8 53 86 bc 25 30 52 be a8 29 f1 3d ca ba d8 bc
       -0.016397372 -0.20526178 0.117755234 -0.026456255
000040 a1 ab 6f bd 2b 55 12 bc 35 48 84 bf 3d de fe bc
       -0.058513287 -0.008931438 -1.0334536 -0.03111183
000050 b0 0a 89 3e 79 00 94 3e f5 23 e0 be 66 53 4f 3c
       0.26765966 0.2890661 -0.43777433 0.012654161
000060 ec 6b 81 bd 1c 5e 36 3e f4 3c 9e be 9e 87 09 be
       -0.063194126 0.17809337 -0.3090588 -0.1343064
000070 b2 31 f4 3e ac e9 a7 3d 29 0c c6 bf b8 96 d7 bc
       0.47694165 0.08198866 -1.5472461 -0.026316985
000080 2b c8 2c be 70 83 a9 bf a7 b3 a1 3e ca 51 6d be
       -0.16873233 -1.3243237 0.31582376 -0.23175731
000090 2d 2e cd 3e b3 35 33 bf a3 c4 70 3d 55 7a 47 be
       0.40074292 -0.70003814 0.058781277 -0.1948026
0000a0 bd ea 14 be 6e 07 b7 3d a2 b2 2c c0 78 e3 ef bd
       -0.1454267 0.08936964 -2.698403 -0.11713308
0000b0 23 83 18 3e ec 64 81 bc ee aa 5b 3c bd af b3 bd
       0.14893775 -0.015795194 0.013407452 -0.08773754
0000c0 18 00 60 be 58 a8 1a c0 31 48 4f 3e 7a 6f 62 be
       -0.21875036 -2.416525 0.20242383 -0.22112837
0000d0 b8 61 e5 bd eb 91 a5 bd a1 0f 2e be 9d 3b 84 be
       -0.11200279 -0.08084472 -0.1699815 -0.2582673
0000e0 70 eb 6f 3e 01 13 e4 3e af a7 cc 3e 47 ee f7 bf
       0.23429656 0.4454575 0.39971682 -1.9369591
0000f0 f9 0a 23 be 96 e6 10 be 37 f3 11 c0 f4 1e cc be
       -0.15922154 -0.14150462 -2.2804697 -0.39867365
000100 8a 5e b3 bd 59 b7 91 3d 4e c6 d7 3b 2f 05 04 3e
       -0.08758266 0.07115049 0.006584919 0.12892602
000110 6d 1b 1e bf cd 6a 0e be d2 bf 03 3e 0f 17 aa 3e
       -0.617606 -0.13907929 0.12866142 0.33220717
000120 ec f0 b6 bd e7 de 85 bd 34 e5 bf 3c 7a 68 22 3d
       -0.08932671 -0.06536656 0.023424722 0.039650418
000130 f4 0b be bd d6 30 14 bf ee ad 82 bd a4 c3 09 3e
       -0.09279624 -0.5788702 -0.06380831 0.13453537
000140 7b cd c4 3b e3 5e cf 3d b2 56 3c bf 3f 42 45 3c
       0.0060059405 0.1012552 -0.73569787 0.01203972
000150 6b 0d 89 3d 62 cb 4d be 66 86 a7 be 68 46 15 3e
       0.066920124 -0.20097116 -0.32719725 0.14577639
000160 f0 41 b1 bc 43 1f 32 be 6f 0c 2c bc 5e f2 be 3e
       -0.021637887 -0.17394738 -0.010501011 0.37294286
000170 ca a4 47 3f 74 05 24 3d cd 27 b5 bf 10 d8 eb bd
       0.77985823 0.040044263 -1.4152771 -0.1151582
000180 b7 e4 4c be 4a 53 4d 3f dc 1a 04 40 14 03 49 3d
       -0.20009123 0.80205214 2.0641394 0.0490752
000190 d5 a9 ec bf 81 0e 0d c0 92 32 7e 3d 9c e2 79 be
       -1.8489329 -2.2040102 0.062059946 -0.24402851
0001a0 87 9b 15 be 6a dc 9d 3d 09 68 14 c0 d0 16 18 3e
       -0.1461011 0.07708056 -2.3188498 0.14852452
0001b0 6d 56 96 be 0d 2a 2b be 89 66 4e be c2 a1 1c 3d
       -0.29362813 -0.1671526 -0.20156302 0.0382402
0001c0 fa 92 de bc cf 47 12 c0 1c 5c 66 3f 67 33 df 3f
       -0.027169693 -2.2856328 0.899843 1.7437562
0001d0 f8 c4 62 bd dd ce 3a bd 7d 99 14 3e f3 f5 f6 3d
       -0.055363625 -0.045607436 0.14511676 0.1205863
0001e0 9c 64 b4 3d 13 9d a3 3e b4 dd 15 3f 39 20 99 bf
       0.08808252 0.31955776 0.5854142 -1.1962959
0001f0 56 42 e8 bc 2c 41 36 3b 5f 85 03 c0 aa 1c b8 3e
       -0.028351944 0.0027809842 -2.0550153 0.3595937
000200 b6 fa c3 3d 7d 08 ce bd a4 33 0e ba 60 6f d5 bc
       0.09569304 -0.10060213 -0.0005424565 -0.026054084
000210 78 3d f0 bc 8e bd a6 3d 38 20 5a 3d 19 b5 e7 ba
       -0.029326186 0.081416234 0.053253382 -0.0017677873
000220 03 6b e2 bd ca ed 94 bd 64 19 89 3d ca f5 bb 3d
       -0.11055567 -0.07271917 0.06694296 0.0917774
000230 38 a3 56 3d 53 be be bc 40 2e dc 3c f2 a8 ce bd
       0.05240175 -0.023284113 0.026877522 -0.100908175
000240 55 17 a1 bd c5 c0 85 bd 2e 5a d7 bd 92 35 f9 bd
       -0.07865778 -0.065309085 -0.10515247 -0.12168421
000250 c8 a3 74 3d c3 e4 f4 bc b5 40 38 bd f9 dc 52 3d
       0.059726506 -0.029894238 -0.044983584 0.051480267
000260 00 da 05 ba 6e 41 a4 bd b6 c5 fa bd 64 aa 66 3d
       -0.0005106032 -0.08020292 -0.122447416 0.05631484
000270 00 55 ec bd 4c 83 7c bd b0 27 16 bd 08 65 97 3d
       -0.1153965 -0.061648652 -0.036658943 0.07392317
000280 8a b9 da bc f0 24 9e 3d a7 6b f7 bc 5a ea 40 bc
       -0.0266998 0.07721889 -0.0302027 -0.011774624
000290 d0 30 57 3d 00 85 14 bc 34 ea f2 3d e1 3b 89 bd
       0.052536786 -0.009064913 0.11861077 -0.06700874
0002a0 d0 df bf 3d 1c 42 14 3d b8 34 51 3d b1 59 61 3d
       0.09368861 0.03619586 0.051075667 0.055017177
0002b0 52 6e 5e 3d b3 46 d3 3d 46 a7 de bd 60 e1 61 bc
       0.05430443 0.10316219 -0.108717486 -0.013786644
0002c0 04 8a 00 be 18 41 e0 3d 9a 3e be 3d 96 66 f4 bd
       -0.12552649 0.10949916 0.09289284 -0.11933629
0002d0 60 2f 83 3d 14 fb 00 be a0 ff 42 bc 19 82 04 be
       0.064055204 -0.12595779 -0.011901766 -0.12940253
0002e0 42 58 4a 3c 0f b1 aa 3d 23 0f 93 bc 1e 30 bc bd
       0.012350144 0.083345525 -0.017951554 -0.09188865
0002f0 42 a3 79 3c 60 8d 09 bd a4 41 2e bd 2a 5a f1 bd
       0.015236678 -0.03358209 -0.04254307 -0.117847756
000300 a4 c0 61 bd 44 62 b9 bc cd 95 51 3d 58 27 a7 3d
       -0.055115357 -0.022629865 0.05116825 0.08161801
000310 20 ec be 3c 1d 9a 34 3b 16 00 05 be 46 6d b6 bc
       0.023305953 0.002755768 -0.12988314 -0.022268903
000320 98 09 8e 3d 14 03 c0 3d 06 a8 40 3d 04 b6 8a 3d
       0.069354236 0.09375587 0.04703524 0.06772998
000330 c4 37 78 bd 77 1a 43 bd 38 cf a3 3c 80 38 55 3b
       -0.060600057 -0.04763266 0.01999627 0.0032534897
000340 a8 9e 64 3c e1 94 aa 3d 00 9b fa bc 07 bb f2 bd
       0.013953842 0.08329178 -0.030591488 -0.11852079
000350 6d 97 6d 3d 3c 5d 0d be e6 95 cf bc 65 1b ac bd
       0.05800574 -0.13805097 -0.025340032 -0.084036626
000360 be 5f e1 bd 3a e2 73 bc 20 f7 ac bd b0 df b8 bc
       -0.110045895 -0.01488548 -0.08445573 -0.0225676
000370 58 04 8d 3c b6 73 fb bd ea aa 8d 3d f0 9b 44 3c
       0.017213985 -0.122779295 0.06917365 0.012000069
000380 ce fd 5c bd 87 85 55 3b a2 9a d0 3c 15 a3 8b bd
       -0.053952985 0.003258081 0.02546436 -0.06818215
000390 80 68 a5 3d aa a5 95 bd 98 47 da 3c 73 e1 af 3a
       0.080765724 -0.073069885 0.026645467 0.001341863
0003a0 7e 36 d8 bb 00 5e 72 bc 20 00 5e bd 53 2f 66 3d
       -0.006598293 -0.014792919 -0.054199338 0.056197476
0003b0 7e 29 9d 3d fe 84 cc 3d 78 ad 01 be 1c c2 83 bd
       0.0767393 0.09986304 -0.1266383 -0.06433508
0003c0 2b 9f 85 bc 80 c3 ab 3a 2b b5 d3 bd 42 3b e2 bd
       -0.016311249 0.0013104528 -0.103372894 -0.11046459
0003d0 6c 26 3d bd 0c 68 fa bd ae 5d 9f 3d 50 59 b7 bd
       -0.04617922 -0.122268766 0.0778154 -0.08952582
0003e0 d7 cf 87 b9 2f f7 8b 3c 69 22 25 3d dc 71 c1 3d
       -0.0002590406 0.01708564 0.04031602 0.09445545
0003f0 41 65 aa 3c fc 1e 6b bd 0a 1c da bd f0 e9 4f 3c
       0.020800235 -0.057402596 -0.10649879 0.012690052

2.bias f4 [64]
000000 81 b0 cb 3e 2c 0a 60 bd 31 96 08 be b9 42 2a bd
       0.397831 -0.0546972 -0.13338543 -0.041567538
000010 06 3f 91 3e 0a 51 25 3e 06 3e 6f 3e 46 00 5d 3c
       0.28368396 0.16144195 0.23363504 0.013488835
000020 f4 03 f3 3e e2 a7 43 3e 1a 50 51 3c 1a 10 88 3e
       0.47463953 0.19107011 0.012775445 0.26574785
000030 07 2f 4b 3d 20 66 07 be b1 36 9c bc 86 1f 83 3d
       0.049605396 -0.13222551 -0.019069048 0.06402497
000040 0e c8 72 bd 20 49 ba 3b 76 8b 1b be e8 e1 89 bd
       -0.05927282 0.0056849867 -0.15189919 -0.06732541
000050 99 a7 82 3d 13 f4 c0 bc b8 a3 66 3e 9d 94 a2 bd
       0.06379623 -0.023553884 0.22523391 -0.07938502
000060 ca ad 1c bd 0b 01 18 3e 40 71 2a 3e 9f 2c 5d 3c
       -0.038251676 0.14844148 0.16644764 0.013499408
000070 29 f5 09 be 5f f7 b5 bd 1a 60 0a 3d b3 8b 89 3e
       -0.13472427 -0.08885073 0.033783056 0.26864395
000080 dd 5d 77 3e da 5c 0f be 4a 87 50 3e ac de 1d 3f
       0.241569 -0.14000264 0.20364109 0.61667895
000090 47 8d 3a bd 72 b6 8f 3d fc e3 46 3e c4 46 fc bd
       -0.04554489 0.070172206 0.19422907 -0.12318185
0000a0 5f 07 48 3e b6 93 c7 3d b5 47 40 3f e3 a2 e2 3e
       0.19534062 0.097449705 0.75109416 0.44264898
0000b0 86 ea b7 3e 61 a9 82 bc 41 e1 66 3e f3 fa 49 bd
       0.35921115 -0.015949907 0.22546865 -0.04931159
0000c0 26 3c aa 3c 08 c1 4c bd 32 b8 0d 3f d1 91 1e be
       0.020780634 -0.049988776 0.55359185 -0.15485312
0000d0 31 39 f2 bc 8d b2 bc 3e 84 30 af 3e 32 a7 eb 3d
       -0.029568287 0.36854973 0.34216702 0.11506499
0000e0 a0 41 3e 3f eb 0d 08 3f a8 8f 8a 3e f6 e8 be bc
       0.74318886 0.5314624 0.27062726 -0.023304444
0000f0 c2 3d f3 be 78 75 15 3f b5 2b 08 3f c6 94 39 3e
       -0.47508055 0.5838237 0.5319169 0.18123159

4.weight f4 [8, 64]
000000 ca 96 7b 3f 35 be 5b 3f a9 3f a1 bd ba 90 81 3d
       0.9827696 0.8583711 -0.0787347 0.063264325
000010 cc 68 64 3f 35 92 87 3f 89 fb 34 3f 52 62 e2 3d
       0.8922241 1.0591494 0.7069631 0.11053909
000020 4f 54 7f 3f ba 59 39 3f 3d de e3 bd 91 49 92 3f
       0.9973802 0.72402537 -0.11126373 1.1428701
000030 5a 1b 07 be 8b ee c0 bd 0a fa ee 3d ab 3c d8 bd
       -0.13194028 -0.094204985 0.11668785 -0.105584465
000040 2e 97 19 bd 44 e7 f2 bd 3e 00 a2 3d d8 88 82 bc
       -0.03749769 -0.11860517 0.079102024 -0.015934393
000050 45 1f d3 bd d2 f1 d1 3d b1 61 20 3e b2 2f ed bd
       -0.103086986 0.10251202 0.15662266 -0.11581363
000060 62 88 65 3d 2e bf 8a 3f 82 e2 5c 3f 8e 25 ad 3d
       0.056038268 1.0839593 0.86283123 0.084544286
000070 ca 12 90 3d 4b 27 d7 3d b8 e2 f9 bc 1a be 8c 3f
       0.07034834 0.105055414 -0.030503616 1.0995514
000080 6d f8 86 3f 5e 33 00 3e a8 6e 28 3f 87 2b 39 3f
       1.0544564 0.12519595 0.6579385 0.7233204
000090 61 09 8c 3f 28 0e fd 3c d8 c3 91 3f 94 f8 cf 3d
       1.0940362 0.03089054 1.1387892 0.101548344
0000a0 f5 11 91 3f c0 5f 31 3b 20 ab 9f 3e b6 72 59 3f
       1.1333605 0.0027065128 0.31185246 0.8494066
0000b0 a4 5e 0b 3f 6f ac c1 bc 20 ae 16 3f 85 2f dd 3d
       0.54441285 -0.023641793 0.58859444 0.10800079
0000c0 cb b8 9f 3d 7c 9c 91 bd ef 10 15 3e 4c 41 fb 3d
       0.07798918 -0.07109925 0.14557241 0.12268314
0000d0 e0 cb 02 bc 87 84 b3 3f cd f4 86 3f 5e b1 c1 bd
       -0.007983178 1.4024819 1.0543457 -0.09457658
0000e0 4a 2f 2c 3f ee 90 79 3f 33 62 69 3f e0 86 a8 3d
       0.6725966 0.9748677 0.91165465 0.0822885
0000f0 b3 84 4e bf cf 76 5b 3f 1e f7 80 3f 60 a3 27 3f
       -0.8067123 0.8572816 1.0075414 0.65483665
000100 20 7d be 3f 87 cd 3f 3f 15 b0 82 bd e1 4a 1a bd
       1.4881935 0.74922985 -0.06381241 -0.037669066
000110 8e 8c 64 3f ab b3 38 3f d9 18 d7 3e f2 75 b6 bd
       0.8927697 0.7214915 0.42011145 -0.08909215
000120 18 b0 38 3f 17 b6 36 3f 67 86 93 bd cc dd 5a 3f
       0.721437 0.713716 -0.072033696 0.85494685
000130 0c d9 e1 bd 3b 04 b0 3d 22 42 fb bc 96 2b d8 3c
       -0.110277265 0.08594557 -0.030671183 0.02638797
000140 bd 2c 08 bd 00 a1 48 bb 47 68 a7 3d 3c 54 aa bd
       -0.03324579 -0.0030613542 0.08174186 -0.08316848
000150 ab 71 60 bd 00 25 e2 bd d7 c7 13 3f ca ab fb bd
       -0.054795902 -0.110422134 0.57726806 -0.122886255
000160 44 f9 47 bd db 4d b9 3f 06 08 8d 3f b6 b4 68 3c
       -0.048821703 1.4476885 1.1018074 0.014203241
000170 d4 4a cb 3d e0 d9 81 3c a0 1e c2 bd 46 25 91 3f
       0.09926382 0.015850961 -0.094784975 1.13395
000180 dc 16 86 3f 26 39 3f 3d 7e 0d 31 3f 86 6c 51 3f
       1.0475726 0.04668536 0.6916121 0.8180622
000190 60 58 1e 3f e1 2d e0 ba 11 38 5a 3f 90 35 e0 3c
       0.618536 -0.0017103517 0.852418 0.02736929
0001a0 fc f9 3d 3f 62 aa c0 3d 35 f7 e1 3e 87 66 0b 3f
       0.7420957 0.09407498 0.44133916 0.5445332
0001b0 2f 69 11 3f 74 45 7e bd 61 90 04 3f 30 84 f6 bc
       0.5680112 -0.062077954 0.51782805 -0.030092329
0001c0 a5 87 cf bc 1c f6 2f bd 97 46 eb 3d ca a9 cf bd
       -0.025333235 -0.042959318 0.11488073 -0.101398066
0001d0 72 9b cb bd c2 74 57 3f 66 eb 6e 3f 48 17 fc 3d
       -0.09941758 0.84162533 0.9332794 0.12309128
0001e0 37 d6 2c 3f b4 1f 9d 3f 7e 23 1b 3f 42 5e d9 bd
       0.67514366 1.22753 0.6060103 -0.106136814
0001f0 bf 9f 62 bf ca 3d 2a 3f 75 59 43 3f 39 38 16 3f
       -0.88525003 0.6650053 0.76308376 0.5867954
000200 cf 39 66 3f 26 9d 6c 3f 62 42 9e 3d ef 3a b6 bd
       0.8993196 0.9242729 0.07727505 -0.088979594
000210 a8 fb 86 3f 68 2c 1f 3f 70 84 b7 3e 58 36 bb bc
       1.0545549 0.62177134 0.3584323 -0.022853062
000220 a0 53 03 3f 1c 67 5d 3f f9 9e b5 3d 23 ba 43 3f
       0.51299477 0.8648546 0.08868212 0.764559
000230 67 e9 c1 3d 84 62 3b 3b d2 a7 9c bd 16 46 95 b9
       0.09468346 0.0028592655 -0.07649197 -0.00028471713
000240 ed b3 0b 3e 00 36 30 3d 00 98 00 be 20 cf 7c 3d
       0.13642855 0.04302025 -0.12557983 0.061720967
000250 7f 4d a2 bd 57 23 6c 3c e5 24 92 3c a5 59 59 bd
       -0.079249375 0.014412723 0.017839858 -0.053064007
000260 ff 46 93 bc 58 7c 65 3f cb 1e 53 3f 03 d6 44 3d
       -0.01797819 0.8964286 0.8246886 0.04805566
000270 9e b1 21 bc f4 1f ab bd 66 fe b3 3d 00 0f 67 3f
       -0.009869007 -0.08355704 0.08788757 0.90257263
000280 b4 29 6e 3f 6e 1f bf 3c ce e7 26 3f c1 a3 52 3f
       0.93032384 0.023330417 0.65197456 0.8228112
000290 39 89 0d 3f eb ed d9 bd 23 42 6d 3f 9c 4e 56 bd
       0.5528751 -0.106410824 0.9267904 -0.05232106
0002a0 c5 dd 51 3f bc 14 6d bd 8c 72 4f 3e 65 2f 3b 3f
       0.8197902 -0.057881102 0.2025854 0.73119193
0002b0 4f e0 00 3f fa ee fa 3d 25 d1 10 3f 39 98 c0 3c
       0.5034227 0.122526124 0.5656913 0.023510085
0002c0 14 88 2e 3b 4e 5a a8 bd f9 df dd bd 6c b8 1a bd
       0.0026631402 -0.08220349 -0.10833735 -0.037773535
0002d0 f8 13 f1 3d d6 69 f9 3e e7 10 a3 3f a4 6b 7d 3d
       0.11771387 0.4871356 1.2739533 0.061870232
0002e0 17 e3 1b 3f c5 df 65 3f 28 18 31 3f 31 d6 33 3d
       0.60893387 0.8979457 0.69177485 0.04390544
0002f0 10 0b 48 bf 92 ec 31 3f ac 7e 8c 3f 88 c9 4a 3f
       -0.7814188 0.695016 1.0976157 0.7921376
000300 9e 7a f0 3f 50 16 2d 3f 6a 92 6b bd 6d c2 b7 bd
       1.878742 0.6761217 -0.05751268 -0.08972631
000310 d6 42 72 3f a7 47 8c 3f ad 1c 0b 3f b8 cd b7 bc
       0.94633234 1.0959367 0.5434063 -0.022436962
000320 26 4b 70 3f 9d ef 17 3f c4 3e c8 bc aa fd 8c 3f
       0.9386467 0.59349996 -0.024443991 1.1014912
000330 32 6b bb bd 4b 42 93 ba be 17 70 bd b3 0c 4e 3d
       -0.09151305 -0.0011234967 -0.058616392 0.05030508
000340 94 8a f0 3d f8 f8 60 bd db 23 dd 3c c1 24 5f bd
       0.11745182 -0.054924935 0.026994636 -0.05447841
000350 6d 8b 94 bd f2 3d 21 3d 0b bd 23 3f 28 58 b3 bc
       -0.07253156 0.039365716 0.6396033 -0.021892622
000360 35 ec a1 3a 41 90 1c 3f 3d 86 8f 3f ef df be bd
       0.001235372 0.61157614 1.1212841 -0.09320056
000370 80 40 9e bc 8e c1 ff 3d 48 13 6b 3d 55 e8 7b 3f
       -0.019317865 0.124880895 0.057391435 0.98401386
000380 4f 9b 63 3f d0 c7 c6 bd c5 b8 5e 3f 06 c9 73 3f
       0.8890886 -0.0970608 0.87000686 0.9522861
000390 c0 c7 8d 3f 3f f1 c1 3d 77 22 8f 3f 00 b3 62 3b
       1.1076584 0.09469842 1.1182393 0.0034591556
0003a0 a4 06 85 3f 10 b3 ee bd 37 6a e7 be 30 39 88 3f
       1.0392652 -0.11655247 -0.45198223 1.0642452
0003b0 2a 1d 23 3f 60 2a e5 3b 96 8f 1a 3f f3 f9 2b 3e
       0.63716376 0.006993577 0.60375345 0.16794567
0003c0 d7 ee 9b 3d 00 88 fc b8 35 a5 32 bd 76 c9 b9 bc
       0.076139145 -0.00012041628 -0.043614585 -0.022679072
0003d0 54 67 73 bd fb 1f 1b 3f 50 25 90 3f d0 3c 4d 3c
       -0.059424713 0.60595673 1.1261387 0.012526706
0003e0 bc 73 16 3f c9 41 79 3f 93 e3 3e 3f 6c 35 65 bd
       0.58770347 0.97366005 0.74566 -0.05595915
0003f0 84 7f 52 bf af e3 2a 3f 3f 48 5b 3f a0 85 08 3f
       -0.82225823 0.6675367 0.85657114 0.53328896

4.bias f4 [8]
000000 30 41 44 3e d7 e9 db 3e 93 e2 4a 3f 8d 58 83 3f
       0.19165492 0.42951843 0.79251975 1.0261399
000010 65 c0 f3 3f 1a ad 9d 3f 70 b5 ba 3f 30 9c 7c 3f
       1.9043089 1.2318451 1.458662 0.98675823
