1_PoliceDQN_ThiefPPO_rl/models/police_dqn.pth (torch, 22630 bytes, 6 tensors)

0.weight f4 [64, 4]
000000 40 9f 29 3c 98 f3 b0 3d b4 47 76 be ee e9 92 be
       0.01035291 0.08640212 -0.2405079 -0.286941
000010 15 70 39 be d0 a7 69 3f 66 1a b3 bc f7 f0 c4 3e
       -0.18109162 0.91271687 -0.021863174 0.38465092
000020 fb 7c 86 3e 70 8c ac 3e 52 b6 32 bf 81 b9 dd bc
       0.26267228 0.33700895 -0.6980945 -0.027065994
000030 63 16 a9 3f 2a 78 9e bf c3 92 af bf 0b b0 8b 3f
       1.3209957 -1.2380421 -1.3716663 1.0913099
000040 bc 67 c3 3a 10 a1 11 be 48 71 3e 3f fa 10 33 bc
       0.0014908235 -0.14221597 0.74391603 -0.0109293405
000050 7d 84 5a bf 85 46 e0 bc a9 f2 20 3d b1 9b 9e 3d
       -0.8535841 -0.027377376 0.03929392 0.077445395
000060 19 84 19 3e 74 5c 33 3e 28 e2 e4 bf 67 67 aa be
       0.14991798 0.17515737 -1.7881517 -0.33282015
000070 dc fb 79 bf 14 22 88 be 07 0a d2 bf 5f b3 8c be
       -0.9764993 -0.265885 -1.640931 -0.274806
000080 98 e7 55 be bd 54 5c be 26 1b 65 bf 97 cb af 3e
       -0.20889127 -0.215167 -0.8949455 0.34335014
000090 34 8b 13 be 8c 48 ae be cc 72 55 3e 2c f3 fe be
       -0.1440857 -0.34039724 0.20844573 -0.497949
0000a0 c8 59 85 3d fc 62 8e be b4 0e 67 be f0 ff 2e 3d
       0.06511265 -0.27809894 -0.22564203 0.04272455
0000b0 38 8c 32 bf 83 bb 3c be 93 e4 d8 3e e1 70 82 bf
       -0.69745207 -0.18430905 0.42361888 -1.0190698
0000c0 00 9d 07 bb c4 c8 fd be 84 39 c6 be 74 5a cf 3e
       -0.0020692945 -0.49567235 -0.38715756 0.40498698
0000d0 01 d4 32 3e 42 39 ca bf f9 a8 1a 3f 80 8d 9e 3e
       0.17463686 -1.5798724 0.6041408 0.3096733
0000e0 09 b7 af 3d c9 29 d2 3e e7 ad ba 3e fd 5b 91 3e
       0.08579833 0.41047505 0.36460802 0.28390494
0000f0 90 11 88 bd 0c 06 11 be 90 29 f3 bd 40 56 a9 bc
       -0.06643975 -0.14162463 -0.11873162 -0.02067101
000100 19 16 43 bf cb b7 95 be 97 9b 43 be de a4 57 3e
       -0.76205593 -0.29241785 -0.19102322 0.21058986
000110 d1 20 11 bf 64 14 16 c0 42 28 37 be b6 f7 de bf
       -0.566907 -2.3449945 -0.17886451 -1.7419345
000120 c4 00 73 3e e4 ac 11 be f2 73 b5 be 4e e3 d0 be
       0.23730761 -0.14226109 -0.35440022 -0.4079842
000130 16 20 b3 3d 0e 7c 31 3e 02 2f 89 be 0f 3c c6 bc
       0.08746354 0.1733248 -0.26793677 -0.02419856
000140 f8 ac 8e 3d 3c ba fa be 38 38 df 3d 80 0c 41 be
       0.06966585 -0.4897021 0.10899395 -0.18852425
000150 c0 15 01 bf 54 6f 0c bf f7 4b d1 be cd 24 ae bd
       -0.5042381 -0.54857373 -0.4087827 -0.08503113
000160 59 81 09 c0 f1 b5 38 be ba 6e 04 be 47 8f 06 3f
       -2.1485198 -0.18038155 -0.12932864 0.52562374
000170 6e 88 3f 3d e2 ea 07 3d 80 43 47 3e 56 ca 97 be
       0.04676097 0.033182986 0.19459343 -0.29646558
000180 81 90 84 be b8 32 c1 be 65 67 0c 3f b9 90 ad 3d
       -0.25891498 -0.37734008 0.5484527 0.08474869
000190 bc 77 72 3f 4b c0 9b 3f de 36 fa be a2 1b 93 bf
       0.9471395 1.2168058 -0.48869985 -1.1492808
0001a0 c6 5a b6 3e d5 e0 d6 3e 48 c8 12 3d c1 24 14 3f
       0.3561613 0.41968408 0.035835534 0.5786858
0001b0 ee 36 8c 3e 2f 36 28 3e 37 5c 04 3f ec b7 87 be
       0.27385658 0.1642692 0.5170321 -0.2650751
0001c0 8e c1 22 3f 50 25 91 3f ca 25 08 c0 1b c2 f4 bd
       0.6357659 1.1339512 -2.1273065 -0.11951085
0001d0 27 64 30 3e f3 f9 ca 3e 07 7f ee bd 11 6a b6 3e
       0.17225705 0.3964382 -0.11645322 0.35627797
0001e0 98 00 31 3e 13 45 82 bd c5 34 72 be 24 1b 1f 3e
       0.17285383 -0.06360831 -0.23652942 0.15537697
0001f0 89 10 62 3c 50 a7 b5 3d 2b 37 8e 3d a9 65 16 3d
       0.013797888 0.08869803 0.06944116 0.036718044
000200 48 70 7f 3e c0 cd 6b bd 8e 95 c9 be a0 a3 54 be
       0.24945176 -0.057569265 -0.39371914 -0.20765543
000210 d3 34 15 3f 72 24 08 3f 82 e0 22 bf 12 16 a7 be
       0.5828373 0.5318061 -0.6362382 -0.32634026
000220 ce 6d 00 bf 24 59 30 3f bc 34 e6 be a1 99 5c 3f
       -0.5016755 0.6888602 -0.44962108 0.8617192
000230 d5 2b 8e be 21 66 8c 3e 42 0a 1e 3f 99 ce 55 3d
       -0.27767816 0.27421668 0.617344 0.05219898
000240 91 4a 30 be 57 bd aa be 5d c2 00 3e 29 b6 97 3e
       -0.17215945 -0.3334758 0.12574144 0.29631165
000250 00 7f 6d bb b8 f0 c6 be 70 c9 0b 3e 56 f3 94 be
       -0.0036239028 -0.3885553 0.13651061 -0.290919
000260 20 da 2f c0 0a b3 3d 3f 18 f2 d3 3e de bf f1 3e
       -2.7476883 0.74101317 0.4139564 0.47216696
000270 ae 5a f9 bd 98 0a 92 3e f3 f5 26 3f 9d 27 88 3f
       -0.12175499 0.28523707 0.6521904 1.0637089
000280 24 e9 3b 3f 0e d3 c1 bd e1 b0 bd be a8 84 fd be
       0.7340262 -0.094640836 -0.3704901 -0.4951527
000290 aa 60 60 3f 1f 56 8c 3f 24 fd 2e bf fc ac 4a bf
       0.876475 1.0963782 -0.6835501 -0.79170203
0002a0 08 d6 73 3e 80 3d d3 3d dc d2 95 be f6 88 be be
       0.23812115 0.103144646 -0.29262435 -0.37213868
0002b0 b8 c9 7b bf 92 66 4a be 32 81 8c 3f 88 6e 6a 3e
       -0.98354673 -0.1976569 1.0976927 0.22893727
0002c0 cb a9 d7 bf 51 04 af be 9a ef 80 3e 8f e9 76 bd
       -1.6848692 -0.3418298 0.251828 -0.060281333
0002d0 2c 9c 9c bd 77 24 d0 be 1f 28 a2 3d 4c 0d b8 3e
       -0.07646975 -0.4065282 0.07917809 0.35947645
0002e0 be 24 5e 3f b9 c2 3a bf 76 e0 57 bf 2f cf 2b c0
       0.86774814 -0.72953373 -0.84326875 -2.6845205
0002f0 63 2c 8d 3d 98 db 98 3d e7 b2 a4 3d 3a 23 03 bf
       0.06893232 0.07463759 0.080419354 -0.51225626
000300 f1 0b 69 3e 72 eb d2 bc 40 98 d2 be 34 41 c9 be
       0.22758462 -0.025747035 -0.41131783 -0.3930756
000310 2c 20 54 be 00 86 5d bd 3c 43 e1 3e 16 73 be be
       -0.20715398 -0.05408287 0.43996608 -0.3719718
000320 18 9b 75 3e 20 9b a0 be e0 84 eb bd f0 02 e7 be
       0.23984945 -0.3136835 -0.11499953 -0.4511943
000330 53 3b 26 3f 01 34 85 bf cb 6a 10 bf f1 08 2e be
       0.6493427 -1.0406495 -0.56412953 -0.16995598
000340 ce 5d ca 3e 8a c1 bb be 16 4b 86 3e 2b ee 00 3f
       0.39524692 -0.36671096 0.2622916 0.50363415
000350 3d d6 aa 39 25 b7 b3 3d d9 c9 fb 3e 76 78 02 be
       0.00032584547 0.087751664 0.49177435 -0.12741265
000360 04 04 3f 3e 30 0e 1a bf b7 d3 69 3f 57 c7 9c bd
       0.18653876 -0.601779 0.91338676 -0.076552086
000370 08 92 b0 3e c0 f9 bb bc 18 d0 cb 3d ba 28 f6 be
       0.34486413 -0.022946239 0.099518 -0.48077947
000380 e5 f1 e3 bf f5 1d 04 be ce 3f 06 3e 2c 8b e2 3d
       -1.7808195 -0.12902053 0.13110277 0.11061701
000390 67 83 91 3e d6 00 95 3e 82 51 c0 bf 35 6c c6 3e
       0.28420565 0.291022 -1.5024874 0.3875443
0003a0 a4 f7 22 bf 6a 7b 55 be 2a cf 07 40 42 0d 35 bf
       -0.6365912 -0.2084786 2.1220193 -0.70723355
0003b0 43 d4 62 3e f1 84 f5 bc 9a ef 95 3e aa 41 34 be
       0.22151284 -0.029970618 0.29284364 -0.17603174
0003c0 f6 21 87 bf 23 e6 20 3e 76 a6 92 be 2c 31 6e bf
       -1.0557239 0.1571279 -0.28642625 -0.9304378
0003d0 7e 06 b7 bd 6a 85 98 3e 42 3e a9 be c2 41 40 3e
       -0.08936785 0.29789287 -0.3305531 0.18775085
0003e0 68 a3 b0 3e b0 ee 01 be 0d ad 35 3f 66 98 ab be
       0.3449967 -0.12688708 0.7096718 -0.33514708
0003f0 f1 f3 de be 74 81 bf be ed 5d 4b 3e 71 b2 3d 3e
       -0.43545488 -0.37403452 0.19860049 0.18525101

0.bias f4 [64]
000000 d2 a2 d4 be 8e 2e 4f 3e cc 2f 9c 3e 26 1c ec 3d
       -0.41530472 0.20232603 0.30505216 0.115288064
000010 06 ec 34 bf ba 58 2a be d2 be 99 be 38 25 9b ba
       -0.70672643 -0.16635409 -0.30028397 -0.0011836654
000020 83 0f 02 3f dc e4 b0 be a8 a6 cc be 52 a2 cd be
       0.5080492 -0.34549606 -0.399709 -0.40162903
000030 88 e2 d8 be 8a 18 af 3e 2d ae df 3e 60 15 51 be
       -0.4236033 0.3419841 0.43687573 -0.2041831
000040 4f fc 08 3f 93 fb 41 3c 84 eb df be 55 4a ac be
       0.5350999 0.011839765 -0.43734372 -0.3365046
000050 dc 66 82 be a7 b5 26 3f fb b5 0a 3f 15 62 d0 3e
       -0.254691 0.6512093 0.5418393 0.4069983
000060 9c 10 aa 3e d4 75 21 be c9 74 09 3e 68 71 9f 3e
       0.33215797 -0.15767604 0.13423456 0.3114121
000070 f7 55 5e 3e 18 6c 9f 3e d8 10 03 3f a6 44 4f be
       0.2171248 0.31137156 0.51197577 -0.20241031
000080 ee c1 8d be 26 38 c1 3e dd cb 1d 3f 63 17 d9 3e
       -0.2768702 0.3773815 0.61639196 0.42400655
000090 ac 0a b9 3e cc aa d1 be 60 63 a8 bd f6 e9 18 bf
       0.36140954 -0.4095062 -0.08222079 -0.59731996
0000a0 ea f0 f0 3e b4 86 72 3d e0 bb e4 be d3 89 bc 3d
       0.47058803 0.059210494 -0.44674587 0.092059754
0000b0 4b c2 1c 3f 1d 26 ec be c5 38 3f be d1 5d c9 3e
       0.6123397 -0.46122828 -0.18674 0.3932939
0000c0 c4 04 16 3f 98 18 e2 be 7a 9b e9 be 37 c0 d4 be
       0.5860102 -0.4415939 -0.45626432 -0.41552898
0000d0 ed 71 8a 3d 91 58 05 3f a7 cf dc bd c2 a5 f1 be
       0.06760011 0.52088267 -0.10781794 -0.47196776
0000e0 e4 9d b2 3e d8 bd ec 3e 95 94 26 3e 8e 41 03 3f
       0.34886086 0.4623859 0.16267617 0.51271904
0000f0 cc 04 19 be 77 31 ac 3e 3d de ad 3e f8 10 d3 be
       -0.14943236 0.3363149 0.33958617 -0.41223884

2.weight f4 [64, 64]
000000 4e e3 d0 bd 92 36 aa bd c0 c6 e2 bb 84 8c a9 3d
       -0.10199605 -0.0831119 -0.0069206655 0.08278754
000010 1c c5 74 bd 54 43 0a 3d fa 75 9a bd c0 2d c8 3c
       -0.05975829 0.033755615 -0.075420335 0.024435878
000020 28 d4 af bd 60 5a 81 3d 18 d6 c1 bd 08 3f af 3c
       -0.085853875 0.06316066 -0.09464663 0.02139236
000030 90 b6 b4 3c 3c 4b 30 3d 3a 6e 92 bd 70 da 9a bd
       0.022059709 0.0430405 -0.0714993 -0.07561195
000040 98 9b d7 3d c0 17 55 3b 78 d7 6e bd 96 0f b2 bd
       0.10527724 0.0032515377 -0.058310956 -0.08694379
000050 a0 d1 99 bb 1c 89 96 bd b8 60 c5 3d 00 88 fc 3a
       -0.0046941787 -0.0735037 0.09637588 0.0019266605
000060 8c a1 25 3d a0 61 26 3c 5e cb c5 3d 10 8f ab 3d
       0.040437266 0.010155112 0.0965793 0.083768964
000070 60 fd bd bb 5e 4e f2 bd 60 21 78 bc 78 2f b3 bd
       -0.005798027 -0.118313536 -0.015144676 -0.08749288
000080 64 0a d0 bd 78 69 b3 bc 00 6c 04 3b d4 bf 43 bd
       -0.10158232 -0.021900877 0.0020205975 -0.047790363
000090 0c 24 8d bd ae c3 fd bd bc 46 c1 bd 40 72 15 bd
       -0.06891641 -0.123908386 -0.0943732 -0.03648591
0000a0 9c 51 e3 bd 34 b9 18 bd 1a a5 82 bd f0 df 40 bc
       -0.1109955 -0.037286 -0.06379147 -0.011772141
0000b0 a4 c2 d6 bd e0 26 41 3c d8 10 fa bc 86 d8 91 bd
       -0.104863435 0.011789054 -0.03052561 -0.07121377
0000c0 08 76 da bd 70 f1 ef 3c e2 6f c7 3d 1a 4f e1 3d
       -0.10667044 0.029289931 0.09738137 0.110014156
0000d0 16 90 9a bd 20 e2 e9 3d 58 ee 49 bd 48 dc 6b bd
       -0.075470135 0.11420083 -0.049299568 -0.057583123
0000e0 f8 a2 cb bd b6 33 8d 3d b8 ae 55 bd 92 f4 85 bd
       -0.09943193 0.06894629 -0.052168578 -0.06540789
0000f0 34 ed 2e 3d 8c c6 49 bd 28 a8 80 3d 98 61 d8 3d
       0.042706683 -0.049261615 0.06282073 0.105654895
000100 c8 6e ea bd 27 a5 f8 bf 11 9b 8e 3e 73 0e 45 bf
       -0.11446911 -1.94254 0.2785268 -0.7697517
000110 f7 d4 cf bf 3c 29 ec be e5 57 da be 22 ca 2f bd
       -1.6236867 -0.4612521 -0.42645183 -0.04291738
000120 47 b5 a5 3e 84 7a 59 3d 34 3c 79 bd d8 10 1b bf
       0.32364866 0.053095356 -0.06084843 -0.60572577
000130 80 dc 9f bb 7f 10 81 bd 74 e7 2b bd b0 15 38 3d
       -0.0048785806 -0.063019745 -0.041968778 0.044942558
000140 c0 2d 40 be 99 47 8a bd a8 1d c8 3d f0 05 62 bd
       -0.18767452 -0.067519374 0.097712815 -0.055181444
000150 10 a7 cd 3c 86 8f 52 3f 4f ff 79 bf b3 78 10 3f
       0.025104076 0.8225025 -0.97655195 0.5643417
000160 c0 1b c0 3f 33 e7 27 bf cf 61 f9 be 4a 1c 72 3e
       1.5008469 -0.65587157 -0.48707435 0.23643604
000170 6a f8 dc be fc 1a 30 3e 61 1c 1d bd b4 d4 6d bd
       -0.43158275 0.17197794 -0.038357142 -0.058064178
000180 04 6b b5 bd 3a 60 c6 3e 6b 4a f1 be 50 60 35 be
       -0.08858302 0.3874529 -0.4712709 -0.17712522
000190 3e a2 b4 be a8 6a 9b bc bc 9d ed 3f e1 28 34 c0
       -0.3528003 -0.018971756 1.8563762 -2.814995
0001a0 e2 32 1c 3f 14 d4 26 3e 80 e1 c3 3c 4e 34 02 bf
       0.6101514 0.16291839 0.023911238 -0.5086106
0001b0 f8 73 94 be 60 5b 6d bd 13 42 d7 be 94 21 11 3f
       -0.28994727 -0.05794847 -0.42042598 0.5669186
0001c0 b7 da 90 3e 34 8b 90 bd 9c 36 39 3d 0c ef 58 3d
       0.28291866 -0.07057801 0.045218095 0.052962348
0001d0 19 1e 1f bd e8 82 c7 3d 51 3d 3c 3f e4 6e 53 bd
       -0.038847063 0.09741765 0.7353106 -0.051619425
0001e0 e6 3f 6a bf 6b 71 87 bf af 41 fe 3e 42 c1 0a bf
       -0.9150375 -1.0581487 0.49659488 -0.5420114
0001f0 e6 de 66 bf ff a1 68 bd a0 72 62 3e b0 02 1e bc
       -0.90183866 -0.056795117 0.22114038 -0.009644195
000200 28 4a e7 3d 9c b4 28 be 89 fe 92 bd 31 51 e1 3d
       0.11293441 -0.16475147 -0.07177455 0.11001814
000210 9d e2 15 3f 02 d7 a4 3c ce 35 ac 3d b0 a2 6c be
       0.5854891 0.020122055 0.084087 -0.23108935
000220 f8 0c e1 bd c8 e3 ff bc c8 42 52 3d a4 4d a0 bd
       -0.10988802 -0.031236544 0.05133322 -0.07827309
000230 c0 47 98 3d f4 b3 63 3d 3e ea 33 be d6 66 d0 bd
       0.0743556 0.05559154 -0.17569825 -0.101758644
000240 78 7b 83 be af 0e 38 be 4e c4 e9 3d 8f d9 4b bf
       -0.25680137 -0.17974351 0.11414395 -0.79628843
000250 80 f2 2c bc ae b5 47 be 7f fd 10 bf b8 f9 c1 be
       -0.010555863 -0.19502899 -0.56636804 -0.37885833
000260 cc 84 e8 3d 6d 22 29 be 01 28 8e bd 65 d6 3a be
       0.11353454 -0.16517039 -0.06941224 -0.18245848
000270 a7 1c c7 3e 13 21 b0 bd c3 0f fc bd 24 83 8b bd
       0.38889048 -0.086000584 -0.12307694 -0.068121225
000280 ba 5e fc 3d 3e 97 c9 bd 4b a6 c0 3e 00 c3 e5 bd
       0.12322755 -0.098433 0.3762687 -0.11218834
000290 65 f4 9d be 6c ff 52 bd ad b6 19 bd fc 79 0d be
       -0.3085052 -0.05151312 -0.03752773 -0.13816065
0002a0 98 35 ba be bd 7f 19 be a0 6e 84 3b f1 eb 46 3c
       -0.36369014 -0.14990135 0.004041508 0.012141214
0002b0 d6 ae b4 bd eb 80 5e 3d 2f 8f 50 be bf d6 8a be
       -0.0882241 0.054322165 -0.2036712 -0.27116963
0002c0 8f 9b 20 be ce e6 c8 3d 9c f2 b9 3d 39 0f 85 be
       -0.15684341 0.098096475 0.09079477 -0.25988176
0002d0 1f 1f 9c 3d a1 69 33 be be 4b 78 3e 40 41 9e 3b
       0.076231234 -0.17520763 0.24247643 0.0048295557
0002e0 eb 97 9e 3d 06 39 16 be 9d cf 4d be 4f ad 8a bc
       0.0774382 -0.1467019 -0.2009873 -0.016928343
0002f0 46 fe 14 bc 63 a5 f1 bd 8d f2 3b bd 03 b5 26 bd
       -0.009093827 -0.11799123 -0.04588561 -0.04069997
000300 2c 24 25 3d bd 74 be bd ac 45 ba bb 80 7e 38 3c
       0.0403177 -0.0929961 -0.005684575 0.011260629
000310 36 dd 70 bd 91 b2 75 3b 28 66 f0 bd 32 23 eb 3d
       -0.058804713 0.0037490467 -0.11738235 0.11481322
000320 82 88 24 3d 6c 91 84 3d c0 15 c2 bb 96 b5 f2 bd
       0.040169246 0.064730495 -0.005923003 -0.11851041
000330 50 05 14 3d 54 89 df bc 2d 81 63 bb 98 e7 a1 bd
       0.03613788 -0.027287163 -0.0034714446 -0.07905501
000340 5b 8d 9d 3c 0e a3 85 3d 32 b7 85 bd d0 4f b4 bc
       0.019232443 0.06525241 -0.06529082 -0.022010714
000350 ca 0a a7 bd bb e9 b5 bd 06 e7 e2 3d 88 37 55 3c
       -0.08156355 -0.08882471 0.110792205 0.013013728
000360 b0 27 67 bd 80 da 4e bc 0b 84 19 bd d8 96 3f bd
       -0.056434333 -0.012625337 -0.03747944 -0.046774715
000370 ba d8 9b bd 6a e4 16 be 6e 09 8b bd 91 80 e8 bc
       -0.07609697 -0.1473557 -0.06788908 -0.028381618
000380 4c 7e 5e 3d 96 cb 04 be b5 20 77 3d 8b 5d a2 bc
       0.054319665 -0.12968287 0.060333926 -0.019819995
000390 dc c9 b8 3d a8 e3 80 3c b2 d4 bb 3d f5 77 94 bc
       0.090228766 0.015733555 0.09171428 -0.018123606
0003a0 e6 44 e0 bd 9c 26 73 3d 4c 17 64 3d 21 bb 0e be
       -0.10950641 0.059362993 0.05568628 -0.13938572
0003b0 c3 92 3a bd a4 d6 61 3d 1e cc df bd 20 41 f5 3d
       -0.04555012 0.055136338 -0.10927604 0.11975312
0003c0 d2 a7 e1 3d 08 5f f5 3d 90 ee bd bd bc 58 0b 3d
       0.11018337 0.119810164 -0.09274018 0.03402017
0003d0 d1 8e 88 bd b0 54 ae bd 98 f5 15 bd 1c 88 25 bd
       -0.06667865 -0.085122466 -0.03661117 -0.040413007
0003e0 ed fc a2 3d ae cf 11 be a0 b6 f4 bd c9 76 a5 3c
       0.07958398 -0.1423938 -0.119488955 0.020198243
0003f0 54 e9 06 bd 0d a9 4c bc 68 07 0a bd 0e ee fc bd
       -0.032937363 -0.012491477 -0.03369847 -0.12350093

2.bias f4 [64]
000000 70 cb d4 bd b1 93 44 3e e4 7c 9a be 64 e9 8f bd
       -0.10390365 0.19196965 -0.3017341 -0.070269376
000010 b0 61 04 bd 8b ae 85 bd 6c 3b 6c 3c ea 19 5a 3d
       -0.032319725 -0.06527432 0.014418464 0.05324737
000020 86 02 e4 3d 64 4d dd bd 03 3c 9b bd e8 c7 69 3d
       0.11133294 -0.10805777 -0.07579806 0.05707541
000030 fd 01 a3 3c ab 29 6d 3e 48 42 98 bc 25 1e 45 3e
       0.019898409 0.23160426 -0.018586293 0.1924978
000040 31 d3 2c bd 07 54 3a 3e 79 9f 15 bd 63 55 cd bc
       -0.042193595 0.18196116 -0.036529038 -0.02506513
000050 94 c4 1f be 42 eb 13 be 3a 46 f9 bd 93 01 b0 3e
       -0.15602332 -0.14445212 -0.12171598 0.343762
000060 be 74 21 3e fe 46 7e bd dc ac 11 be 79 76 04 be
       0.1576719 -0.062079422 -0.14226097 -0.12935819
000070 1d 6b 84 bc d2 37 8c bd f8 d0 d3 3c 23 2f e1 3d
       -0.016164357 -0.068465844 0.02585648 0.10995319
000080 c6 d3 df bd 70 fd dd bd 52 2b 82 3e 9e 7d cb 3e
       -0.109290645 -0.10839355 0.25423676 0.39744276
000090 bf ee bc bd ce de 0a be 49 53 9c bd 8f af 8b bc
       -0.09225225 -0.13561556 -0.07633073 -0.017051486
0000a0 5d 7a 3f 3e 5d 5a 5a be 7c 7a 3a 3f e4 8a f4 3e
       0.18699022 -0.21323533 0.72843146 0.47762215
0000b0 d3 a3 4e be 03 29 95 be 7c 89 ef 3c 94 1b 1e be
       -0.20179681 -0.29132852 0.029240362 -0.15440208
0000c0 43 67 fd bd 75 c0 33 be ba cd 8d 3e ef bc 2a 3d
       -0.12373211 -0.17553885 0.2769602 0.041684087
0000d0 c4 dc 90 bd 86 be 8d 3c dd f5 a3 3e 87 2c f7 bc
       -0.07073358 0.017302763 0.32023516 -0.0301726
0000e0 ae b5 cc 3d 2c 22 e7 bd 8d e1 b8 3d 52 3c 80 be
       0.0999559 -0.11285815 0.090273954 -0.2504602
0000f0 4f c7 a1 3c 99 05 70 bd 6f f5 de bd e5 ca e4 3e
       0.019748358 -0.05859909 -0.108866565 0.44686046

4.weight f4 [8, 64]
000000 48 dc 6a bd 1a 59 45 3f cc 31 08 3d 00 9d 38 bd
       -0.057338983 0.77089083 0.033250615 -0.045071602
000010 85 ad 17 be f8 32 8b 3c 87 7b 93 3b ec ce b6 3d
       -0.14812286 0.016992077 0.0045008096 0.08926186
000020 ed 65 2a 3f bb 75 9b 3d 38 a3 22 bc a3 69 2d 3f
       0.66561776 0.07590815 -0.00992661 0.67739314
000030 58 44 eb 3d 81 98 1e 3e 0a 49 09 bd e7 67 a7 be
       0.11487645 0.15487863 -0.03351692 -0.3269646
000040 a0 fd 35 3f 2f fa 68 3f c8 0b a9 bc c0 d5 22 3d
       0.71090126 0.9100675 -0.0206355 0.03975463
000050 ae 82 47 3d dc 69 81 bd 48 59 8a bd f1 f2 3d 3f
       0.04870861 -0.06319019 -0.0675531 0.74198824
000060 21 70 17 3f aa 9e 48 bc d0 3d 7f 3d d8 ac 69 3d
       0.5915547 -0.01224486 0.06231481 0.057049602
000070 74 bc 2c 3d b0 2d ae 3d 96 ee 15 3f 57 07 ee 3e
       0.04217191 0.08504808 0.5856718 0.46489975
000080 98 41 b6 bd 1e 7e eb 3d fd 1d d9 bd 79 ac 6e 3f
       -0.0889923 0.11498664 -0.10601423 0.9323192
000090 d6 b3 ad bd b3 f4 91 bd e0 72 c8 bc fd 8f 03 3e
       -0.084815666 -0.07126751 -0.02446884 0.12847896
0000a0 c1 17 15 3f 03 8e 9d 3d c6 e1 0a 3f 50 5c 3f 3f
       0.5823937 0.07693102 0.5425075 0.7475023
0000b0 61 f0 36 3f 0d 03 fe 3e e2 3d 18 be ec a3 e2 bc
       0.7146054 0.49611703 -0.14867356 -0.027666055
0000c0 5c 94 5e bc 5b 7e 04 be 41 4d a2 bd a8 62 40 3d
       -0.013585176 -0.12938826 -0.07924891 0.046969086
0000d0 be 6e bd 3d eb 85 ec 3c d5 b5 e8 3e 5d 6e 90 bd
       0.09249638 0.02887245 0.45451227 -0.070523
0000e0 f3 19 2e be a5 3b d7 3e 60 ae ad 3f aa 16 ae 3d
       -0.17002086 0.42037693 1.356884 0.085004166
0000f0 9b 58 27 3f ed 65 78 bf 28 88 37 3d 3a 31 19 3f
       0.65369576 -0.97030526 0.044807583 0.5984074
000100 38 77 91 bd bc e2 67 3f d4 94 a9 3c f6 32 81 3d
       -0.07102817 0.90580344 0.02070085 0.06308548
000110 9e e0 c1 bd d6 d4 c2 3d d3 92 b5 bd 35 c4 ac 3c
       -0.094666705 0.095132515 -0.08865895 0.021089653
000120 e6 87 3c 3f e7 2f 2b 3d b3 38 3e 3f 25 d6 56 3f
       0.73644865 0.04179373 0.74305266 0.8392051
000130 af e8 09 3d 20 dd 0b bf 1a 94 48 bd 41 a1 9c 3d
       0.03366917 -0.54634285 -0.048969366 0.07647944
000140 1a bd 17 3f c3 9d 0d 3f d5 10 f8 3c a5 d8 49 bc
       0.5927292 0.5531885 0.030281464 -0.0123197185
000150 76 b6 9f 3c 73 2a db 3d 6f e6 e6 bd c0 fc 55 3e
       0.019496184 0.10701456 -0.112744205 0.20897198
000160 27 ba 13 3f ec 7d 9a bd a0 dc 71 bc e6 df af 3b
       0.5770592 -0.07543549 -0.014762074 0.005367267
000170 87 73 ab 3c f9 a6 a7 bd db 77 4a 3f 11 1c 3f 3f
       0.020929111 -0.081861444 0.79089135 0.746522
000180 00 4f 21 ba 98 d9 10 bd 14 17 d5 be 6c 80 5e 3f
       -0.00061534345 -0.035363764 -0.4161917 0.86914706
000190 10 db b1 bd 84 03 3e bd 1e 9e cb bd 5b 41 cb bd
       -0.08684361 -0.04639007 -0.09942268 -0.09924575
0001a0 7a 7b 14 3f 1d bb 1a be 8e 14 39 3f a1 9e 78 3f
       0.5800091 -0.1511044 0.7229699 0.9711705
0001b0 f3 5f fd 3d 0f d1 36 3f 35 24 52 bc 4d de 85 bd
       0.123718165 0.7141275 -0.012826015 -0.06536541
0001c0 0f be bd bd cf c2 71 bd d7 3d 40 3f 4b 83 03 3d
       -0.092647664 -0.059023675 0.7509436 0.032107633
0001d0 2c b0 0a 3e c8 2c ae 3d 82 d1 10 3f 33 92 82 bc
       0.13543767 0.08504635 0.56569684 -0.015938854
0001e0 d9 4c 84 3f 60 e1 03 3f 5e 16 7e 3e 72 6c 0a be
       1.0335952 0.5151577 0.2481322 -0.13517931
0001f0 ae 6b e2 3e 02 f1 4c bd c8 cb 33 3d c4 59 1d 3f
       0.44222778 -0.05003453 0.043895513 0.61465096
000200 00 ed dc bc 69 ad 59 3f 8f c0 23 bd 18 aa eb 3c
       -0.02696848 0.8503023 -0.03997856 0.02876763
000210 7f 01 54 be 08 a2 b5 3d 3f 07 91 3d e1 dd 60 3d
       -0.20703696 0.08868796 0.0708146 0.0548991
000220 62 33 98 3f f5 25 48 3c fc d8 2d 3f 6b ee 85 3f
       1.1890681 0.012216081 0.67909217 1.0463384
000230 c0 7a e2 bc 09 1c 72 bf a2 36 b5 bd ca 9a 84 3d
       -0.027646422 -0.9457403 -0.08848311 0.06474836
000240 d3 5b 29 3f 48 4b 32 3f be 11 87 3d 41 e5 6e 3d
       0.6615574 0.6964612 0.06595181 0.058324102
000250 8e 6d 8e 3c 09 44 5d bd b2 1f 03 be 9c 72 12 3f
       0.017386224 -0.05401996 -0.1280506 0.5720613
000260 ae 6d 25 3f a7 e2 ab 3d b3 f9 62 3d e8 05 52 3d
       0.6462048 0.0839284 0.055413913 0.051275164
000270 d0 5d 3c 3c e5 2d 20 3e 13 bd 3d 3f 6e 58 e4 3e
       0.011496976 0.15642507 0.7411663 0.44598716
000280 e0 66 9d 3d 80 d9 4c 3b 45 08 bc be ad d3 6e 3f
       0.076856375 0.003125757 -0.3672506 0.9329174
000290 ec 5f ff bd 9e 20 08 3d fa fc a2 3d a7 01 e1 3d
       -0.124694675 0.03323423 0.07958408 0.10986643
0002a0 80 59 3f 3f 58 45 21 bd 48 9b 39 3f 06 29 5d 3f
       0.7474594 -0.039372772 0.72502565 0.8639072
0002b0 14 e6 77 3f 77 95 dd 3e 02 14 0f be e7 58 27 bd
       0.96835446 0.43278095 -0.13972476 -0.04085627
0002c0 4d 7d 6b bd d3 b1 2b be e5 fa f8 3e 4c 6b f6 bd
       -0.057492543 -0.16767053 0.48628917 -0.12032184
0002d0 f7 bc be bd 5b 7a c1 3d 0e 77 e7 3e fc 88 a9 3d
       -0.09313386 0.094471656 0.4520802 0.08278081
0002e0 4f b8 0f 3f 09 76 0c 3f 6b 56 be 3e 94 e6 0a be
       0.5614061 0.5486761 0.37175307 -0.13564521
0002f0 06 ce 48 3f 83 8d 22 be 3c e0 8c bd ec 00 c7 3e
       0.78439367 -0.15874295 -0.06878707 0.3886789
000300 30 9a 7d 3d 21 3b 50 3f fd 51 88 bd a8 44 8f 3c
       0.061914623 0.81340224 -0.06656263 0.017488793
000310 ec 9d 52 be a0 32 83 3c 9d 32 47 bd bf 31 39 bd
       -0.20568055 0.01601535 -0.048632253 -0.045213457
000320 1d 3f 8e 3f 38 ca 88 3d 3e 52 c0 3e e2 9e f0 3e
       1.1113011 0.06679195 0.37562746 0.46996218
000330 2e 44 a2 bd 3b a6 5d 3f ca ba 0d be 3f 36 95 3e
       -0.079231605 0.8658177 -0.13840786 0.2914295
000340 9c 18 54 3f ef 32 3d 3f 29 7f 0f be 3a c5 2e bd
       0.8285005 0.73905843 -0.14013352 -0.04266856
000350 22 13 c2 3d ed de 87 bd e4 77 a5 bd 27 d1 b3 3e
       0.094763055 -0.066343166 -0.08079508 0.35120508
000360 57 fb 3b 3f 41 9f ad 3c 74 f3 75 3d d7 91 e1 bd
       0.7343039 0.021194102 0.060046628 -0.11014145
000370 90 26 17 3c 80 d0 1d 3e 9d a7 e9 3e 8c c0 66 3e
       0.009225503 0.15411568 0.4563569 0.22534388
000380 1c f6 f1 bd d8 a6 e7 3d ba 45 eb be 1f 75 86 3f
       -0.1181452 0.1131112 -0.45951635 1.0504493
000390 10 e3 26 bd 63 eb 13 3d 57 5f 4b bc 52 f2 19 bd
       -0.040743887 0.036113154 -0.0124128675 -0.03758461
0003a0 d9 ab c2 3c 9e 62 59 bb db 6f 35 3f 40 1c 3d 3f
       0.023763584 -0.0033170353 0.708738 0.7387123
0003b0 23 98 3f 3f bb fd af be f1 99 dd bd 19 d2 aa 3b
       0.7484152 -0.34373268 -0.108203776 0.005213034
0003c0 9a fe 66 3c 21 00 4d bd 3a dd 48 3f b4 b8 26 bb
       0.014098788 -0.05004895 0.78462565 -0.0025439681
0003d0 c0 27 16 3f 72 26 c8 3d 51 51 f0 3e b4 7f 8d 3d
       0.58654404 0.09772958 0.4693704 0.06909123
0003e0 d0 61 b0 3f da 98 09 3f c1 e5 61 3f 86 31 39 bb
       1.377985 0.5374886 0.882412 -0.0028258278
0003f0 af a1 f9 3e 76 0c ba be 63 b9 a1 bc ea bc 27 3f
       0.48756167 -0.36337632 -0.01974172 0.65522635

4.bias f4 [8]
000000 2b 0b 8d 3e 41 8d ef 3e 53 ed 2b 3e 5e 3f dc 3e
       0.27547583 0.46787456 0.16789751 0.43017095
000010 d3 e5 1d 3f 71 db ca 3d cd 80 7c 3e 36 54 ac 3e
       0.6167881 0.099051364 0.24658509 0.33657998
