1_PoliceDQN_ThiefPPO_rl/models/thief_ppo.pth (torch, 42450 bytes, 11 tensors)

0.weight f4 [64, 4]
0.29463783 -0.18957463 0.06808917 0.5381055 0.0023387081 0.3608628 0.3182698 -0.00097419595
0.09499073 -0.10865658 0.37915593 0.1491149 0.296695 -0.079735234 0.12727891 -0.079914354
0.0097003635 -0.08984618 0.11202082 -0.24031694 0.14960785 0.34932777 0.112072445 -0.070290364
-0.018061595 0.2528565 -0.26082653 -0.59404856 -0.021570314 -0.26801082 -0.26937044 -0.11012162
-0.30467284 -0.3048325 0.3476569 -0.016948527 -0.08882092 0.26567826 -0.08069651 -0.054361325
0.037030905 -0.30114198 -0.36844912 0.10353052 -0.30895048 0.048229147 0.23133227 0.30760762
0.4141031 0.06796279 0.4482788 -0.17999625 0.2610949 -0.19548626 0.07118214 0.19950381
-0.27402636 -0.0048129577 0.110430546 -0.052657474 -0.13269494 0.03828272 0.3445342 -0.51115924
-0.17538777 0.21435525 0.36113498 -0.111908205 -0.18260036 0.09589524 0.21601802 0.46118736
-0.3154307 -0.01715769 0.28421912 -0.359823 -0.43084785 0.37216875 0.37219533 -0.12086698
0.06131969 0.081533805 -0.18220876 0.012966083 -0.08953637 -0.03370507 0.04690568 0.121389456
0.22680654 -0.36412185 -0.46690896 0.17368849 0.3400949 -0.37493148 -0.35271463 -0.1921153
0.06964425 -0.24466777 -0.16399565 0.3084113 -0.31189173 -0.355052 -0.48906025 0.16640635
0.17705207 -0.19592427 -0.39798 -0.02626025 0.1856391 0.057159916 0.060175024 0.072237454
0.08814035 0.3466435 0.0065026805 -0.13248433 -0.56710285 0.08105016 0.061686065 -0.017160852
0.13110022 0.36373848 0.04565683 -0.3738728 0.09886149 0.095769495 0.3602425 -0.024331104
0.018194722 0.08566127 -0.228199 -0.25380954 -0.5664925 -0.11512822 0.09163 0.27722672
-0.21508077 -0.19644731 -0.18494071 -0.15203235 0.24078363 0.37072682 -0.21999197 -0.08485964
-0.24851866 -0.17400484 -0.14314361 -0.02231005 -0.058836076 -0.33521646 -0.28565994 -0.02055653
-0.16678977 -0.09116954 0.39708242 -0.22024436 -0.23357704 -0.29905897 -0.3793338 0.23384508
0.21837497 0.16647795 0.13536091 0.07990038 0.13322972 -0.2567148 0.15204084 0.23001768
-0.26488706 0.019802978 -0.46484816 0.07654916 0.012375146 -0.09292104 -0.114163056 -0.31870624
-0.032046366 0.07714988 -0.44527784 0.34463316 -0.010226224 -0.25114256 -0.2527499 -0.16735664
0.21062687 -0.077749476 -0.2549312 0.20730905 -0.102965094 -0.05016066 -0.3164196 0.35741782
-0.10150807 0.020156668 0.3116765 -0.40022773 -0.05583471 -0.014077746 -0.07683981 0.06440906
-0.075005785 0.043908134 -0.40907162 -0.19997466 0.009481485 -0.39342657 0.015791986 0.037089664
-0.5044052 0.19774784 -0.38497603 -0.4871513 -0.28790396 -0.3493781 -0.342248 0.39449337
0.29990715 -0.027692549 0.28448132 -0.29556704 -0.029043738 -0.26583725 -0.24530777 0.052239414
-0.053695012 0.40907547 0.26024565 0.27082476 0.010599661 0.15074372 -0.065076165 0.4333957
-0.13951041 0.33354563 0.19766937 0.2146723 0.18881099 -0.2794524 0.55633914 -0.20925736
0.39020523 -0.19467239 0.49791428 -0.01364805 0.04107884 -0.07317031 0.193156 -0.5486998
0.068073235 0.23061982 -0.0744362 -0.08881113 0.0929791 0.14593878 0.10386399 -0.22551042
00000000: c5da 963e da1f 42be 5672 8b3d 48c1 093f
00000010: 0345 193b 02c3 b83e 42f4 a23e 2f61 7fba
00000020: 808a c23d 5787 debd ba20 c23e 94b1 183e
00000030: 68e8 973e 3a4c a3bd 6755 023e 23aa a3bd
00000040: 46ee 1e3c 4601 b8bd 2c6b e53d a515 76be
00000050: cd32 193e 17db b23e 3d86 e53d 65f4 8fbd
00000060: e9f5 93bc 6876 813e 0e8b 85be 9113 18bf
00000070: 3ab4 b0bc b738 89be ecea 89be 7287 e1bd
00000080: 14fe 9bbe 0113 9cbe 1600 b23e a3d7 8abc
00000090: bee7 b5bd fb06 883e 3644 a5bd fba9 5ebd
000000a0: b8ad 173d 482f 9abe 5da5 bcbe cf07 d43d
000000b0: c22e 9ebe ed8b 453d 5ee2 6c3e bf7e 9d3e
000000c0: 5205 d43e 1330 8b3d cd84 e53e f050 38be
000000d0: 3bae 853e 8d2d 48be f1c7 913d ba4a 4c3e
000000e0: 2f4d 8cbe 04b6 9dbb 6929 e23d 5daf 57bd
000000f0: 2fe1 07be 57ce 1c3d c966 b03e 55db 02bf
00000100: da98 33be f17f 5b3e afe6 b83e 2130 e5bd
00000110: 97fb 3abe b964 c43d d433 5d3e c020 ec3e
00000120: 2280 a1be 498e 8cbc 2b85 913e b83a b8be
00000130: 1798 dcbe e78c be3e 6390 be3e 1b89 f7bd
00000140: 5b2a 7b3d 32fb a63d ef94 3abe b26f 543c
00000150: d85e b7bd 540e 0abd 2c20 403d 099b f83d
00000160: f93f 683e 2e6e babe b10e efbe 65db 313e
00000170: eb20 ae3e 05f7 bfbe 0397 b4be e0b9 44be
00000180: a5a1 8e3d 308a 7abe 7aee 27be 16e8 9d3e
00000190: 46b0 9fbe 60c9 b5be 1b66 fabe 6d66 2a3e
000001a0: 234d 353e 5fa0 48be 09c4 cbbe bc1f d7bc
000001b0: 2d18 3e3e 8420 6a3d 167a 763d 3bf1 933d
000001c0: ee82 b43d 427b b13e 7014 d53b f9a9 07be
000001d0: a72d 11bf a0fd a53d 87aa 7c3d ea94 8cbc
000001e0: 233f 063e ee3b ba3e a802 3b3d 416c bfbe
000001f0: e577 ca3d cc22 c43d b471 b83e 0652 c7bc
00000200: 190d 953c 2d6f af3d 00ad 69be 53f3 81be
00000210: a705 11bf 58c8 ebbd 82a8 bb3d a9f0 8d3e
00000220: 223e 5cbe 7c29 49be 1961 3dbe 5eae 1bbe
00000230: fc8f 763e e8cf bd3e 9345 61be e4ca adbd
00000240: ad7b 7ebe 532e 32be 3d94 12be 91c3 b6bc
00000250: 19fe 70bd 7ea1 abbe 0542 92be 2b66 a8bc
00000260: f0ca 2abe 19b7 babd 634e cb3e bd87 61be
00000270: d22e 6fbe 421e 99be 0a38 c2be 1675 6f3e
00000280: b09d 5f3e 3279 2a3e 0d9c 0a3e cfa2 a33d
00000290: 5f6d 083e 1f70 83be 98b0 1b3e c189 6b3e
000002a0: 479f 87be db39 a23c 9400 eebe cec5 9c3d
000002b0: 20c1 4a3c 634d bebd 52ce e9bd 772d a3be
000002c0: 0d43 03bd c200 9e3d 75fb e3be c273 b03e
000002d0: e48b 27bc c295 80be 6f68 81be 8a5f 2bbe
000002e0: 92ae 573e 1e3b 9fbd 5886 82be d348 543e
000002f0: 5ddf d2bd 4475 4dbd c001 a2be 78ff b63e
00000300: 77e3 cfbd 991f a53c 1094 9f3e a6ea ccbe
00000310: f0b2 64bd 59a6 66bc 315e 9dbd e6e8 833d
00000320: a29c 99bd 04d9 333d d671 d1be 28c6 4cbe
00000330: 3b58 1b3c 356f c9be 325e 813c 55eb 173d
00000340: b320 01bf 697e 4a3e 941b c5be e56b f9be
00000350: 2668 93be b0e1 b2be 213b afbe 09fb c93e
00000360: 6e8d 993e 7cdb e2bc 89a7 913e 9054 97be
00000370: 22ed edbc d21b 88be f631 7bbe fff8 553d
00000380: 4def 5bbd 5772 d13e eb3e 853e 8ba9 8a3e
00000390: 33aa 2d3c 905c 1a3e a746 85bd 0be6 dd3e
000003a0: d1db 0ebe 7ec6 aa3e d769 4a3e 0ed3 5b3e
000003b0: ab57 413e 6314 8fbe 3e6c 0e3f 9047 56be
000003c0: fbc8 c73e 3358 47be 9fee fe3e 129c 5fbc
000003d0: 4942 283d 51da 95bd b0ca 453e 9777 0cbf
000003e0: fb69 8b3d 9a27 6c3e 0272 98bd 9ce2 b5bd
000003f0: d46b be3d fa70 153e a5b6 d43d 34ec 66be

0.bias f4 [64]
-0.16202898 -0.29026642 0.070745096 0.050695173 0.11835234 -0.34801888 0.11518177 0.24458328
0.2989661 -0.14771113 0.2161786 -0.16773939 -0.1903664 -0.07096024 0.07423074 0.2505183
-0.0592532 -0.2545367 0.25741467 -0.23797846 -0.10214499 -0.0034891183 0.13608615 0.36456445
0.030471727 0.35378557 0.1636227 -0.22778407 -0.2760532 0.04158129 -0.1429793 -0.04145512
0.100328505 0.025399672 0.34968823 -0.29263344 0.16866525 0.27404472 0.1759172 0.2202922
-0.22343943 0.13034514 0.11293392 0.20875826 -0.17197247 0.32032883 -0.11978641 -0.14150509
0.19938122 -0.04630137 0.105680615 0.27945033 0.24001889 0.2761943 0.010172045 0.12897146
-0.43138647 -0.30852717 -0.28574926 0.13137667 0.00064710045 0.36345083 -0.046112347 0.06893535
00000000: edea 25be cd9d 94be cee2 903d bea5 4f3d
00000010: b662 f23d 882f b2be 6be4 eb3d 0a74 7a3e
00000020: 1612 993e 9641 17be ec5d 5d3e e0c3 2bbe
00000030: 69ef 42be 9a53 91bd 4906 983d ef43 803e
00000040: 7cb3 72bd a252 82be dbcb 833e a0b0 73be
00000050: 6431 d1bd b1a9 64bb 2b5a 0b3e 31a8 ba3e
00000060: d89f f93c 6223 b53e b68c 273e 3a40 69be
00000070: d856 8dbe 2551 2a3d 2a69 12be d8cc 29bd
00000080: 0879 cd3d f912 d03c 560a b33e 0dd4 95be
00000090: 95b6 2c3e 974f 8c3e a323 343e 4794 613e
000000a0: 4ecd 64be 3279 053e e649 e73d bac4 553e
000000b0: 8d19 30be 2402 a43e 9452 f5bd b6e6 10be
000000c0: 972a 4c3e 81a6 3dbd 146f d83d 1d14 8f3e
000000d0: 83c7 753e 5769 8d3e a6a8 263c 1811 043e
000000e0: b0de dcbe 46f7 9dbe ba4d 92be 9b87 063e
000000f0: 2da2 293a 3a16 ba3e 4de0 3cbd fa2d 8d3d

2.weight f4 [64, 64]
-0.17994466 0.037301414 -0.33920422 -0.10533331 -0.0937383 0.039291944 -0.008553745 0.22504584
-0.12700152 -0.033818252 -0.017623752 -0.13111517 -0.016870072 0.08294742 0.2331987 0.124945134
0.05196258 -0.16664249 0.08367275 0.28293777 0.12911116 -0.073582806 -0.045783035 0.059297644
-0.0203361 -0.013887126 0.08648446 -0.026266132 0.1493547 0.18236244 0.081498615 0.011115895
0.13606863 0.107506655 0.22822325 0.03180978 0.0466226 0.05171847 -0.046571754 -0.09288635
-0.21816653 -0.2229637 0.0679724 0.13400818 0.0586781 0.07406198 -0.0022103686 -0.12523237
-0.005994759 -0.006823917 -0.017699819 -0.08470985 0.07669708 -0.04678817 -0.0882484 0.067746066
0.016975274 0.07820326 -0.12284227 0.044017237 0.054329574 0.06601707 0.11396831 -0.024699865
-0.09040952 0.12684031 0.090108775 -0.05873433 -0.12043082 -0.0690015 -0.022268321 0.039172452
-0.245989 -0.027870588 -0.07004048 -0.03270677 0.012715186 0.095320836 -0.07733363 0.06874739
-0.21880794 -0.0725921 -0.14865762 -0.030676961 0.0077738673 -0.056825202 0.057895657 0.10019169
0.038302302 -0.03980453 0.11237678 0.17947565 0.0016979375 -0.054437984 0.063821085 0.059695456
0.039730776 -0.109002985 0.050025154 0.012825788 -0.124480866 0.004440895 -0.25775495 0.057729103
0.065212 -0.050224006 0.017901292 0.018027253 0.14149441 0.08221092 0.0937804 -0.062105123
-0.21732748 0.08621017 0.02636784 0.08330392 -0.133993 -0.029851617 -0.029794555 0.064671375
0.0036745572 0.09786892 -0.060346525 -0.009255591 0.10133883 -0.037987415 -0.07885313 -0.08049292
0.024475466 -0.10631155 -0.105347104 -0.105641544 0.04390682 -0.13603869 0.013093272 -0.10522639
0.021761255 0.008328812 0.061574217 0.0039380747 -0.03389625 -0.07076653 -0.0108855255 0.038899373
0.14714096 0.11628619 0.1808379 0.17425661 -0.116437584 0.03451679 -0.07832771 8.806774e-05
-0.09130421 -0.13105477 -0.052552447 0.13953556 -0.12188671 0.10558018 0.10758821 -0.035874728
0.003137749 -0.03132091 -0.018658468 -0.14762966 -0.057321202 0.08408086 0.01427096 0.047266454
0.0056233727 0.004189459 -0.020476757 0.040776905 0.061463904 -0.0033702222 0.047737543 0.05991432
0.14070962 -0.029094798 0.081757516 0.051349953 -0.032067347 -0.087949805 0.08967832 0.027269527
-0.049518213 -0.042908352 0.13305394 -0.006609248 0.054471847 0.15862854 -0.09319695 0.042449124
0.018900607 -0.053723935 -0.03473327 -0.057345327 -0.032508805 0.03925109 -0.08756664 -0.053570975
-0.08203079 -0.089294404 0.056978106 0.15588716 -0.07359 0.03254321 -0.08132143 0.026535338
-0.13375303 -0.04145883 0.10841973 -0.11891329 0.1537915 -0.10873101 0.105222635 0.14215916
-0.09107749 0.055011716 0.050213765 0.24984442 0.03731376 -0.07034213 0.05274952 -0.11994998
-0.13027209 0.021863451 0.0027929486 0.11854754 0.05156028 0.08151948 0.03785149 0.08931421
-0.02518021 -0.039854404 -0.100424826 0.044527136 0.06813544 -0.03738037 0.019233268 0.12865548
-0.072355956 -0.01433725 -0.11531204 0.03874926 -0.042284153 0.027416384 0.12921967 0.06203907
-0.13505319 -0.099139675 -0.09690752 0.18008852 0.009825169 -0.07474015 -0.10566496 -0.09837933
00000000: 6a43 38be 5ec9 183d 2dac adbe feb8 d7bd
00000010: def9 bfbd 97f0 203d 0225 0cbc 6b72 663e
00000020: b00c 02be 0285 0abd b05f 90bc 0e43 06be
00000030: 1b33 8abc 56e0 a93d a4cb 6e3e 3ce3 ff3d
00000040: b7d6 543d 54a4 2abe 9e5c ab3d 38dd 903e
00000050: b735 043e 95b2 96bd fe86 3bbd 16e2 723d
00000060: e597 a6bc d486 63bc c41e b13d 122c d7bc
00000070: 70f0 183e 38bd 3a3e bfe8 a63d 711f 363c
00000080: 9355 0b3e 732c dc3d 5bb3 693e f94a 023d
00000090: 57f7 3e3d bfd6 533d 06c2 3ebd 333b bebd
000000a0: 0c67 5fbe 9950 64be 1d35 8b3d 7139 093e
000000b0: 7358 703d cfad 973d d5db 10bb ea3c 00be
000000c0: af6f c4bb 2a9b dfbb 36ff 90bc 5c7c adbd
000000d0: 5c13 9d3d f4a4 3fbd 94bb b4bd 73be 8a3d
000000e0: bb0f 8b3c 0829 a03d ba94 fbbd 6b4b 343d
000000f0: b088 5e3d f533 873d 3868 e93d 5f57 cabc
00000100: a028 b9bd 6de2 013e f38a b83d 6993 70bd
00000110: 6fa4 f6bd a950 8dbd 0e6c b6bc 4b73 203d
00000120: 8ae4 7bbe dc50 e4bc 6271 8fbd 89f7 05bd
00000130: 5b53 503c 9237 c33d 1861 9ebd 6ecb 8c3d
00000140: 300f 60be 2bab 94bd b439 18be 404e fbbc
00000150: edbb fe3b 8bc1 68bd ff23 6d3d 4d31 cd3d
00000160: e0e2 1c3d 130a 23bd cc25 e63d 77c8 373e
00000170: 548d de3a 5dfa 5ebd a1b4 823d 3983 743d
00000180: bdbc 223d f53c dfbd 2de7 4c3d 4123 523c
00000190: d3ef febd ed84 913b 75f8 83be 5a75 6c3d
000001a0: de8d 853d b0b7 4dbd bba5 923c e4ad 933c
000001b0: e9e3 103e 335e a83d f00f c03d f161 7ebd
000001c0: 188b 5ebe f58e b03d 5e01 d83c 3f9b aa3d
000001d0: 7635 09be 618b f4bc b613 f4bc 6d72 843d
000001e0: d7d0 703b 806f c83d eb2d 77bd c3a4 17bc
000001f0: bc8a cf3d b198 1bbd c07d a1bd 79d9 a4bd
00000200: c680 c83c dfb9 d9bd 39c0 d7bd 985a d8bd
00000210: a3d7 333d ba4d 0bbe 2a85 563c ef80 d7bd
00000220: a944 b23c 9275 083c 3f35 7c3d f70a 813b
00000230: cbd6 0abd 0bee 90bd 3459 32bc f354 1f3d
00000240: 1fac 163e 7427 ee3d 922d 393e 5370 323e
00000250: d476 eebd 7a61 0d3d 476a a0bd 02b1 b838
00000260: b4fd babd 3933 06be 3c41 57bd 69e2 0e3e
00000270: bd9f f9bd 6c3a d83d 3557 dc3d 61f1 12bd
00000280: b1a2 4d3b 5b4a 00bd a5d9 98bc 3b2c 17be
00000290: a3c9 6abd 9632 ac3d bfd0 693c 789a 413d
000002a0: 4544 b83b bb47 893b dfbe a7bc af05 273d
000002b0: 93c1 7b3d f2de 5cbb 7188 433d b868 753d
000002c0: 2f16 103e 3758 eebc 7c70 a73d 5454 523d
000002d0: 0d59 03bd 071f b4bd 44a9 b73d 5864 df3c
000002e0: 9cd3 4abd abc0 2fbd 4b3f 083e 6492 d8bb
000002f0: df1d 5f3d 856f 223e 0bde bebd 22df 2d3d
00000300: 72d5 9a3c a10d 5cbd 7944 0ebd efe2 6abd
00000310: f427 05bd c0c5 203d 2356 b3bd 3d6d 5bbd
00000320: c2ff a7bd fcdf b6bd e061 693d e2a0 1f3e
00000330: 5bb6 96bd 074c 053d da8b a6bd a360 d93c
00000340: 8ef6 08be bcd0 29bd 2a0b de3d d088 f3bd
00000350: 857b 1d3e 5dae debd f77e d73d 2c92 113e
00000360: d686 babd f753 613d f3ac 4d3d 37d7 7f3e
00000370: 50d6 183d 890f 90bd e10f 583d 56a8 f5bd
00000380: 0c66 05be fb1a b33c e709 373b 0dc9 f23d
00000390: df30 533d aff3 a63d 2a0a 1b3d 5eea b63d
000003a0: ba46 cebc 5f3e 23bd 88ab cdbd 1662 363d
000003b0: 988a 8b3d 291c 19bd 168f 9d3c 43be 033e
000003c0: 5c2f 94bd c9e6 6abc b828 ecbd 8bb7 1e3d
000003d0: 2632 2dbd 5398 e03c 2952 043e ae1c 7e3d
000003e0: 624b 0abe be09 cbbd 7377 c6bd 2069 383e
000003f0: bff9 203c 5d11 99bd df66 d8bd 1a7b c9bd

2.bias f4 [64]
-0.044920713 -0.015569271 -0.021866072 -0.03637872 0.01307713 0.0049782274 -0.0042756926 -0.02881732
0.1233385 0.047500838 0.030944116 -0.08868446 -0.05572422 0.062867604 -0.11589719 -0.015749782
-0.048399985 -0.06665564 -0.15354985 -0.0032657261 0.11568638 -0.06364142 -0.013760188 0.05824961
0.034893487 0.006320033 -0.08864265 0.032114446 0.07793932 -0.17064826 0.023639431 0.07309974
-0.12604119 -0.08458614 -0.021155631 0.14516632 -0.041608226 -0.0024687932 -0.027552374 0.020720145
-0.09750894 0.10028734 0.08538086 -0.04594803 0.099193364 0.0038549881 -0.047381166 0.008304589
-0.0428896 0.02132955 0.15140946 -0.068898074 -0.019727219 -0.0010137694 0.10111445 -0.04959125
0.023827853 -0.05329022 -0.037372936 -0.037747517 -0.029851386 -0.05141148 0.13162418 -0.030141853
00000000: c8fe 37bd 4116 7fbc 7a20 b3bc da01 15bd
00000010: 7541 563c 6620 a33b 1c1b 8cbb 4d12 ecbc
00000020: e598 fc3d 3d90 423d 847e fd3c 33a0 b5bd
00000030: 143f 64bd bbc0 803d 825b edbd b005 81bc
00000040: 103f 46bd c182 88bd 2c3c 1dbe cb05 56bb
00000050: fbec ec3d 6f56 82bd 6972 61bc 2597 6e3d
00000060: 79ec 0e3d 4818 cf3b 478a b5bd 708a 033d
00000070: a69e 9f3d 6bbe 2ebe 7ba7 c13c 51b5 953d
00000080: f110 01be 803b adbd 934e adbc 7ba6 143e
00000090: 636d 2abd 7acb 21bb 84b5 e1bc 4bbd a93c
000000a0: c4b2 c7bd 7363 cd3d 29dc ae3d 0034 3cbd
000000b0: e425 cb3d f8a3 7c3b c112 42bd f90f 083c
000000c0: 01ad 2fbd 4fbb ae3c 150b 1b3e 6f1a 8dbd
000000d0: fa9a a1bc 75e0 84ba 1815 cf3d 3220 4bbd
000000e0: a132 c33c d946 5abd 5d14 19bd 249d 1abd
000000f0: e58a f4bc d894 52bd 7dc8 063e 0cec f6bc

4.weight f4 [8, 64]
-0.08808 0.052739855 -0.03820723 0.0016946483 0.016408965 0.066269375 -0.21069576 -0.06647915
-0.0079858815 -0.022715306 0.16219425 -0.15335523 0.010057714 0.0808596 -0.11109025 -0.039049964
-0.09009331 0.06002407 -0.1527539 0.049187914 0.04368995 0.017764097 0.11208163 0.02518835
0.13641413 -0.041417137 0.08039814 0.010706658 0.14743829 -0.08484549 0.0069220485 0.049304694
-0.105051056 0.043789666 -0.08759821 0.07513234 0.09969868 0.029007552 0.10001224 -0.14962037
-0.13832365 0.12908088 0.13872385 0.039098836 0.013106955 -0.06748808 -0.07026169 0.017606381
0.06645142 -0.048769698 0.11798939 0.01149486 0.12256686 0.0137839895 0.011584455 -0.022387844
-0.016350476 0.05474207 0.040520947 -0.12877214 0.118514135 -0.046181194 0.135855 -0.005733546
0.004459373 0.03376024 0.00077365444 -0.17174226 -0.023208264 0.17883438 -0.052913107 -0.07699473
-0.044119406 -0.1907661 0.15176657 -0.09176682 -0.2316934 -0.0603659 -0.052072305 0.06109081
-0.10164477 -0.040350895 -0.1424254 0.12196879 0.05339065 -0.022050507 0.05143062 0.02326219
-0.09696688 0.08196411 -0.002997966 0.03345389 0.29834884 -0.098748595 -0.00731031 0.082245454
-0.1827883 -0.12828705 -0.078445286 0.15974073 0.08136999 -0.05153822 -0.021196254 -0.046211857
-0.056735776 0.17757533 0.043206573 0.012207603 0.04609868 -0.0052868514 0.0038211131 -0.023180967
-0.041891653 0.067661375 0.20129862 -0.07460513 0.04420092 0.045884028 0.11497169 0.09524773
-0.041806795 -0.11216129 -0.04347018 -0.02657602 0.022960136 -0.18532687 0.032183286 -0.087475814
0.08436917 -0.15143353 0.12596512 0.006052642 0.08657433 -0.0014174135 -0.08660189 -0.014076383
-0.019624697 0.07618579 0.083087265 0.10386387 0.032656882 -0.15969129 0.17670226 0.07536647
-0.05847533 -0.15926498 0.03269012 0.0656223 0.009995857 0.019078223 0.1035455 -0.12514804
0.053121768 0.02250465 0.042431697 -0.013335437 0.12680446 0.036342144 0.048111 -0.04051033
-0.08318649 0.013236467 0.07677167 -0.018451558 -0.069891304 0.060084112 -0.09269255 0.10350663
0.0063044955 -0.006852614 0.030731875 -0.016908448 -0.04441863 0.016626276 0.01205738 0.10020103
-0.02835683 -0.009389664 0.05508514 0.0585024 0.033284858 0.030190192 -0.026138172 -0.0474684
0.025729828 -0.116223246 -0.008553406 -0.09848972 -0.017032046 0.088164136 -0.14857912 0.0664808
0.0721199 0.068371 -0.053155236 -0.08053512 -0.023542931 0.06500417 -0.11287377 0.054183997
0.10925225 -0.05913274 0.0973809 -0.13665435 -0.05389624 0.036705565 -0.10312376 0.053522266
0.011868969 0.072975434 -0.006239329 -0.015601112 0.031970523 -0.06937375 0.08616599 -0.09852098
0.028171996 -0.022839237 -0.09464548 0.101895384 0.13614258 0.054279402 0.139683 0.14666523
-0.090838216 -0.049602877 -0.15370047 0.071408555 0.14657341 -0.032063574 0.066995926 -0.10332987
-0.08934803 0.09551411 0.12238307 -0.075793564 -0.085568 -0.14923106 0.11514552 -0.028481666
0.05610796 0.023977926 0.09184258 0.06653839 -0.02009624 0.10161897 -0.022581343 -0.07219453
-0.066915214 -0.10550303 0.15578929 -0.13721511 -0.03151474 -0.13852887 0.057270095 0.022403046
00000000: 4963 b4bd bf05 583d 2f7f 1cbd f61e de3a
00000010: 186c 863c 3db8 873d a1c0 57be 3826 88bd
00000020: 37d7 02bc 7315 babc 4016 263e 2709 1dbe
00000030: 1cc9 243c b899 a53d 4983 e3bd dbf2 1fbd
00000040: d782 b8bd cddb 753d 856b 1cbe 4479 493d
00000050: 3cf4 323d 0386 913c 0e8b e53d cc57 ce3c
00000060: 25b0 0b3e 04a5 29bd c8a7 a43d fa6a 2f3c
00000070: 10fa 163e 79c3 adbd 5ad2 e23b b8f3 493d
00000080: 0225 d7bd cb5c 333d b166 b3bd fcde 993d
00000090: d22e cc3d 3fa1 ed3c 38d3 cc3d 1536 19be
000000a0: b7a4 0dbe c72d 043e a00d 0e3e 1a26 203d
000000b0: 8ebe 563c 3137 8abd 5ce5 8fbd 423b 903c
000000c0: af17 883d bcc2 47bd 6ca4 f13d f054 3c3c
000000d0: 5504 fb3d 3ed6 613c bacc 3d3c b666 b7bc
000000e0: 6ff1 85bc 3939 603d 4bf9 253d d8dc 03be
000000f0: 8ab7 f23d 7e28 3dbd 931d 0b3e 78e0 bbbb
00000100: ef1f 923b 2d48 0a3d 12cf 4a3a 34dd 2fbe
00000110: 421f bebc 5c20 373e 6abb 58bd 6aaf 9dbd
00000120: 8db6 34bd 3058 43be b268 1b3e 3ef0 bbbd
00000130: 0941 6dbe 3c42 77bd c549 55bd 5b3a 7a3d
00000140: 222b d0bd fb46 25bd f7d7 11be c6ca f93d
00000150: 27b0 5a3d 44a3 b4bc eaa8 523d 5990 be3c
00000160: 9296 c6bd cddc a73d 8679 44bb f206 093d
00000170: 2ec1 983e b43c cabd 538b efbb 4e70 a83d
00000180: db2c 3bbe ae5d 03be eca7 a0bd 1393 233e
00000190: 4fa5 a63d be19 53bd c4a3 adbc a548 3dbd
000001a0: c663 68bd 4fd6 353e 60f9 303d 6602 483c
000001b0: f8d1 3c3d 533d adbb a46b 7a3b 03e6 bdbc
000001c0: 9596 2bbd 0c92 8a3d 3a21 4e3e 93ca 98bd
000001d0: 060c 353d e4f0 3b3d 4776 eb3d 3e11 c33d
000001e0: 9a3d 2bbd d2b4 e5bd ca0d 32bd f4b5 d9bc
000001f0: e516 bc3c 54c6 3dbe 9fd2 033d 8526 b3bd
00000200: bec9 ac3d 6411 1bbe 00fd 003e 3e55 c63b
00000210: e24d b13d 81c8 b9ba 555c b1bd a1a0 66bc
00000220: f9c3 a0bc 4c07 9c3d a829 aa3d 95b6 d43d
00000230: 39c3 053d 1d86 23be 70f1 343e bc59 9a3d
00000240: d483 6fbd 5c16 23be 13e6 053d fc64 863d
00000250: aac5 233c ef49 9c3c aa0f d43d cf26 00be
00000260: 3696 593d ac5b b83c dccc 2d3d e07c 5abc
00000270: 07d9 013e 80db 143d 0a10 453d 29ee 25bd
00000280: ae5d aabd c4dd 583c 773a 9d3d b927 97bc
00000290: 2c23 8fbd c21a 763d 97d5 bdbd 49fb d33d
000002a0: f195 ce3b e58b e0bb 6ac1 fb3c 9683 8abc
000002b0: 4ff0 35bd d433 883c 518c 453c 3336 cd3d
000002c0: 954c e8bc 1bd7 19bc f5a0 613d 36a0 6f3d
000002d0: b455 083d 6c51 f73c b81f d6bc 3a6e 42bd
000002e0: 5cc7 d23c 7406 eebd 9623 0cbc fab4 c9bd
000002f0: ca86 8bbc 668f b43d 2025 18be 1627 883d
00000300: 99b3 933d 1806 8c3d 4eb9 59bd 99ef a4bd
00000310: 1bdd c0bc e820 853d 5d2a e7bd 0af0 5d3d
00000320: a5bf df3d 2c35 72bd a36f c73d 1eef 0bbe
00000330: 4ec2 5cbd 9358 163d 8d32 d3bd 2a3a 5b3d
00000340: 1076 423c 2574 953d 4973 ccbb ce9b 7fbc
00000350: 86f3 023d d313 8ebd cb77 b03d 5ec5 c9bd
00000360: f5c8 e63c 5a19 bbbc 7dd5 c1bd 87ae d03d
00000370: f668 0b3e 1454 5e3d 0f09 0f3e 692f 163e
00000380: 6309 babd 632c 4bbd a863 1dbe a63e 923d
00000390: 5717 163e 1855 03bd 2935 893d 9c9e d3bd
000003a0: 1afc b6bd e79c c33d faa3 fa3d a839 9bbd
000003b0: 473e afbd 07d0 18be 6ad1 eb3d 6252 e9bc
000003c0: 76d1 653d 5b6d c43c f617 bc3d 4845 883d
000003d0: dfa0 a4bc 9b1d d03d 82fc b8bc bada 93bd
000003e0: d80a 89bd f911 d8bd 3a87 1f3e 1e82 0cbe
000003f0: 9a15 01bd 83da 0dbe 0c94 6a3d 9886 b73c

4.bias f4 [8]
-0.021043869 0.26263022 -0.09154743 0.15699677 0.27818877 0.26734844 0.15160868 0.17433982
00000000: 3164 acbc 7877 863e 387d bbbd c3c3 203e
00000010: c26e 8e3e e5e1 883e 4e3f 1b3e 2386 323e

0.weight f4 [64, 4]
0.38900405 -0.49770403 0.4825499 -0.022334933 0.43211812 0.12023193 0.33901757 0.22757876
-0.38740242 -0.34315336 0.42182636 -0.22878522 -0.456923 0.06462473 0.27915514 0.21406573
-0.052134812 -0.40914887 0.41763097 0.19704187 0.020419598 0.117915034 0.20473075 -0.49704564
-0.1297887 0.45857286 -0.14628965 -0.20575178 -0.20230794 0.3760957 -0.05095601 -0.20795143
-0.16557956 -0.34521323 -0.1491642 0.11878383 -0.03131759 -0.34575468 -0.49561208 0.13246143
0.27125323 -0.3982321 -0.44976765 0.054273546 -0.47470033 0.11392546 -0.09936911 -0.3063532
0.40211505 -0.050296605 0.084627986 0.36410946 -0.088014305 0.42170554 -0.4199953 -0.4807701
-0.36011827 0.15896446 -0.31869483 -0.4481662 -0.41930157 0.31156218 -0.41135043 -0.18308854
0.3893121 0.36057067 -0.4013943 0.4894026 0.045326352 -0.40648806 0.43266022 0.14871961
0.1043393 0.06769192 -0.3112023 0.2647072 0.11132443 -0.05021572 -0.42226034 -0.17868042
-0.28990316 0.024073362 0.28248864 0.18037534 0.114952266 0.37719637 -0.46403146 0.48792487
-0.12263119 -0.48760837 0.13893968 0.11855304 0.35973096 0.32505304 -0.25293827 -0.25597852
0.16556925 -0.028953493 -0.3725856 -0.4317283 -0.28227776 0.15487033 0.03653884 0.25963533
-0.3602314 0.3270508 -0.18338335 -0.21435475 -0.024135172 -0.20954674 0.21942359 -0.15806586
0.2960778 -0.32903612 -0.105279386 0.35976183 -0.34812003 -0.13162988 -0.4760962 0.090705514
0.1001755 -0.3831182 0.31627303 -0.29505885 0.236866 -0.29214752 0.014607966 -0.49377036
-0.31282765 -0.2218827 -0.021309912 -0.016550958 0.38729376 0.3562674 -0.20242566 -0.35319716
-0.2862631 -0.20788503 0.3373716 0.12149149 0.48529756 -0.00016462803 0.31272328 0.09561473
0.2733994 0.07007176 0.20183086 0.45968336 0.4693091 0.04530847 0.46895814 0.06149882
0.2609403 -0.20491302 0.2702008 -0.41022563 -0.42754096 0.07508314 -0.05327058 0.3149203
-0.45287693 -0.09701675 0.3993187 0.16877079 0.30411208 -0.33384913 0.3939786 -0.2176264
-0.2639637 0.34530842 -0.15200591 -0.31357378 0.2998981 0.14771551 -0.3002053 -0.43069065
-0.36189467 -0.32033306 0.27025872 0.26975715 0.33596963 -0.19068903 0.15948552 -0.009822309
0.24942201 0.45519227 -0.2964744 -0.40244335 0.20804334 -0.20686048 -0.39846605 0.31194425
0.061115384 -0.41946018 0.48451787 0.17690194 0.24373412 0.099310935 -0.28175282 0.2830289
0.3812847 -0.31104517 0.40846056 0.41449314 -0.17267865 -0.24189514 0.2840439 0.024365842
-0.48381442 -0.49594516 -0.28595263 0.063602746 0.25406682 -0.23822427 -0.39529335 0.21751505
-0.44850028 0.49100387 0.440104 -0.055027187 -0.41381037 -0.14441693 0.33093357 -0.311343
0.10758513 -0.21871978 0.4888733 -0.038217783 0.39416504 0.3678916 -0.3427598 0.39972353
-0.29465044 0.07199359 0.026376545 -0.2869339 -0.30984354 0.009753406 -0.13121796 0.33813125
-0.16602296 0.0083524585 0.07327372 0.12416607 -0.39108193 0.4650995 0.07691085 0.26667863
0.29847974 0.3683439 -0.09208506 -0.16723496 0.43976367 0.3401245 -0.11797625 -0.1899417
00000000: 8a2b c73e 10d3 febe c810 f73e c0f7 b6bc
00000010: 963e dd3e 283c f63d b693 ad3e 680a 693e
00000020: 9c59 c6be ccb1 afbe a0f9 d73e ac46 6abe
00000030: d0f1 e9be f859 843d 6ced 8e3e 0c34 5b3e
00000040: 508b 55bd f67b d1be bad3 d53e 58c5 493e
00000050: 0047 a73c 707d f13d f0a4 513e c47c febe
00000060: 54e7 04be 10ca ea3e f4cc 15be 98b0 52be
00000070: d029 4fbe 9e8f c03e 40b7 50bd 38f1 54be
00000080: b08d 29be cabf b0be 80be 18be f044 f33d
00000090: e046 00bd c206 b1be dec0 fdbe f8a3 073e
000000a0: b4e1 8a3e 14e5 cbbe f247 e6be f04d 5e3d
000000b0: ec0b f3be c051 e93d 0882 cbbd 54da 9cbe
000000c0: 06e2 cd3e d003 4ebd 7051 ad3d 8e6c ba3e
000000d0: d840 b4bd cae9 d73e a009 d7be 8027 f6be
000000e0: 6c61 b8be 94c7 223e f82b a3be 0a76 e5be
000000f0: b2ae d6be 1485 9f3e 869c d2be 907b 3bbe
00000100: ea53 c73e b89c b83e 8e83 cdbe fa92 fa3e
00000110: 20a8 393d 341f d0be a485 dd3e f449 183e
00000120: d8af d53d 10a2 8a3d e855 9fbe b487 873e
00000130: 10fe e33d 00af 4dbd 8232 d8be 00f8 36be
00000140: 306e 94be 8035 c53c 5aa2 903e 50b4 383e
00000150: 186c eb3d e21f c13e 8895 edbe 4ad1 f93e
00000160: 1026 fbbd cea7 f9be 3446 0e3e f0cb f23d
00000170: a82e b83e 5a6d a63e 2081 81be 9e0f 83be
00000180: fc8a 293e e02f edbc 8ac3 bebe 7e0b ddbe
00000190: b686 90be 5496 1e3e c0a9 153d ecee 843e
000001a0: 4070 b8be 3473 a73e d8c8 3bbe d07f 5bbe
000001b0: 20b7 c5bc 6c93 56be 94b0 603e 04dc 21be
000001c0: 8297 973e 6c77 a8be b89c d7bd b432 b83e
000001d0: ca3c b2be fcc9 06be e2c2 f3be d0c3 b93d
000001e0: d028 cd3d 1228 c4be 8aee a13e f411 97be
000001f0: 008d 723e 5c94 95be 4056 6f3c 78cf fcbe
00000200: f22a a0be 3835 63be 2092 aebc e095 87bc
00000210: 5e4b c63e ae68 b63e ac48 4fbe 42d6 b4be
00000220: 1491 92be d0df 54be f8bb ac3e 88d0 f83d
00000230: ec78 f83e 00a0 2cb9 441d a03e a8d1 c33d
00000240: 02fb 8b3e c881 8f3d c0ac 4e3e 9e5b eb3e
00000250: 4849 f03e 6095 393d 481b f03e 30e6 7b3d
00000260: f899 853e b8d4 51be c257 8a3e 1809 d2be
00000270: a6e6 dabe 30c5 993d 4032 5abd 3c3d a13e
00000280: 7cdf e7be b8b0 c6bd 8073 cc3e 40d2 2c3e
00000290: 94b4 9b3e 46ee aabe 90b7 c93e 74d9 5ebe
000002a0: 4026 87be 44cc b03e 70a7 1bbe be8c a0be
000002b0: 3e8c 993e bc42 173e 82b4 99be 7c83 dcbe
000002c0: 424a b9be b202 a4be 5a5f 8a3e 9c1d 8a3e
000002d0: 3604 ac3e fc43 43be 2c50 233e c0ed 20bc
000002e0: 7c68 7f3e f60e e93e 7ecb 97be 0e0d cebe
000002f0: 5009 553e 3cd3 53be be03 ccbe 28b7 9f3e
00000300: 2054 7a3d 7cc3 d6be ba12 f83e c825 353e
00000310: 7095 793e 8863 cb3d e841 90be 2ae9 903e
00000320: c037 c33e 5041 9fbe be21 d13e 7238 d43e
00000330: acd2 30be 5cb3 77be 346e 913e e09a c73c
00000340: 86b6 f7be 86ec fdbe 6268 92be 2842 823d
00000350: 0c15 823e 10f1 73be e463 cabe 44bc 5e3e
00000360: d4a1 e5be dc64 fb3e 5055 e13e 3064 61bd
00000370: f4de d3be 08e2 13be 2070 a93e 5a68 9fbe
00000380: 9855 dc3d 14f8 5fbe 9a4d fa3e 408a 1cbd
00000390: 00d0 c93e 4a5c bc3e 367e afbe 90a8 cc3e
000003a0: 6cdc 96be 6071 933d a013 d83c 00e9 92be
000003b0: d0a3 9ebe c0cc 1f3c 005e 06be 8a1f ad3e
000003c0: ec01 2abe c0d8 083c 8810 963d c84a fe3d
000003d0: e43b c8be 8621 ee3e 7083 9d3d 1a8a 883e
000003e0: 56d2 983e 9297 bc3e 1897 bcbd a43f 2bbe
000003f0: b428 e13e cc24 ae3e 889d f1bd 1480 42be

0.bias f4 [64]
-0.073837936 -0.19224316 -0.34128493 -0.49381256 -0.40471262 0.24426907 -0.4321472 -0.0061899424
0.062333703 -0.4298371 -0.14291668 0.35452074 -0.0037034154 -0.3587973 -0.3182487 -0.21596664
0.442137 0.31635398 -0.2548799 -0.35158676 0.37183392 -0.07182765 0.24630201 0.36478543
0.32641727 -0.41686183 0.1971972 -0.061392665 0.27964598 0.29945856 0.38317734 0.14439607
-0.29913193 -0.16117412 0.48976713 0.09195149 -0.17663872 -0.32291782 -0.3760674 -0.4938451
0.33474147 -0.09630978 0.07141727 0.2302199 0.15337837 -0.07047534 -0.44935673 0.2933864
-0.03578168 0.014516711 0.16375023 -0.47613418 -0.47856748 0.2985233 -0.10771775 0.34530503
-0.047266543 -0.32178503 0.1919148 -0.23298067 -0.11105198 0.30195922 -0.015916348 0.09055835
00000000: 5838 97bd 64db 44be e6bc aebe 00d5 fcbe
00000010: 7e36 cfbe ac21 7a3e 6642 ddbe 00d5 cabb
00000020: a051 7f3d 9c13 dcbe c058 12be be83 b53e
00000030: 00b5 72bb 48b4 b7be 7ef1 a2be 5c26 5dbe
00000040: c85f e23e 26f9 a13e 9e7f 82be 2e03 b4be
00000050: 0461 be3e 601a 93bd 9836 7c3e 28c5 ba3e
00000060: 2a20 a73e ea6e d5be 10ee 493e e076 7bbd
00000070: c22d 8f3e a252 993e d22f c43e 90dc 133e
00000080: d227 99be d40a 25be c2c2 fa3e 1051 bc3d
00000090: c8e0 34be 7c55 a5be e88b c0be 44d9 fcbe
000000a0: 3c63 ab3e 103e c5bd 3843 923d c4be 6b3e
000000b0: 380f 1d3e 6055 90bd 1612 e6be be36 963e
000000c0: d08f 12bd 80d7 6d3c 24ae 273e dcc7 f3be
000000d0: cc06 f5be 0cd8 983e 209b dcbd d2cb b03e
000000e0: 909a 41bd 02c1 a4be 5085 443e 7c92 6ebe
000000f0: 386f e3bd 669a 9a3e 0063 82bc a876 b93d

2.weight f4 [64, 64]
0.118824854 -0.046972215 0.095082104 -0.020054564 -0.048207432 0.11263575 0.09070563 -0.05469373
0.12322447 0.09023194 -0.0788206 0.10359709 -0.010406926 -0.022041455 0.087324634 -0.006577641
0.0697173 0.056656986 -0.044457927 0.09029241 -0.07829058 -0.00548248 -0.081409216 0.09277578
-0.01295954 0.006860614 0.025565177 -0.05497244 0.045454517 -0.0452189 0.00759615 0.07182254
0.11295967 -0.018810213 -0.122023016 -0.036313593 -0.107381955 0.09313156 -0.08444899 -0.07852532
0.01801458 0.09543817 0.013042495 0.07614344 -0.083874464 -0.014542758 0.00026771426 0.10422866
-0.056983456 0.10593431 0.076497495 0.025750846 -0.026275054 -0.104745895 -0.12334755 0.064089194
-0.050478667 -0.11591712 -0.11929339 0.011713088 -0.039247006 -0.09177497 0.0623222 -0.005602911
0.052681744 0.037323087 -0.12250513 0.07324886 0.099764764 -0.07461169 -0.0674673 0.008789495
-0.069707304 0.024707273 0.015557632 -0.04594648 0.055430368 -0.10606107 -0.0841496 0.06361362
-0.025041655 0.03173074 -0.008903429 0.0053584874 -0.03852892 0.0066570193 -0.1036194 -0.03612554
0.086486205 0.100814864 -0.088322476 -0.08166805 0.11437419 0.04483193 -0.090778306 0.11585221
0.034587756 0.03404291 -0.09440167 -0.003525257 -0.09134203 0.08810684 -0.075822234 -0.08008188
0.11865325 -0.0929001 0.10488069 0.038910568 0.09836081 -0.079634845 -0.08444229 -0.10820991
-0.12214565 0.08500433 0.013929769 -0.11068201 -0.049732238 0.08226377 0.07730366 0.06463778
-0.0068642944 0.114338145 0.048504055 0.010869473 0.105934575 0.09254275 0.006108135 -0.10559954
0.023837835 -0.005914882 0.029579312 -0.017083228 0.0062624663 -0.062910825 0.09977065 -0.011792436
0.072792456 0.005024269 -0.051757514 -0.107832566 -0.045620933 0.033238426 -0.013666242 -0.055410594
-0.063234985 0.08219969 0.0056741685 0.0073983967 -0.11835159 -0.04804583 0.112201154 0.009466261
-0.061603233 0.057251662 -0.037594557 -0.0381082 -0.0708912 0.11531618 -0.12219542 -0.055906385
0.06366986 0.10173234 -0.07548919 0.032222793 0.016024336 0.116273 0.019415706 0.006718904
-0.08065054 0.1054492 0.11823507 0.090828165 -0.019052505 -0.08303863 0.0008253604 0.1185839
0.11943844 0.1230935 0.0878063 0.08108164 0.11146492 -0.0076393187 0.07201171 0.08403735
0.103927314 -0.0662083 -0.107718825 0.10376635 -0.08707857 0.042217314 -0.009793535 -0.0060255527
0.024143577 0.11607137 -0.018970296 -0.05836518 -0.08423132 -0.063740835 0.005031064 0.045704216
0.0064406097 -0.047511265 -0.014700741 0.03661816 -0.067128286 0.006673768 0.07403214 0.03929524
-0.027258307 -0.0807357 -0.06521915 0.11776613 0.109560385 0.111043975 0.07320179 -0.033341497
-0.008659542 0.08800073 -0.06682636 -0.12263383 -0.026369452 0.0694142 0.11998005 -0.07532382
0.078273565 -0.071699545 0.050104365 0.11904809 0.037065223 0.040621594 -0.07266678 0.03385526
0.124470904 -0.09617838 -0.061594397 -0.074471086 -0.052197486 -0.038788423 0.036298722 0.08849354
0.051554784 0.012115791 0.10040566 -0.07259527 0.03806442 -0.019634321 0.11578733 0.061351553
-0.016159639 -0.052176163 -0.004065722 -0.11676982 -0.026660308 0.11341536 0.034064785 -0.016865015
00000000: 725a f33d f065 40bd 68ba c23d 7849 a4bc
00000010: 2875 45bd 92ad e63d e0c3 b93d 8806 60bd
00000020: 1c5d fc3d 86cb b83d b26c a1bd b62a d43d
00000030: d081 2abc 4890 b4bc 42d7 b23d 4089 d7bb
00000040: f2c7 8e3d 2811 683d 8419 36bd 3aeb b83d
00000050: d056 a0bd 60a6 b3bb e0b9 a6bd 3a01 be3d
00000060: 4054 54bc 00cf e03b 106e d13c c82a 61bd
00000070: 842e 3a3d 7437 39bd 20e9 f83b b217 933d
00000080: 6657 e73d e017 9abc 34e7 f9bd 90bd 14bd
00000090: 12eb dbbd c2bb be3d 98f3 acbd e2d1 a0bd
000000a0: 5093 933c 1675 c33d 30b0 553c 18f1 9b3d
000000b0: 60c6 abbd c044 6ebc 005c 8c39 d675 d53d
000000c0: 7c67 69bd 16f4 d83d b8aa 9c3d 70f3 d23c
000000d0: c83e d7bc 0485 d6bd a49d fcbd 3241 833d
000000e0: b8c2 4ebd f465 edbd 1850 f4bd 40e8 3f3c
000000f0: 78c1 20bd 84f4 bbbd 9045 7f3d a098 b7bb
00000100: d0c8 573d 18e0 183d f8e3 fabd 8003 963d
00000110: 7851 cc3d 04ce 98bd 4c2c 8abd d001 103c
00000120: b4c2 8ebd e866 ca3c 70e5 7e3c 6032 3cbd
00000130: f40a 633d 8c36 d9bd a056 acbd dc47 823d
00000140: 2824 cdbc 18f8 013d b0df 11bc 4096 af3b
00000150: 80d0 1dbd 2023 da3b 6836 d4bd 60f8 13bd
00000160: ae1f b13d 0678 ce3d 6ae2 b4bd 9441 a7bd
00000170: 043d ea3d b0a1 373d fae9 b9bd ec43 ed3d
00000180: e4ab 0d3d 9470 0b3d aa55 c1bd 0008 67bb
00000190: 8811 bbbd 5c71 b43d b048 9bbd f801 a4bd
000001a0: 7a00 f33d 6842 bebd b0cb d63d b060 1f3d
000001b0: 6471 c93d 9817 a3bd 14f0 acbd 289d ddbd
000001c0: 8027 fabd c016 ae3d b039 643c 40ad e2bd
000001d0: 08b4 4bbd e879 a83d 6251 9e3d d060 843d
000001e0: e0ed e0bb 1e2a ea3d 30ac 463d e015 323c
000001f0: 3af4 d83d 0e87 bd3d c026 c83b 9244 d8bd
00000200: 9047 c33c a0d1 c1bb 5050 f23c 20f2 8bbc
00000210: 6035 cd3b 64d7 80bd 8e54 cc3d 1035 41bc
00000220: 3614 953d a0a2 a43b b0ff 53bd 52d7 dcbd
00000230: 04dd 3abd 0425 083d 60e8 5fbc 38f6 62bd
00000240: 5881 81bd 5058 a83d 60ee b93b 406e f23b
00000250: 5262 f2bd b4cb 44bd b8c9 e53d 6018 1b3c
00000260: ac53 7cbd b880 6a3d c0fc 19bd 5817 1cbd
00000270: 682f 91bd e42a ec3d 9841 fabd 18fe 64bd
00000280: 5865 823d 0c59 d03d 149a 9abd 0cfc 033d
00000290: 7845 833c 8a20 ee3d b00d 9f3c 402a dc3b
000002a0: 1c2c a5bd c0f5 d73d 3a25 f23d 1e04 ba3d
000002b0: 0014 9cbc 2810 aabd 005d 583a 1edc f23d
000002c0: 249c f43d 7218 fc3d cad3 b33d 220e a63d
000002d0: b847 e43d 4053 fabb e07a 933d c61b ac3d
000002e0: d8d7 d43d 3898 87bd b09b dcbd 7483 d43d
000002f0: 4056 b2bd 10ec 2c3d 1075 20bc 0072 c5bb
00000300: c0c8 c53c d4b6 ed3d 9867 9bbc 5410 6fbd
00000310: 7881 acbd 8e8a 82bd a0db a43b 5834 3b3d
00000320: c00b d33b 2c9b 42bd 60db 70bc ecfc 153d
00000330: 8e7a 89bd a0af da3b 2a9e 973d 0cf4 203d
00000340: d04c dfbc c258 a5bd 9e91 85bd 5e2f f13d
00000350: 3261 e03d 066b e33d d2ea 953d 1891 08bd
00000360: c0e0 0dbc ba39 b43d 42dc 88bd 7227 fbbd
00000370: c004 d8bc 0829 8e3d 1ab8 f53d 6043 9abd
00000380: e44d a03d 36d7 92bd 3c3a 4d3d 7ccf f33d
00000390: b4d1 173d d462 263d 52d2 94bd d0ab 0a3d
000003a0: 9aea fe3d 2cf9 c4bd 684a 7cbd 4c84 98bd
000003b0: 08cd 55bd 9ce0 1ebd f8ad 143d 1a3c b53d
000003c0: 1c2b 533d 5081 463c 7ca1 cd3d d4ac 94bd
000003d0: 70e9 1b3d 28d8 a0bc e821 ed3d c44b 7b3d
000003e0: 3861 84bc acb6 55bd c039 85bb 0425 efbd
000003f0: b866 dabc 5046 e83d 8487 0b3d 8028 8abc

2.bias f4 [64]
-0.06581709 0.028683096 0.049670726 0.10719533 0.09115505 -0.06493609 0.121249825 0.06540418
0.017126054 0.012072116 -0.08099386 0.01947184 0.03470491 0.113964096 -0.038999885 0.11959691
-0.09665881 0.05749075 0.07826254 -0.07043302 -0.07237847 0.11914821 -0.0045357347 -0.10852568
0.08128248 0.09034817 0.099617705 -0.120618746 0.027002648 0.061174452 0.10880475 0.0016357303
0.06800942 -0.0020605773 -0.10157974 -0.10793869 0.033844247 0.09519702 0.10396671 -0.019028515
0.07171893 0.09302442 0.10903862 -0.10724001 0.022748813 0.06518121 -0.116484016 0.11523758
0.092341065 0.019548833 0.087608635 -0.110274464 0.05773723 -0.12024869 0.05882603 0.027945504
-0.023401842 0.05783668 -0.073237106 0.0639732 0.05066733 0.06445676 0.090317935 0.08087121
00000000: 1ccb 86bd d0f8 ea3c 8873 4b3d 3a89 db3d
00000010: 80af ba3d 36fd 84bd d451 f83d a0f2 853d
00000020: f04b 8c3c 20ca 453c 1ce0 a5bd 6883 9f3c
00000030: bc26 0e3d 0266 e93d 58be 1fbd 3aef f43d
00000040: 0ef5 c5bd 6c7b 6b3d 1c48 a03d 303f 90bd
00000050: 2a3b 94bd fa03 f43d 80a0 94bb b642 debd
00000060: 6e77 a63d 7608 b93d 5e04 cc3d f606 f7bd
00000070: a834 dd3c 1092 7a3d 06d5 de3d 0066 d63a
00000080: 8648 8b3d c00a 07bb 0a09 d0bd f60e ddbd
00000090: 44a0 0a3d a8f6 c23d 80ec d43d b0e1 9bbc
000000a0: 60e1 923d 9683 be3d a44f df3d a6a0 dbbd
000000b0: b85b ba3c ba7d 853d 2c8f eebd ae01 ec3d
000000c0: 501d bd3d e024 a03c 286c b33d 94d7 e1bd
000000d0: e07d 6c3d f244 f6bd 90f3 703d f8ed e43c
000000e0: 38b5 bfbc 28e6 6c3d 56fd 95bd 6204 833d
000000f0: 8c88 4f3d e801 843d 9cf8 b83d ce9f a53d

4.weight f4 [1, 64]
-0.112973616 -0.048615366 0.09969926 0.021522075 0.06187235 -0.10062438 0.0708452 0.017327577
-0.022783682 -0.09519939 0.11161955 0.005366862 0.09455742 0.06403527 0.0032120943 -0.102840796
0.058090582 0.0045341104 0.06519997 0.021230698 0.057508543 0.051747277 -0.06139925 0.00026671588
-0.10933508 -0.06584118 0.04445386 -0.0641664 0.028686047 -0.10646795 -0.05695592 -0.06975788
-0.11715028 0.11839101 0.11004789 -0.11270267 -0.06866281 -0.068061516 -0.089709535 -0.11267725
-0.016376555 -0.08605757 0.04416959 -0.03241779 0.0041570663 -0.03939542 -0.11768988 -0.039732903
-0.09356563 0.07892905 0.03157921 0.050165102 -0.072328344 0.11625548 0.08533633 0.054999366
0.03689927 0.009498537 0.07759777 -0.032907233 -0.050456792 0.043029785 0.032920077 0.013762385
00000000: b65e e7bd e820 47bd 202f cc3d 104f b03c
00000010: dc6d 7d3d 2814 cebd 4a17 913d 90f2 8d3c
00000020: d8a4 babc e6f7 c2bd ca98 e43d 80dc af3b
00000030: 52a7 c13d ec24 833d 0082 523b 329e d2bd
00000040: 64f0 6d3d e092 943b 9087 853d 00ec ad3c
00000050: 148e 6b3d f4f4 533d c87d 7bbd 00d6 8b39
00000060: 12eb dfbd bed7 86bd 4015 363d ac69 83bd
00000070: 00ff ea3c de0b dabd 9c4a 69bd 38dd 8ebd
00000080: 7cec efbd fc76 f23d ca60 e13d a8d0 e6bd
00000090: 169f 8cbd d663 8bbd a2b9 b7bd 54c3 e6bd
000000a0: 2028 86bc f43e b0bd 2ceb 343d 84c8 04bd
000000b0: 0038 883b 185d 21bd 6407 f1bd f8be 22bd
000000c0: 569f bfbd 8ea5 a13d 3459 013d ec79 4d3d
000000d0: e220 94bd 5a17 ee3d d0c4 ae3d 0447 613d
000000e0: b023 173d c09f 1b3c 94eb 9e3d bcc9 06bd
000000f0: c8ab 4ebd 0040 303d 34d7 063d a07b 613c
