4_PolicePPO_ThiefPPO_rl/models/police_ppo.pth (torch, 42466 bytes, 11 tensors)

0.weight f4 [64, 4]
0	0xbe5b2ff6	-0.21405014
1	0xbd5b0d04	-0.05347921
2	0xbf06a335	-0.52592784
3	0x3d325456	0.04353746
4	0x3ea5a94f	0.32355735
5	0x3e71a8ec	0.23599595
6	0xbea03251	-0.31288388
7	0x3e00964c	0.12557334
8	0xbe263fda	-0.16235295
9	0xbe363aac	-0.17795819
10	0x3f1985ba	0.59969676
11	0x3db66592	0.08906092
12	0xbd96893b	-0.073503934
13	0xbd8f817f	-0.07007121
14	0xbd1b7c2b	-0.037960213
15	0xbc8e7631	-0.017390342
16	0x3c25a83c	0.010110911
17	0xbe880596	-0.26566762
18	0xbf29cdfc	-0.6632993
19	0x3d1487fe	0.036262505
20	0xbd9e6692	-0.077344075
21	0xbd6057bb	-0.054771166
22	0x3e01e588	0.12685215
23	0x3da83fa3	0.08215263
24	0x3d71f328	0.059069782
25	0xbe4e5071	-0.20147873
26	0x3e68c68b	0.22731988
27	0x3e4f3e3a	0.20238581
28	0xbd8217a4	-0.06352165
29	0x3e8ecfac	0.27892816
30	0xbee5f99a	-0.44916993
31	0x3d0c80ea	0.03430263
32	0x3d42fcb3	0.047604274
33	0xbd7ab83c	-0.061210856
34	0x3e8db003	0.2767335
35	0x3e3b349f	0.18281792
36	0xbdb9001a	-0.090332225
37	0x3eee9f4b	0.46605906
38	0xbc6759a5	-0.014120494
39	0xbd3a677d	-0.04550885
40	0xbe37eb10	-0.17960763
41	0x3c9cdd9c	0.01914864
42	0xbd9190d6	-0.071077034
43	0x3d3e0a30	0.046396434
44	0x3e8bb51b	0.2728661
45	0xbc42ffb3	-0.011901784
46	0xbdc19afa	-0.094533876
47	0xbc8c5aab	-0.017133078
48	0x3ceb79a9	0.028744536
49	0xbe7e770f	-0.24850105
50	0x3eb9fe2c	0.3632673
51	0xbdde65fc	-0.10859296
52	0xbeafcf7d	-0.34337988
53	0x3e9b0734	0.30278933
54	0xbd9e65e3	-0.07734277
55	0x3d38dfae	0.045135193
56	0xbe37129a	-0.1787819
57	0x3df1bfc3	0.11804154
58	0xbcb1a579	-0.021685349
59	0xbd8a6483	-0.06757452
60	0x3e8e4fe5	0.2779533
61	0xbe0dfb27	-0.13865338
62	0x3e7e23db	0.24818365
63	0xbe130e69	-0.14360966
64	0x3e4f2189	0.20227636
65	0xbe56fd71	-0.20995118
66	0xbe6de252	-0.23230866
67	0xbd3ea1ac	-0.0465409
68	0xbdd93b55	-0.1060702
69	0xbd2a37d0	-0.041557133
70	0x3e73cbac	0.23808163
71	0xbd9890b8	-0.07449478
72	0x3d255472	0.040363736
73	0xbda330ee	-0.07968317
74	0x3dacba4e	0.08433972
75	0x3e025597	0.12727962
76	0xbe1c7d82	-0.15282252
77	0xbca1380f	-0.019680051
78	0xbe52e758	-0.20596063
79	0x3dfcc722	0.12342669
80	0xbe03ed37	-0.12883459
81	0x3df681d8	0.120364845
82	0xbeb6f1d0	-0.35731363
83	0x3d70f949	0.058831487
84	0x3d28b05d	0.041183818
85	0xbe84ce49	-0.25938633
86	0x3e46dd07	0.19420253
87	0xbe998a0d	-0.29988137
88	0xbdf34004	-0.118774444
89	0xbee2131c	-0.44155204
90	0x3e0a3445	0.13496502
91	0x3e477aa0	0.19480371
92	0xbe1c98b0	-0.1529262
93	0xbd997ada	-0.07494135
94	0xbd22312d	-0.03959768
95	0x3e8fb293	0.2806593
96	0x3da100fc	0.07861516
97	0x3d384445	0.044986982
98	0xbd68a170	-0.056794584
99	0x3e3e84b8	0.18605316
100	0x3ee16f29	0.4403012
101	0xbe818755	-0.25298563
102	0xbe472ef1	-0.194515
103	0xbeea8992	-0.45808083
104	0x3e425eeb	0.18981521
105	0x3de9f596	0.11423795
106	0xba2fcdc4	-0.00067063817
107	0xbdc56205	-0.09637836
108	0x3cfc561e	0.030802783
109	0xbe9dcd95	-0.3082091
110	0x3d246780	0.040137768
111	0x3eb3594d	0.3502907
112	0xbe2783c5	-0.1635886
113	0xbe7a8703	-0.24465565
114	0xbe54fb7a	-0.20799056
115	0x3e19613f	0.14978503
116	0xbe283ab6	-0.16428646
117	0xbcb8abe9	-0.02254291
118	0x3e8f6c17	0.28012154
119	0xbbc195a9	-0.0059077335
120	0xbe641eaf	-0.2227733
121	0x3e0bcac4	0.13651568
122	0x3e0e8e8e	0.13921568
123	0x3e3da414	0.18519622
124	0x3d841f70	0.06451309
125	0xbdf0c610	-0.117565274
126	0x3eb709ae	0.35749573
127	0xbe24c8ab	-0.16092174
128	0x3df01413	0.11722579
129	0xbe4e2b8d	-0.20133801
130	0xbe41e24a	-0.18933979
131	0xbe66788b	-0.22506921
132	0x3e9beaab	0.30452475
133	0xbdc548ff	-0.096330635
134	0xbdb17951	-0.086657174
135	0xbe2621d2	-0.16223839
136	0x3de15414	0.11002365
137	0xbd9d0ee0	-0.07668853
138	0xbe9bbdd5	-0.30418268
139	0xbe87704c	-0.26452863
140	0xbe1a2346	-0.15052518
141	0x3e53973a	0.20663157
142	0x3ed79477	0.42105457
143	0x3dace8dd	0.08442853
144	0xbcf68843	-0.030094272
145	0xbe8a4dd0	-0.2701249
146	0xbc2c7844	-0.01052672
147	0xbea65c8b	-0.3249248
148	0xbe9396de	-0.2882604
149	0xbce711a4	-0.028206654
150	0xbe144679	-0.14480008
151	0x3e45180a	0.19247451
152	0xbc9898a4	-0.018627472
153	0x3e049662	0.12947991
154	0xbe0d2129	-0.13782181
155	0x3e1ae094	0.15124732
156	0x3db62478	0.088936746
157	0xbd754f9d	-0.05989038
158	0xbe954d66	-0.29160613
159	0xbe171288	-0.14753163
160	0xbe9c4d68	-0.30527806
161	0x3c60f923	0.013731274
162	0xbe38d0b6	-0.18048367
163	0x3e84bff7	0.25927708
164	0x3e2d8915	0.16946824
165	0x3e779012	0.24176052
166	0x3efa751e	0.48917478
167	0xbd16aa64	-0.03678359
168	0x3ec0b853	0.37640628
169	0xbdf5e25b	-0.120060645
170	0x3f17c448	0.59283876
171	0xbe512370	-0.20423675
172	0x3f0e6f9b	0.55639046
173	0x3ebf8639	0.3740709
174	0xbebd9efd	-0.3703536
175	0xbe261b72	-0.16221407
176	0x3d7dd326	0.061968945
177	0xbbde8f74	-0.0067920033
178	0xbf2c2672	-0.6724616
179	0xbd14a9e6	-0.03629484
180	0xbde45517	-0.11149042
181	0xbee2d44a	-0.4430259
182	0x3eb5b54b	0.35489878
183	0x3ebd87ff	0.3701782
184	0x3e62f25e	0.22162768
185	0x3e94a0e6	0.29029006
186	0xbee3f807	-0.44525167
187	0x3e058cbd	0.13041969
188	0x3db478e5	0.08812121
189	0xbd37ae25	-0.04484381
190	0xbe97b55f	-0.29630563
191	0xbe4127a5	-0.1886278
192	0x3e1b2c0c	0.15153521
193	0xbe23d5e5	-0.15999563
194	0xbe994381	-0.29934314
195	0xbec2b013	-0.3802496
196	0x3dba65cb	0.09101447
197	0x3e30aac3	0.1725264
198	0xbed6c8bf	-0.41950032
199	0xbe5c44ad	-0.21510573
200	0xbdadf4ba	-0.084939435
201	0x3e7f2e87	0.24920093
202	0xbe2b17b0	-0.16708255
203	0xbb4d7759	-0.0031351654
204	0x3d81909a	0.06326409
205	0x3b382a77	0.0028101483
206	0xbdac44c9	-0.08411557
207	0xbe2f68db	-0.17129843
208	0xbee0c868	-0.43902898
209	0x3e9ead02	0.3099137
210	0xbeff2584	-0.4983331
211	0x3e9abc58	0.3022182
212	0xbc894104	-0.016754635
213	0xbe97f031	-0.2967544
214	0x3e98bbf2	0.2983089
215	0x3e27bbda	0.16380253
216	0xbe01a96f	-0.1266229
217	0x3e5bd89d	0.2146935
218	0x3dbfe028	0.09368926
219	0xbed170d0	-0.40906382
220	0x3e2b7f3d	0.16747756
221	0xbe8cc60f	-0.27494857
222	0x3dcc0a30	0.099628806
223	0xbdbb400b	-0.091430746
224	0x3eb1b80f	0.34710738
225	0x3e890d31	0.26767877
226	0x3ed21d50	0.4103799
227	0xbe4a5463	-0.19758753
228	0x3ce72b27	0.028218819
229	0xbdaee39e	-0.08539508
230	0xbea14bfc	-0.31503284
231	0xbe88f5e0	-0.26750088
232	0x3d35a8cf	0.04435044
233	0x3e5e0b3e	0.21683976
234	0xbf1ce2ff	-0.6128387
235	0x3d275a05	0.040857334
236	0x3ea1261d	0.3147439
237	0xbe5064d0	-0.20350957
238	0x3d9f2a9b	0.07771798
239	0xbd15cf54	-0.036574677
240	0x3eb8eb27	0.36116907
241	0xbe7ac040	-0.244874
242	0x3de18b08	0.11012846
243	0xbdcc2ce6	-0.09969501
244	0x3db50f5c	0.0884082
245	0xbd97d72c	-0.07414088
246	0xbdb85f5a	-0.09002562
247	0xbdc77b49	-0.09740312
248	0x3c24b029	0.0100517655
249	0xbe9e8839	-0.30963305
250	0x3ea7cf85	0.32775512
251	0x3c22ab92	0.009928601
252	0xbe8a9048	-0.27063203
253	0x3e067c5e	0.1313338
254	0x3d747921	0.05968583
255	0x3eb8fdbd	0.36131087

0.bias f4 [64]
0	0x3e3469d8	0.17618501
1	0xbe7416f3	-0.2383688
2	0xbe0add3e	-0.1356096
3	0x3e2ff32b	0.17182605
4	0x3eaf7819	0.34271315
5	0xbe3d348e	-0.1847708
6	0xbea36755	-0.31914774
7	0x3de41534	0.11136857
8	0xbeb6f095	-0.35730425
9	0xbe01116e	-0.12604305
10	0x3dc1cb01	0.09462548
11	0xbd99c8af	-0.075089805
12	0xbd925f72	-0.07147111
13	0x3e110f7f	0.14166068
14	0x3d94cea5	0.07265977
15	0xbe201edb	-0.1563677
16	0x3db278c2	0.08714439
17	0xbcd3ed55	-0.025870005
18	0xbd8b87f8	-0.06813043
19	0x3e07b8b9	0.1325406
20	0x3e3c8cbb	0.1841306
21	0x3e72a88f	0.23697113
22	0x3d855da6	0.06512003
23	0xbe257883	-0.16159253
24	0xbe6c8f5e	-0.23101565
25	0x3e8c3620	0.27385044
26	0xbdd2c2f0	-0.102910876
27	0xbe5fd522	-0.21858647
28	0x3e730d11	0.23735453
29	0xbe4e60c0	-0.20154095
30	0xbdf730df	-0.12069868
31	0xbd0bdb0e	-0.034144454
32	0x3edc124b	0.42982706
33	0x3cb27e93	0.02178887
34	0x3ec9c15d	0.39405337
35	0xbe7b7ad9	-0.24558581
36	0x3ef65819	0.48114088
37	0x3d8acfb1	0.06777895
38	0xbe22a6ea	-0.15883985
39	0x3ea31976	0.31855363
40	0x3cbd9519	0.023142384
41	0xbed9f388	-0.42568612
42	0xbe304580	-0.17214012
43	0xbe4a5243	-0.19757943
44	0x3e64d2e8	0.2234608
45	0xbe0157e5	-0.12631185
46	0xbe7299ae	-0.23691437
47	0x3e9556d5	0.2916781
48	0x3ea77d57	0.32712814
49	0x3deeb29a	0.11655159
50	0x3d651aea	0.05593387
51	0x3de5c465	0.112191
52	0xbbbdb8b3	-0.00578984
53	0xbe58407c	-0.21118349
54	0x3e974fb0	0.29552984
55	0x3d52079f	0.0512768
56	0xbe7ef44d	-0.24897881
57	0x3eeb8403	0.45999154
58	0xbd18e2d8	-0.03732571
59	0xbe02acae	-0.12761185
60	0xbde639d5	-0.11241499
61	0x3e8e00b4	0.2773491
62	0xbddbc4ea	-0.10730918
63	0xbe40721f	-0.18793534

2.weight f4 [64, 64]
0	0x3e06a8d1	0.13150336
1	0x3d8717c8	0.06596333
2	0x3c3df161	0.011593194
3	0xbda1dcea	-0.07903464
4	0xbe4b28f1	-0.19839837
5	0x3ddefc19	0.108879276
6	0xbdca2df9	-0.0987205
7	0x3be78875	0.0070658275
8	0xbdb95ede	-0.090512976
9	0xbdcadaab	-0.09904989
10	0xbdffd543	-0.12491848
11	0x3e1a3a00	0.15061188
12	0x3e75b7cf	0.23995899
13	0x3d220bb5	0.039561946
14	0xbdef3e93	-0.11681857
15	0x3d7ae644	0.061254755
16	0x3e0994d1	0.13435675
17	0x3dabe4f6	0.0839328
18	0x3e72e202	0.23719028
19	0xbc6d7898	-0.014494084
20	0xbb5e3268	-0.0033904556
21	0x3d8355f4	0.06412879
22	0xbdde67a9	-0.10859615
23	0xbcfa6ccb	-0.030569455
24	0x3ddfe908	0.10933119
25	0x3e5d01fd	0.2158279
26	0x3d1e6b5a	0.038676597
27	0xbd51464a	-0.051092423
28	0xbe2194ce	-0.1577942
29	0x3d6cef28	0.057845265
30	0xbe4d2202	-0.20032504
31	0x3c5763e2	0.0131463725
32	0x3d9e05f1	0.07715977
33	0x3e6463b6	0.22303662
34	0x3e1f2d5b	0.15544645
35	0x3d02a7e0	0.03189838
36	0x3dac0d12	0.084009305
37	0xbe18a884	-0.14908034
38	0xbe37f44f	-0.1796429
39	0xbe234c91	-0.15947177
40	0xbe29c5ef	-0.16579412
41	0x3e099dac	0.13439053
42	0xbd7ff03e	-0.062484972
43	0x3e761774	0.24032384
44	0x3e2604ba	0.1621274
45	0xbe6e6349	-0.23280062
46	0x3e6f7662	0.23385003
47	0xbcea6af0	-0.028615445
48	0x3e20eafd	0.15714641
49	0x3dece260	0.11566615
50	0x3c240e32	0.01001315
51	0x3d9a29d7	0.075275116
52	0xbc88dede	-0.016707834
53	0xbe39cb60	-0.18143988
54	0xbdb00cc2	-0.08596183
55	0x3e812a05	0.2522737
56	0x3dd9c1e3	0.10632684
57	0x3d1ef92f	0.03881186
58	0x3e5d3e9d	0.21605916
59	0x3d1f6561	0.03891504
60	0x3d74b81a	0.059745885
61	0xbbe1873c	-0.0068825763
62	0xbd6cb0fd	-0.057785977
63	0xbe0d9993	-0.13828115
64	0x3d583971	0.052789155
65	0xbd331be6	-0.043727778
66	0xbd32ac87	-0.043621566
67	0xbd3d7bd2	-0.046260662
68	0xbdeb794e	-0.114977464
69	0x3d16e729	0.036841545
70	0x3b77827a	0.003776698
71	0x3c57a39f	0.013161569
72	0x3c816ba5	0.0157984
73	0x3dc0366c	0.0938538
74	0xbbd6cfe4	-0.006555544
75	0xbd967f04	-0.07348445
76	0x3d6d52d1	0.057940308
77	0xbc00cc2d	-0.007861179
78	0x3bc47f5d	0.005996628
79	0x3dc79fe3	0.09747293
80	0xbd19200c	-0.037384078
81	0xbd0190ea	-0.03163234
82	0xbd832a7c	-0.064045876
83	0xbdb357a5	-0.08756951
84	0xbe018717	-0.12649189
85	0x3d6029fe	0.054727547
86	0xbd88c971	-0.06679047
87	0x3e63ec6d	0.22258158
88	0x3de4b4b1	0.11167277
89	0xbd4dc80e	-0.050239615
90	0xbde234fc	-0.11045262
91	0x3e4d0848	0.2002269
92	0x3d1476da	0.03624616
93	0x3d737196	0.059434496
94	0xbdb491ea	-0.088168934
95	0x3c62e997	0.0138496375
96	0xbc86ada0	-0.016440213
97	0xbdc9762e	-0.09836994
98	0x3c940049	0.018066542
99	0x3e0d54dc	0.13801903
100	0xbe170476	-0.14747795
101	0x3e3cf51c	0.18452877
102	0x3d79b8fa	0.060967423
103	0xbcd19e48	-0.02558817
104	0x3dbfa405	0.09357456
105	0x3e1440e0	0.14477873
106	0xbe0364aa	-0.12831369
107	0x3d98abe6	0.07454662
108	0xbd56b02d	-0.052414108
109	0xbe189bc4	-0.1490317
110	0x3d5798c1	0.05263591
111	0x3df57a9f	0.11986279
112	0xbd8a8d82	-0.06765272
113	0x3df94472	0.12171258
114	0xbdf88731	-0.12135161
115	0x3d7a2a58	0.06107554
116	0x3d8b4adc	0.06801388
117	0x3e2e1c9c	0.17003101
118	0xbe3d137c	-0.18464464
119	0x3d28a4ff	0.041172978
120	0x3db9fb4e	0.09081136
121	0xbe2bf01b	-0.16790812
122	0x3e10e08f	0.14148162
123	0xbd80dd50	-0.06292212
124	0xbd4d9072	-0.050186582
125	0xbe32566e	-0.17415783
126	0xbd102eeb	-0.035200994
127	0xbd10e503	-0.035374653
128	0xbdbde98d	-0.09273062
129	0xbd64e3be	-0.055881254
130	0xbdd2ef7e	-0.10299586
131	0x3d8cf640	0.06882906
132	0xbd02c2a2	-0.031923898
133	0x3d922f26	0.07137899
134	0x3d21e2a2	0.039522775
135	0x3d6bf6bb	0.057608347
136	0xbd96b127	-0.07358008
137	0xbdc947b1	-0.09828127
138	0xbcc8d162	-0.024513904
139	0xbd2ef1ed	-0.042711187
140	0xbd8e175f	-0.069380514
141	0xbdbbf643	-0.0917783
142	0xbda7620d	-0.081729986
143	0xbda95fa7	-0.08270197
144	0x3c808166	0.015686702
145	0x3e1885a2	0.14894727
146	0xbbfeffff	-0.007781982
147	0x3d44d0e0	0.04805076
148	0x3dcb25c2	0.09919311
149	0x3de5b304	0.11215785
150	0x3d8d91f4	0.06912604
151	0x3e00c328	0.12574446
152	0xbdabedc9	-0.08394963
153	0xbcc82235	-0.024430374
154	0xbdca821f	-0.098881
155	0x3c0d3348	0.008618183
156	0x3e508242	0.2036219
157	0x3ddf8b54	0.109152466
158	0xbc71c328	-0.0147560015
159	0x3d4bb923	0.049737107
160	0x3d6fcc1d	0.058544267
161	0xbdc34ade	-0.09535764
162	0xbd6091a0	-0.05482638
163	0x3d624f06	0.055251144
164	0x3e1e1aa2	0.15439847
165	0xbdb5e883	-0.08882239
166	0x3cac65db	0.021044662
167	0xbd729371	-0.059222642
168	0xbd72535f	-0.05916154
169	0xbc1e8966	-0.009676313
170	0xbd08d4ab	-0.03340594
171	0xbcd96e7a	-0.026541937
172	0xbdaed134	-0.08535996
173	0xba5eb481	-0.0008495525
174	0xbd80ec5b	-0.06295081
175	0x3dc31678	0.0952577
176	0xbe06f277	-0.1317843
177	0x3d86037d	0.06543634
178	0xbe3f82d8	-0.18702257
179	0xbd8f33ae	-0.06992279
180	0xbd4c2ced	-0.049847532
181	0xbd21329a	-0.039354898
182	0x3bc84b6e	0.0061125075
183	0x3d2616a9	0.040548954
184	0xbe198e4f	-0.14995693
185	0xbd88da7a	-0.06682296
186	0xbde2bfd8	-0.110717475
187	0xbd355adc	-0.044276103
188	0xbc2a5e34	-0.010398436
189	0x3e5f5e85	0.218134
190	0x3dfbdd9f	0.1229813
191	0xbdb005df	-0.0859487
192	0xbdd76322	-0.10516955
193	0x3e80bfa7	0.2514622
194	0xbdbbcc7b	-0.09169861
195	0xbdeba985	-0.11506943
196	0x3d20d6bc	0.039267287
197	0x3dddd0ec	0.10830864
198	0x3d20ae62	0.039228804
199	0x3ca5647d	0.020189518
200	0x3e030721	0.12795688
201	0xbd2ce817	-0.042213526
202	0xbdf78966	-0.120867535
203	0x3e3e5da4	0.18590409
204	0x3e4d26d2	0.2003434
205	0x3e0e6f8c	0.1390974
206	0xbddcec81	-0.10787297
207	0xbbdd423f	-0.006752282
208	0x3e05c2ff	0.13062666
209	0xbe189cf2	-0.1490362
210	0x3e2323b7	0.15931593
211	0x3d9b4be1	0.07582832
212	0xbd690f96	-0.05689963
213	0xbcd9d15c	-0.026589088
214	0x3d9c9a7e	0.076466545
215	0xbdd54b53	-0.104147576
216	0x3e340078	0.17578304
217	0x3d1d58df	0.038414832
218	0x3c1fd02e	0.009754224
219	0x3dfeecdf	0.12447523
220	0xbd5f6356	-0.054538094
221	0x3d025d16	0.031827055
222	0x3d67efd3	0.0566252
223	0x3cc7bbab	0.02438148
224	0xbe1d8a23	-0.15384726
225	0x3da60759	0.0810687
226	0xbd3cfbb0	-0.046138465
227	0xbe0e34a9	-0.13887276
228	0xbd7807e1	-0.06055439
229	0xbd894a64	-0.06703642
230	0x3ca22206	0.019791614
231	0xbe0031be	-0.12518975
232	0xbdcd2dc6	-0.10018496
233	0xbda93427	-0.082619004
234	0xbd73f3f2	-0.059558816
235	0x3e70eb2e	0.23527214
236	0xbd1e9f28	-0.038726002
237	0x3d16712a	0.036729015
238	0x3d5f564e	0.054525666
239	0xbe25276b	-0.16128318
240	0x3dea1a73	0.11430826
241	0x3c965672	0.018351767
242	0xbe5d4049	-0.21606554
243	0xbd7a4b93	-0.06110723
244	0x3e272718	0.16323507
245	0x3e760fb3	0.24029426
246	0x3d04ab8b	0.03239016
247	0x3e469f79	0.19396771
248	0x3de78b8d	0.11305914
249	0xbe24dd8e	-0.16100141
250	0xbd83c18a	-0.06433399
251	0x3c929214	0.017891921
252	0xbd0a291b	-0.033730607
253	0xbd8e1294	-0.06937137
254	0xbceee2ba	-0.029160846
255	0xbcc810ef	-0.024422137

2.bias f4 [64]
0	0xbd9596d8	-0.07304162
1	0x3d4285e7	0.04749098
2	0x3d1dba00	0.03850746
3	0x3e1e5a40	0.15464115
4	0xbdd8bb4a	-0.105825976
5	0xbd8ec5cf	-0.06971323
6	0x3d1dd950	0.038537323
7	0x3bbd864e	0.0057838326
8	0x3be85f5f	0.0070914472
9	0xbd631b9d	-0.055446256
10	0x3e376876	0.17910942
11	0x3c344890	0.011003628
12	0xbc131933	-0.008978176
13	0xbdc85697	-0.09782141
14	0x3e0eea3b	0.1395654
15	0xbb59e538	-0.0033248197
16	0xbc08702f	-0.008327528
17	0xbe00374e	-0.12521097
18	0xbd9c9303	-0.07645228
19	0xbdd1e3db	-0.10248538
20	0x3d93bb5a	0.07213469
21	0xbd05ba60	-0.032648444
22	0x3d1ed05e	0.038772933
23	0x3dba83de	0.09107183
24	0xbd942196	-0.072329685
25	0xbd49ae2a	-0.04923836
26	0xbd6bd37d	-0.057574738
27	0x3dc6c76b	0.09706005
28	0x3c9eab7d	0.019368881
29	0x3d4094df	0.047016975
30	0x3dc2e066	0.09515457
31	0xbdbdf29d	-0.092747904
32	0xbd9763d3	-0.07392087
33	0xbdbfb69f	-0.09361004
34	0x3da63245	0.08115057
35	0x3d2f7330	0.04283446
36	0x3dee122e	0.11624561
37	0x3d43b248	0.047777444
38	0x3de045c4	0.10950807
39	0xbc17ce7c	-0.009265538
40	0x3e1b3228	0.15155852
41	0xbd48f57c	-0.049062237
42	0x3d5dd6db	0.05415998
43	0xbbe45627	-0.006968278
44	0x3da1a467	0.078926854
45	0x3d28af3b	0.041182738
46	0x3d739b5a	0.059474327
47	0xbbededfb	-0.0072610355
48	0x3bf66e72	0.0075204903
49	0x3d7c10cf	0.061539467
50	0x3df2825a	0.11841269
51	0xbd1cd401	-0.03828812
52	0x3d05601d	0.032562364
53	0x3e3dff1b	0.18554346
54	0xbcbe0231	-0.023194404
55	0xbe3c12b1	-0.18366505
56	0xbdd3c3ff	-0.10340118
57	0xbd8d3abb	-0.068959676
58	0xbc9f1950	-0.01942125
59	0x3d0617f2	0.03273768
60	0xbb63ded2	-0.0034770262
61	0xbdbe4200	-0.09289932
62	0x3d1076f0	0.035269678
63	0x3d81832a	0.06323846

4.weight f4 [8, 64]
0	0x3de24fdb	0.110503875
1	0x3e45f5c6	0.19332036
2	0xbcebf140	-0.02880156
3	0x3db08ca1	0.08620573
4	0xbc8876b8	-0.016658172
5	0xbdc1eaba	-0.09468599
6	0xbc5d2178	-0.013496749
7	0x3cfc86bb	0.030825963
8	0xbc4fa9f4	-0.012674797
9	0xbc892c96	-0.016744893
10	0x3e2c5fcc	0.16833419
11	0x3b65b5b2	0.0035050926
12	0xbde30ccc	-0.11086425
13	0xbe2cd7fe	-0.1687927
14	0x3ec3259d	0.38114634
15	0x3d4302ea	0.0476102
16	0xbcc5b871	-0.0241358
17	0xbe684761	-0.22683479
18	0xbc1cf782	-0.009580495
19	0xbe363e81	-0.17797281
20	0x3c3b13cf	0.011418297
21	0x3db86f3b	0.090055905
22	0x3e43ecc8	0.19133294
23	0x3bcf151d	0.0063196556
24	0x3d0d59c2	0.034509428
25	0xbe84a8a1	-0.25909904
26	0xbe320784	-0.1738568
27	0x3e35dc32	0.17759779
28	0x3deed44f	0.116615884
29	0x3e26a194	0.16272575
30	0x3d9653f0	0.073402286
31	0xbe2546ca	-0.16140285
32	0xbe18c5f0	-0.14919257
33	0xbd4d339c	-0.050098047
34	0x3e2f5f47	0.17126189
35	0xbd8b5869	-0.06803972
36	0x3da34492	0.07972063
37	0x3da518be	0.0806136
38	0x3e0c2989	0.1368772
39	0x3dda4e9c	0.10659525
40	0x3e589e9c	0.21154255
41	0xbd6edfe5	-0.05831899
42	0x3df7e4b7	0.12104171
43	0xbcb7944e	-0.022409584
44	0x3dc64690	0.096814275
45	0xbcde062b	-0.02710255
46	0x3dd040b3	0.101685904
47	0x3d7f76b4	0.062369063
48	0xbc0e71c8	-0.00869412
49	0xbd69e41d	-0.05710231
50	0x3e34fc6a	0.17674413
51	0xbd8e448e	-0.069466695
52	0x3d8ab423	0.067726396
53	0x3e176352	0.14783981
54	0xbe4dd52b	-0.20100848
55	0xbe56ddae	-0.20983002
56	0xbe8984c9	-0.2685912
57	0xbe478bc4	-0.1948691
58	0xbd85feb3	-0.06542721
59	0x3df9a29c	0.121892184
60	0xbc993b4c	-0.018705033
61	0x3d5778b7	0.052605357
62	0xbd54f565	-0.05199184
63	0x3da72e8a	0.081631735
64	0x3e209b35	0.15684207
65	0x3d81ca3d	0.06337402
66	0x3e288c73	0.16459827
67	0x3e0784a0	0.13234186
68	0xbe0ad11b	-0.1355633
69	0xbe10d72a	-0.14144579
70	0x3d01f393	0.03172643
71	0x3ded69ff	0.11592483
72	0xbb57ca26	-0.0032926886
73	0x3d95aab1	0.073079474
74	0x3e70c079	0.23510922
75	0xbdb376f9	-0.087629266
76	0x3d5d30d1	0.054001633
77	0x3d985701	0.0743847
78	0x3e1f5ead	0.1556346
79	0x3db61c1b	0.088920794
80	0x3d0459c5	0.032312173
81	0xbe2ce6b2	-0.16884878
82	0xbe1b383a	-0.15158167
83	0xbced17b0	-0.02894196
84	0x3da980dc	0.08276531
85	0x3dd09e80	0.101864815
86	0x3dfa5af0	0.12224376
87	0x3e008b42	0.12553123
88	0x3da2fb09	0.079580374
89	0xbe02a069	-0.12756504
90	0xbe39d9fb	-0.18149559
91	0xbd27764a	-0.040884294
92	0x3d9f897a	0.077898934
93	0x3e55d5f3	0.20882396
94	0xbd8c3bc2	-0.068473354
95	0xbe02aac3	-0.12760453
96	0xbddf9271	-0.10916603
97	0x3c4735a9	0.01215879
98	0x3e7a7318	0.24457967
99	0xbcb2c0de	-0.021820482
100	0xbdec0c76	-0.11525814
101	0x3de67d22	0.11254336
102	0x3e348f8c	0.17632884
103	0xbd15b97c	-0.036553845
104	0x3e11bb99	0.14231719
105	0x3d9469ee	0.07246767
106	0x3e88567e	0.26628488
107	0xbe429cc2	-0.19005111
108	0x3e15ca63	0.14627986
109	0xbd055718	-0.032553762
110	0x3dc94922	0.09828402
111	0x3d7c2b80	0.061564922
112	0x3d338d53	0.04383595
113	0xbd891a5f	-0.06694483
114	0x3e245b1a	0.16050377
115	0xbcc62950	-0.024189621
116	0xbd3da7a6	-0.04630246
117	0x3e29fbcd	0.1659996
118	0xbe07b515	-0.13252671
119	0xbe36884a	-0.17825428
120	0xbe0f2901	-0.13980485
121	0x3c2651d3	0.010151344
122	0xbdc2bb87	-0.09508424
123	0x3d129cee	0.03579419
124	0xbd8f99f7	-0.07011788
125	0xbc699160	-0.0142558515
126	0xbdca8e03	-0.09890368
127	0x3dba0e71	0.09084786
128	0x3d8478ba	0.06468339
129	0x3cd8bbe2	0.026456777
130	0x3d880c8a	0.06643017
131	0x3e02e504	0.12782675
132	0xbd8cd60b	-0.06876763
133	0xbda2990a	-0.07939346
134	0xbe274a2e	-0.16336891
135	0xbd1d651d	-0.038426507
136	0x3d9ef7a0	0.077620745
137	0xbb3f63f2	-0.002920386
138	0x3e1d98a5	0.1539026
139	0xbd4c68b6	-0.049904548
140	0xbc817a59	-0.01580541
141	0xbcae534d	-0.021279955
142	0x3e676900	0.22598648
143	0x3d9f405c	0.077759475
144	0x3e1e623d	0.15467162
145	0xbcb04a77	-0.021519883
146	0xbd44078a	-0.047858752
147	0xbcb5a51d	-0.022173459
148	0x3dcdb850	0.100449204
149	0xbca942ba	-0.0206617
150	0x3db3f160	0.08786273
151	0x3dc521de	0.096256
152	0xbd5a0586	-0.053227924
153	0xbdf483f9	-0.11939234
154	0xbe2e2abb	-0.17008488
155	0x3d303344	0.04301764
156	0xbe19044b	-0.14943044
157	0x3e323fe9	0.17407192
158	0xbe1d23dc	-0.1534571
159	0xbdeb3e40	-0.114864826
160	0xbdca9c9c	-0.09893152
161	0x3dce98c2	0.1008773
162	0x3e2bcc90	0.16777253
163	0xbd91214e	-0.070864305
164	0x3d04bf61	0.032409076
165	0xbd6706dc	-0.056403026
166	0x3c91c1bb	0.017792573
167	0x3dab11ff	0.08353042
168	0x3cdf3a26	0.027249407
169	0xbdc9eed2	-0.098600045
170	0x3e5d7125	0.21625192
171	0xbe31fc6e	-0.1738145
172	0x3dc087e3	0.09400918
173	0x3da14453	0.0787436
174	0x3e0c4350	0.13697553
175	0x3d933069	0.07186968
176	0xbaa992d3	-0.0012937434
177	0xbe64ac30	-0.2233131
178	0x3e765e35	0.24059375
179	0xbe828d07	-0.2549822
180	0x3d7c7dde	0.061643474
181	0x3e172bde	0.14762828
182	0xbe76fa7e	-0.24118993
183	0xbe308446	-0.17237958
184	0xbe8a0c43	-0.2696248
185	0x3aafbf2a	0.0013408412
186	0x3e001d33	0.12511139
187	0x3dbd67d3	0.092483185
188	0xbe541bca	-0.20713726
189	0x3c65c264	0.014023397
190	0xbafb1f3c	-0.0019159089
191	0x3e2cff5a	0.16894284
192	0xbe12721b	-0.1430134
193	0x3d3d899d	0.046273816
194	0x3e145f57	0.14489494
195	0x3e20cdd0	0.15703511
196	0xbded681b	-0.11592122
197	0xbd242244	-0.04007174
198	0x3d3a1fc5	0.045440454
199	0x3d77c229	0.0604879
200	0xbabecd2e	-0.0014556998
201	0xbca66564	-0.020312019
202	0x3db4698d	0.08809195
203	0xbb41f2b4	-0.0029594125
204	0xbd1c27bd	-0.038123835
205	0xbe1afa01	-0.15134431
206	0x3e99759f	0.2997255
207	0xbb7d9eb4	-0.003869933
208	0x3d08d702	0.033408172
209	0xbe56ea99	-0.2098793
210	0x3da982e3	0.08276918
211	0xbdd1cd88	-0.1024428
212	0x3e5424e3	0.20717196
213	0xbcbb4c27	-0.02286346
214	0x3db0d1ee	0.08633791
215	0x3e13812c	0.14404744
216	0x3d6c9076	0.057754956
217	0xbe07541f	-0.13215683
218	0xbe00eae1	-0.12589599
219	0x3daefb4d	0.085440256
220	0x3da8e2a9	0.08246357
221	0x3dd38155	0.103274025
222	0x3d232be4	0.03983678
223	0xbe5e9f33	-0.21740417
224	0xbe45727f	-0.19281958
225	0x3b402f35	0.0029325013
226	0x3dfe98ad	0.12431464
227	0xbdb05b46	-0.08611159
228	0x3d89b21e	0.06723426
229	0x3dec1b2f	0.11528622
230	0x3e15c1e1	0.1462474
231	0x3dae3355	0.085058846
232	0x3e01576f	0.1263101
233	0xbd579df6	-0.052640878
234	0x3e8c4766	0.27398223
235	0xbd6b69af	-0.057473835
236	0x3e4b1c97	0.19835125
237	0x3d99cc3b	0.07509657
238	0x3df735e1	0.120708235
239	0xbb3f4543	-0.002918557
240	0x3dae5def	0.0851401
241	0xbdcb67b0	-0.09931886
242	0x3e70d346	0.23518094
243	0xbda8327d	-0.08212755
244	0xbcb627d4	-0.022235788
245	0x3dec1fcc	0.11529502
246	0xbd74b7a8	-0.05974546
247	0xbe4e9876	-0.20175347
248	0xbe3b4aed	-0.182903
249	0xbd611139	-0.054948065
250	0xbd927466	-0.071511075
251	0x3ddd05d4	0.10792127
252	0x3d9548b1	0.072892554
253	0xbd4873e4	-0.048938647
254	0x3e4706db	0.19436209
255	0x3dc019fe	0.093799576

4.bias f4 [8]
0	0x3e339ec0	0.17541027
1	0x3ead1910	0.33808184
2	0x3f01fb91	0.50774485
3	0x3ea7dcfd	0.32785788
4	0x3f02ff70	0.51171017
5	0x3d1de87e	0.0385518
6	0x3e8fdde9	0.28098992
7	0x3e4e8a6a	0.20169988

0.weight f4 [64, 4]
0	0xbda839d0	-0.08214152
1	0xbe3c5068	-0.18390048
2	0xbe5f8c5c	-0.21830887
3	0x3e0bdc64	0.13658291
4	0xbd88a458	-0.06671971
5	0xbe1b4d7c	-0.15166277
6	0x3e89e30a	0.2693103
7	0xbef1cb0e	-0.4722523
8	0x3ed7431c	0.42043388
9	0x3ec09588	0.37614083
10	0xbd05d4e0	-0.032673717
11	0x3ef4f69a	0.47844392
12	0xbec450d0	-0.38342905
13	0x3e876d5a	0.26450616
14	0x3ec5c658	0.38627887
15	0xbe5815b4	-0.21102029
16	0x3e74adc0	0.23894405
17	0x3e3b62a0	0.18299341
18	0xbef0c6d2	-0.47026688
19	0xbee2a09a	-0.44263154
20	0x3da18298	0.07886237
21	0xbe11009c	-0.14160389
22	0xbea33324	-0.31874955
23	0xbe978bf6	-0.2959897
24	0x3ef6b5fe	0.48185724
25	0xbefddeb2	-0.49583966
26	0xbea8beac	-0.3295797
27	0x3e97a222	0.29615885
28	0x3df7d600	0.12101364
29	0x3df4d078	0.11953825
30	0xbe10c2a4	-0.1413675
31	0x3e5b6600	0.21425629
32	0xbe90e8b0	-0.28302526
33	0x3d2255b0	0.0396325
34	0xbe75fb48	-0.24021637
35	0x3dcd80e8	0.100343525
36	0x3d236860	0.03989446
37	0xbebe06ba	-0.37114507
38	0x3d9d5290	0.07681763
39	0xbee3441c	-0.443879
40	0xbdcbc020	-0.09948754
41	0xbec5032a	-0.38478976
42	0x3e9dd8da	0.30829507
43	0x3e562b20	0.20914888
44	0xbe82245c	-0.25418365
45	0x3eb20922	0.34772593
46	0xbe66e03c	-0.22546476
47	0x3eaff0b2	0.34363323
48	0x3d444b90	0.047923625
49	0x3df35858	0.118820846
50	0xbeb1259e	-0.34599012
51	0xbed0f6a0	-0.4081316
52	0xbd9b1050	-0.07571471
53	0xbe64a7f8	-0.223297
54	0x3ec2ba5a	0.380328
55	0x3d78b200	0.06071663
56	0xbea18afc	-0.3155135
57	0xbe803676	-0.2504155
58	0xbea4b0fc	-0.32166278
59	0x3ef183a6	0.47170752
60	0x3e3bc050	0.1833508
61	0xbeaf5422	-0.34243876
62	0xbddbdcc0	-0.10735464
63	0xbe8a7e38	-0.27049422
64	0xbeacffd4	-0.3378893
65	0xbe879b28	-0.26485562
66	0xbe81c9aa	-0.2534917
67	0xbe8a25e8	-0.26982045
68	0x3edfd674	0.43718302
69	0x3eb368a2	0.35040766
70	0x3ed291e6	0.41126937
71	0xbef9e220	-0.48805332
72	0xbe3385ec	-0.17531556
73	0xbec2f0b4	-0.38074267
74	0xbe1863e4	-0.14881855
75	0x3de94590	0.11390221
76	0xbe864578	-0.26224875
77	0x3eceabe8	0.4036553
78	0xbe4ecd80	-0.2019558
79	0x3eb02df6	0.34410065
80	0xbe86d9f6	-0.26338166
81	0x3efe4a6a	0.49666148
82	0x3e8cb4d0	0.274817
83	0x3efed3bc	0.49770916
84	0xbeb4a21e	-0.35279936
85	0x3d76e7b0	0.06027955
86	0xbd2cd0f0	-0.042191446
87	0x3d801e98	0.06255835
88	0x3e61bed0	0.22045445
89	0xbeb1d41c	-0.3473214
90	0xbe933c6e	-0.28757042
91	0x3ed00c84	0.4063455
92	0x3e069044	0.1314097
93	0x3d1cb6f0	0.0382604
94	0xbe28dc50	-0.16490293
95	0xbd6efe60	-0.05834806
96	0x3eda9058	0.4268825
97	0x3e86a738	0.26299453
98	0x3e50561c	0.20345348
99	0xbe9c0d9a	-0.30479127
100	0x3dd5ad30	0.104334235
101	0xbd65b240	-0.056078196
102	0xbed4ff8c	-0.41601217
103	0xba84ca00	-0.0010131001
104	0xbe40a318	-0.18812215
105	0x3d996dc8	0.07491642
106	0x3e9eef0a	0.31041747
107	0x3ed00ec4	0.40636265
108	0x3ec19a18	0.37812877
109	0x3e2b3018	0.16717565
110	0xbe3916dc	-0.18075126
111	0x3e1564b4	0.14589196
112	0xbedf8ee4	-0.43663704
113	0xbed88692	-0.4229017
114	0x3e003e50	0.1252377
115	0xbedc659e	-0.43046278
116	0x3eb321f2	0.34986836
117	0xbe10022c	-0.14063329
118	0xbed15acc	-0.40889585
119	0xbee88ce0	-0.4541998
120	0x3dd75988	0.105151236
121	0xbe86be6c	-0.26317155
122	0xbd7a4bf0	-0.061107576
123	0x3ea1aed0	0.31578684
124	0x3cbb2be0	0.02284807
125	0xbecd10de	-0.4005193
126	0xbe9e89e6	-0.30964583
127	0x3e2804a0	0.16408014
128	0xbe8448cc	-0.2583679
129	0x3eed4292	0.46339852
130	0x3ebd38f8	0.36957526
131	0x3e4745d4	0.19460231
132	0xbe7dcf0c	-0.24786013
133	0x3e3bae84	0.18328291
134	0x3e65e7c8	0.22451699
135	0xbe351b84	-0.17686278
136	0x3e12cdd8	0.14336336
137	0xbca4ae60	-0.02010268
138	0x3ecc2da8	0.39878583
139	0xbe2f1a94	-0.17099983
140	0xbda6cba8	-0.08144313
141	0xbeef4976	-0.46735734
142	0xbee0e1d6	-0.439223
143	0xbd84cb90	-0.06484139
144	0xbefa0496	-0.48831624
145	0xbd5343b0	-0.051578224
146	0xbdb42070	-0.087952495
147	0xbe79e1a8	-0.24402487
148	0x3d91cd48	0.071192324
149	0xbee7eea4	-0.45299256
150	0x3b832e80	0.004003346
151	0x3e2eda7c	0.17075533
152	0xbeaab2fe	-0.33339685
153	0x3ef1f0b0	0.47253942
154	0xbd128af0	-0.035777032
155	0xbec3d7ac	-0.38250482
156	0xbea2e25c	-0.31813323
157	0xbd599440	-0.053119898
158	0x3eac4210	0.33644152
159	0xbe1e82ec	-0.1547963
160	0xbe8ffbfe	-0.28121942
161	0xbef90378	-0.4863546
162	0xbeb1431a	-0.34621507
163	0xbc7177c0	-0.014738023
164	0x3e7f2e58	0.24920022
165	0x3e85ccbe	0.26132768
166	0xbe8c221c	-0.27369773
167	0xbe0f4c94	-0.13994056
168	0x3ed24fc4	0.4107648
169	0x3e8fceb6	0.28087395
170	0x3d5d2db0	0.05399865
171	0x3e546b08	0.20743954
172	0x3ef9aa0a	0.48762542
173	0x3ef88f60	0.48546886
174	0xbe856d80	-0.26060104
175	0x3c86efe0	0.016471803
176	0xbe1725c4	-0.147605
177	0x3e9d0b34	0.3067261
178	0xbec28370	-0.37990904
179	0x3eb8c754	0.36089575
180	0x3c38fd40	0.011290848
181	0x3ebc8a2e	0.36824173
182	0x3e0beff4	0.13665754
183	0x3eb2fa7c	0.3495673
184	0x3eca28ae	0.3948416
185	0xbe4cbe38	-0.19994438
186	0x3ea1b5be	0.3158397
187	0x3e21d6c0	0.15804577
188	0xbdef5658	-0.11686391
189	0xbd8a67f0	-0.06758106
190	0xbe4e2f48	-0.20135224
191	0x3eeeb2c8	0.46620774
192	0x3d00ccd0	0.031445324
193	0x3ec9e860	0.394351
194	0xbe4ab9d4	-0.1979745
195	0xbee318d8	-0.44354892
196	0x3e879e66	0.26488036
197	0x3e948ef8	0.29015326
198	0x3ec631d2	0.38709885
199	0x3eb0fd30	0.34568167
200	0xbc233940	-0.00996238
201	0x3e874bd4	0.2642504
202	0x3e8380d8	0.25684237
203	0x3dd50998	0.104022205
204	0x3ed52e54	0.41636908
205	0x3dbfe4e0	0.09369826
206	0x3ec0190a	0.37519103
207	0x3de5fd10	0.112299085
208	0xbd073860	-0.033012748
209	0xbd8388f8	-0.06422609
210	0x3e713868	0.23556674
211	0xbd9e84d8	-0.07740182
212	0xbee631e0	-0.44959927
213	0xbe88557c	-0.2662772
214	0xbeba05da	-0.3633259
215	0xbe8ea2fe	-0.27858728
216	0xbee26c18	-0.44223094
217	0xbe4283b0	-0.18995547
218	0x3d945a70	0.07243812
219	0xbd8d1d00	-0.06890297
220	0xbe658004	-0.22412115
221	0xbef2a004	-0.47387707
222	0xbe9e598e	-0.309277
223	0x3eb7b8f2	0.3588329
224	0xbe3253c4	-0.17414767
225	0x3d3f9d60	0.046780944
226	0xbe732f1c	-0.2374844
227	0x3efeb714	0.49749053
228	0x3ed823aa	0.4221471
229	0x3e3c0e88	0.18364918
230	0xbec97a3c	-0.3935107
231	0x3e41530c	0.18879336
232	0xbe8f864e	-0.28032154
233	0xbe1e41cc	-0.15454787
234	0x3eb4ac44	0.35287678
235	0x3e984ccc	0.2974609
236	0x3d9e9050	0.07742369
237	0x3eb8cc34	0.36093295
238	0x3e9c0f00	0.30480194
239	0xbd7c0de0	-0.06153667
240	0xbe8dae5e	-0.27672094
241	0xbd9f9e68	-0.077938855
242	0x3e9da040	0.30786324
243	0x3ec08b08	0.37606072
244	0xbe958eb8	-0.29210448
245	0x3ec45cce	0.38352054
246	0xbeb8d966	-0.36103362
247	0x3ed6dab2	0.41963726
248	0x3eb20de2	0.34776217
249	0x3ee4a330	0.44655752
250	0x3e02a678	0.12758815
251	0xbde8b800	-0.1136322
252	0x3e4b75bc	0.19869131
253	0x3df20130	0.11816633
254	0x3ea3a4c4	0.31961644
255	0x3efb0108	0.49024224

0.bias f4 [64]
0	0xbde73a28	-0.11290389
1	0xbeb28dbc	-0.3487376
2	0xbe51a824	-0.20474297
3	0x3e6da58c	0.23207682
4	0xbefef982	-0.49799734
5	0x3d82b688	0.06382471
6	0x3df1ca70	0.1180619
7	0x3e8bee22	0.27330118
8	0x3eb03ca2	0.3442126
9	0x3c63e000	0.013908386
10	0xbe2d6ec0	-0.16936779
11	0xbed332ee	-0.41249794
12	0x3d49dd90	0.049283564
13	0xbecce948	-0.4002173
14	0x3ee484e0	0.44632626
15	0x3e1b0db0	0.1514194
16	0x3ee49d68	0.4465134
17	0xbeeaf962	-0.4589339
18	0xbe993d16	-0.29929417
19	0xbeb45f62	-0.3522902
20	0xbe87a83a	-0.26495534
21	0x3c566ac0	0.013086975
22	0xbef6a0a6	-0.4816944
23	0xbe800104	-0.25000775
24	0x3ea056a4	0.31316102
25	0x3e90a568	0.28251195
26	0xbd98b9a8	-0.07457286
27	0x3eb59866	0.35467833
28	0x3cab71c0	0.020928264
29	0x3ebcb6b2	0.36858135
30	0xbda0ca38	-0.0785107
31	0x3ec802e6	0.3906471
32	0xbd034620	-0.0320493
33	0x3e4708d4	0.19436961
34	0x3ee3aa82	0.44466025
35	0xbe8fce2a	-0.28086978
36	0x3d512a30	0.051065624
37	0xbe8cab32	-0.27474362
38	0x3eb8dc6c	0.3610567
39	0x3e9cea34	0.30647433
40	0x3e1889a8	0.14896262
41	0x3ca20260	0.019776523
42	0xbd37dc90	-0.04488808
43	0x3efab19e	0.48963636
44	0xbe306358	-0.17225397
45	0x3ee5fcda	0.44919473
46	0xbde61e08	-0.11236197
47	0x3ec154e4	0.3776008
48	0xbc5d7b80	-0.013518214
49	0xbdb23e78	-0.08703321
50	0xbee26340	-0.44216347
51	0xbd6c3810	-0.057670653
52	0x3ef86fa8	0.48522687
53	0x3ef30604	0.47465527
54	0xbed1acf8	-0.40952277
55	0xbef8ddf4	-0.48606837
56	0xbdc1a840	-0.09455919
57	0xbe1ebe1c	-0.15502208
58	0x3ed021fa	0.40650922
59	0xbc9b2820	-0.018940032
60	0xbeddbbba	-0.43307287
61	0xbeab44a6	-0.33450812
62	0xbee0c346	-0.43898982
63	0xbec0e99a	-0.37678224

2.weight f4 [64, 64]
0	0xbdba7e92	-0.091061726
1	0x3d36fc38	0.04467413
2	0x3de55a84	0.11198905
3	0x3dbb43ca	0.09143789
4	0xbde3028e	-0.11084472
5	0x3bee61c0	0.0072748363
6	0xbd0b0f40	-0.03395009
7	0xbd197a18	-0.037469953
8	0x3dd4872c	0.103773445
9	0x3d8a02f4	0.067388445
10	0xbc24d5e0	-0.010060757
11	0xbdc2bc0e	-0.09508525
12	0x3c0317c0	0.008001268
13	0x3cf63c38	0.030058011
14	0x3dcf255c	0.101145476
15	0x3b76c6c0	0.0037655085
16	0x3c5f4ac0	0.013628662
17	0x3d4bc268	0.049745947
18	0xbd8c38d8	-0.068467796
19	0x3d532fd4	0.051559284
20	0x3d62a384	0.055331722
21	0x3d00c078	0.031433553
22	0x3cf345d8	0.02969639
23	0x3d80eeec	0.06295571
24	0x3d8b7416	0.06809251
25	0xbd9984a0	-0.07495999
26	0xbbe8b480	-0.0071015954
27	0x3dc387d8	0.095473945
28	0xbc015d00	-0.007895708
29	0x3d9bc4f2	0.07605924
30	0x3d73f10c	0.059556052
31	0xbd0706ec	-0.032965586
32	0xbcd6e600	-0.02623272
33	0x3d4c5ffc	0.049896225
34	0xbc96df60	-0.01841706
35	0x3dd82a08	0.10554892
36	0x3d3770ec	0.044785425
37	0xbcd0a770	-0.025470465
38	0x3cc94640	0.02456963
39	0x3d926118	0.071474254
40	0x3d399070	0.045303762
41	0xbd3a7204	-0.04551889
42	0x3dd3b500	0.103372574
43	0xbd8fe8b0	-0.070268035
44	0x3d17ed88	0.03709176
45	0xbd2a25e0	-0.041540027
46	0xbddef8e6	-0.10887317
47	0x3deeddd0	0.11663401
48	0xbc63b440	-0.013897955
49	0xbcd076b8	-0.025447235
50	0xbcbd7fb0	-0.023132175
51	0xbd1e7d08	-0.038693458
52	0x3ddedde2	0.108821645
53	0x3dc79522	0.09745242
54	0x3a923b80	0.0011156648
55	0xbdcc3054	-0.09970155
56	0xbdfef346	-0.124487445
57	0x3b6ed840	0.0036444813
58	0x3df2e006	0.11859135
59	0xbd46c254	-0.04852517
60	0xbdf68b80	-0.12038326
61	0x3c860b70	0.016362876
62	0xbda4ec9e	-0.08052944
63	0xbdd97918	-0.106188
64	0x3d4fb7dc	0.05071245
65	0xbd081a24	-0.033228055
66	0x3df97058	0.12179631
67	0xbd0263b8	-0.03183338
68	0xbddd9224	-0.1081889
69	0xbdcede76	-0.10101025
70	0xbce2c358	-0.027681038
71	0xbdab74e4	-0.083719045
72	0xbcf89be8	-0.03034778
73	0x3c8c3958	0.017117187
74	0xbc4f2850	-0.012643889
75	0xbdb906d4	-0.090345055
76	0xbdfde236	-0.12396662
77	0xbdda81f4	-0.10669318
78	0x3dae1f6c	0.08502087
79	0xbdba2e16	-0.090908214
80	0x3dda1dbe	0.10650204
81	0x3de28f1a	0.11062451
82	0x3b3ff540	0.0029290468
83	0xbdf00250	-0.11719191
84	0x3d7f7334	0.062365726
85	0x3dc90f38	0.09817356
86	0x3d4d6a4c	0.0501502
87	0xbd03b6a4	-0.0321566
88	0x3cf111d8	0.029427454
89	0xbb7f5680	-0.003896147
90	0x3d4bb3dc	0.049732074
91	0xbde45fde	-0.11151098
92	0x3dc577cc	0.0964199
93	0x3d4254b8	0.047444075
94	0xbc8e8360	-0.017396629
95	0x3cb1df40	0.0217129
96	0xbddb6448	-0.107124865
97	0xbc31e3f0	-0.010857567
98	0xbdc0e5e0	-0.09418845
99	0x3d0f1684	0.034933582
100	0x3d02191c	0.031762227
101	0x3d3835d0	0.044973195
102	0x3cf19460	0.029489696
103	0xbdeab860	-0.11460948
104	0x3d7bc93c	0.06147121
105	0xbd208214	-0.039186552
106	0xbda73c06	-0.081657454
107	0xbdd7fea0	-0.10546613
108	0x3dbaedb2	0.09127368
109	0x3dc8f8b2	0.0981306
110	0xbc1bf040	-0.009517729
111	0x3d74f28c	0.059801623
112	0x3b246a80	0.0025087893
113	0x3db585ba	0.08863397
114	0x3c575140	0.01314193
115	0x3cfd1b40	0.030896783
116	0x3ddb572c	0.10709986
117	0x3dd0de80	0.101986885
118	0x3d5b4028	0.05352798
119	0xbda805e2	-0.08204247
120	0xbd14fc68	-0.036373526
121	0xbda51e12	-0.08062376
122	0x3de470fe	0.11154364
123	0xbc7327c0	-0.01484102
124	0x3c720960	0.014772743
125	0x3dffc39e	0.12488483
126	0xbd188508	-0.037236243
127	0x3ce178f8	0.027523503
128	0xbdcc600c	-0.09979257
129	0xbd4119c0	-0.047143698
130	0x3d9ba50c	0.075998396
131	0xbb98bfe0	-0.004661545
132	0x3d094cbc	0.033520445
133	0x3b29a080	0.002588302
134	0xbd9e942a	-0.07743104
135	0x3db83032	0.089935675
136	0x3c879900	0.016552448
137	0x3d705240	0.05867219
138	0x3d964656	0.07337634
139	0x3de034e4	0.10947588
140	0x3d1dc7f4	0.03852077
141	0xbda5f648	-0.08103615
142	0x3d5d4e4c	0.054029748
143	0xbdff7e2c	-0.12475237
144	0xbdbe53bc	-0.09293315
145	0xbd326628	-0.043554455
146	0x3dfc3286	0.12314324
147	0xbdc5b30a	-0.096532896
148	0xbd3c18e8	-0.04592219
149	0xbdb5916c	-0.08865628
150	0xbdc4492e	-0.095842704
151	0x3de29006	0.110626265
152	0x3d332800	0.04373932
153	0xbd938102	-0.07202341
154	0xbd7bfefc	-0.06152247
155	0xbda59056	-0.080841705
156	0xbbc94780	-0.0061425567
157	0xbde87b28	-0.11351615
158	0x3dab7b36	0.0837311
159	0x3da91322	0.082556024
160	0x3ddeee62	0.10885312
161	0x3d369220	0.04457295
162	0x3c832dc8	0.016013041
163	0x3d9c1502	0.076211944
164	0x3d835ab2	0.06413783
165	0xbd482b98	-0.0488697
166	0xbb1364c0	-0.0022490472
167	0x3d6991a0	0.057023644
168	0xbc6b96f0	-0.014379248
169	0x3d3aabcc	0.045573995
170	0x3c0c51c0	0.008564413
171	0x3d443170	0.04789871
172	0x3d98368e	0.074322805
173	0x3d020bd4	0.03174956
174	0x3db9afec	0.090667576
175	0xbdefa882	-0.11702062
176	0x3d451ed0	0.04812509
177	0x3d25841c	0.040409192
178	0x3c56e000	0.013114929
179	0x3d94bf62	0.07263066
180	0x3ddb59da	0.10710497
181	0x3d1b1d44	0.037869707
182	0xbde5074e	-0.11183034
183	0xbcb2b158	-0.02181308
184	0x3dd5844a	0.10425623
185	0x3da3caf4	0.079976946
186	0xbdf66f1c	-0.12032911
187	0x3df042c0	0.117314816
188	0xba5f1600	-0.0008510053
189	0xbda6f366	-0.08151893
190	0xbc2faab0	-0.010721847
191	0xbd984dd4	-0.074367195
192	0x3dafd670	0.085858226
193	0x3bf462e0	0.007458076
194	0xbceaef58	-0.028678581
195	0x3d5cf4e4	0.053944483
196	0x3dd20996	0.102557346
197	0x3d8fffd2	0.07031216
198	0xbdedc33c	-0.116095036
199	0x3d2d6a88	0.042337924
200	0xbc9dff48	-0.019286767
201	0xbd8c38f0	-0.068467975
202	0xbda07bfa	-0.07836147
203	0xbbe04600	-0.006844282
204	0x3d80f912	0.062975064
205	0xbd9709e6	-0.07374935
206	0xbda13bde	-0.07872747
207	0x3df54be0	0.11977363
208	0xbd2f415c	-0.04278694
209	0x3d42db6c	0.04757254
210	0xbd43abe8	-0.047771364
211	0xbdba5ffe	-0.0910034
212	0x3d2f0ba8	0.042735726
213	0xbdbae744	-0.09126142
214	0x3b78e300	0.00379771
215	0xbc3978c0	-0.011320293
216	0xbaac4380	-0.0013142675
217	0x3d90f590	0.07078087
218	0x3dcf4164	0.10119894
219	0x3af03a00	0.0018327832
220	0xbb815ec0	-0.0039480627
221	0xbd57ce94	-0.052687243
222	0x3d8b25d8	0.067943275
223	0x3ddb7b5c	0.10716888
224	0x3d747de8	0.059690386
225	0x3d7e7474	0.062122777
226	0xbbadaee0	-0.0053003877
227	0x3d4f8690	0.05066544
228	0xba37b600	-0.0007008016
229	0xbce26f30	-0.027640909
230	0xbd759338	-0.059954852
231	0xbd85c662	-0.06531979
232	0xbd1eb2c4	-0.038744703
233	0x3d1a2894	0.037636355
234	0xbd973b24	-0.07384327
235	0x3b9683c0	0.0045933425
236	0x3c08eeb0	0.008357689
237	0xbc506b70	-0.012720928
238	0xbcee6ea8	-0.0291055
239	0x3dddc42e	0.10828434
240	0xbd164970	-0.03669113
241	0x3d473f94	0.048644617
242	0x3d885d24	0.0665839
243	0xbca58178	-0.020203337
244	0xbdea9770	-0.11454666
245	0xbd0900c0	-0.03344798
246	0xbc16baf0	-0.009199843
247	0xbd9d208a	-0.07672222
248	0xbdd9e358	-0.106390655
249	0xbc7f2500	-0.015572786
250	0x3d8ebc00	0.06969452
251	0x3de4fad6	0.11180656
252	0x3d03d05c	0.03218113
253	0xbde14032	-0.109985724
254	0x3cd07238	0.025445089
255	0xbdb14852	-0.08656372

2.bias f4 [64]
0	0xbc988508	-0.018618122
1	0xbd73bc60	-0.05950582
2	0x3d0d7f28	0.034545094
3	0xbdc0cfbc	-0.09414622
4	0x3bcf6000	0.0063285828
5	0x3caeaab0	0.021321625
6	0xbc6c9c40	-0.01444155
7	0xbdcfb77c	-0.10142419
8	0x3c463170	0.012096748
9	0x3cdde858	0.02708833
10	0x3ce71ec8	0.02821292
11	0x3dc6ec8c	0.097130865
12	0xbd7f0490	-0.06226021
13	0xbc41f2c0	-0.011837661
14	0x3d956cec	0.07296166
15	0xbdb7c830	-0.089737296
16	0x3d119298	0.035540193
17	0xbdee05a2	-0.11622168
18	0x3daabf0a	0.08337219
19	0xbdac8234	-0.08423272
20	0xbc4ddac0	-0.012564361
21	0x3d9d8c62	0.076927915
22	0x3d7ff258	0.062486976
23	0xbdc75db2	-0.09734668
24	0xbdd3be14	-0.10338989
25	0xbdcd4aca	-0.100240305
26	0x3d799c98	0.060940355
27	0xbdebe0a6	-0.11517458
28	0x3d697084	0.05699207
29	0xbdefe634	-0.1171383
30	0xbdb69c2e	-0.08916508
31	0xbdc1702e	-0.09445225
32	0x3ded9bf0	0.11602008
33	0xbda8b2b0	-0.08237207
34	0x3dff2e4c	0.12460002
35	0xbdb53e52	-0.08849777
36	0xbb3bb400	-0.0028641224
37	0xbd89b22a	-0.06723435
38	0x3c754050	0.014968947
39	0xbc669b00	-0.014075041
40	0xbcf13010	-0.029441863
41	0x3bb18900	0.005417943
42	0xbae4dc00	-0.0017460585
43	0xbdf4a158	-0.119448364
44	0xbdf9c204	-0.12195209
45	0x3be3e500	0.006954789
46	0x3d824b2a	0.06361993
47	0x3dec6658	0.11542958
48	0x3c44ad50	0.012004212
49	0x3dea6a08	0.11446005
50	0x3d92e92a	0.07173379
51	0xbd6c7088	-0.057724506
52	0x3d874fae	0.066069946
53	0x39f18400	0.0004606545
54	0xbdd35186	-0.10318284
55	0xbddcaa86	-0.10774712
56	0xbd431c80	-0.0476346
57	0xbd38b05c	-0.045090064
58	0xbdfae752	-0.12251152
59	0xbd937876	-0.072007105
60	0x3dd6780a	0.104721144
61	0x3dff3094	0.124604374
62	0x3d97ba2a	0.07408555
63	0x3bf5fe40	0.0075071156

4.weight f4 [1, 64]
0	0x3c05c090	0.008163586
1	0x3cd653e8	0.026163056
2	0xbd04f508	-0.032460243
3	0xbdc204b2	-0.09473552
4	0xbd2b38f0	-0.041802347
5	0xbdf7c920	-0.120989084
6	0x3dd3382e	0.1031345
7	0x3d5c3eb0	0.05377072
8	0xbd8d674a	-0.069044665
9	0xbdfd4664	-0.123669416
10	0x3b5a5d40	0.0033319741
11	0xbc78b5f0	-0.015180096
12	0xbd0faf6c	-0.035079405
13	0xbdfc6d44	-0.12325528
14	0x3d0d510c	0.03450112
15	0xbda201de	-0.079105124
16	0x3cfeb668	0.031092837
17	0xbddefa1c	-0.10887548
18	0x3dcb12e0	0.099157095
19	0x3dc779ca	0.09740026
20	0xbda1c158	-0.078982055
21	0x3d21bc8c	0.039486453
22	0xbdbe2698	-0.09284705
23	0x3da4fb98	0.080558
24	0xbc4dc470	-0.012559041
25	0x3cc48648	0.023989812
26	0xbdf1a446	-0.11798911
27	0x3d8f9102	0.0701008
28	0xbdac5282	-0.084141746
29	0xbbf29ca0	-0.007403925
30	0x3d5b6970	0.05356735
31	0x3dc898ac	0.09794745
32	0xbcbe2ba0	-0.023214161
33	0xbda1b16a	-0.07895167
34	0xbd04da78	-0.03243491
35	0xbd0695b4	-0.03285761
36	0xbd398748	-0.04529503
37	0xbdcb3aa8	-0.09923297
38	0x3cdbcba0	0.026830494
39	0x3c882a80	0.016621828
40	0xbd829dfa	-0.06377788
41	0xbdc0b4b8	-0.09409469
42	0xbd991388	-0.074744284
43	0xbc3c9a60	-0.011511415
44	0xbd72adac	-0.059247658
45	0x3d90716c	0.070528835
46	0xbd06f458	-0.032947868
47	0x3d7e4bfc	0.062084183
48	0xbd8a5cbc	-0.06755969
49	0x3dbcfcb2	0.09227885
50	0xba328200	-0.00068095326
51	0xbdc3c5ee	-0.095592365
52	0xbdf96622	-0.121776834
53	0xbdcdbf10	-0.10046208
54	0x3db53c70	0.08849418
55	0x3d742628	0.0596067
56	0x3d8e1cda	0.06939097
57	0xbd4f0f14	-0.05055149
58	0xbdfecd10	-0.12441456
59	0xbdde0938	-0.10841602
60	0x3d648a3c	0.055795893
61	0x3d6a7e58	0.057249397
62	0x3d64a8cc	0.05582504
63	0x3dd800b2	0.105470076
