4_PolicePPO_ThiefPPO_rl/models/thief_ppo.pth (torch, 42450 bytes, 11 tensors)

0.weight f4 [64, 4]
00000000: ecda dabe 5919 b9be 9c7a 8fbc c325 013e
00000010: 3585 ba3e 572b dcbe d990 173f e18d 5fbe
00000020: 25f3 1e3d 0c09 15bf a647 033d 7cfa 9b3d
00000030: 478e 7dbe e107 b7bb 9407 b13e 1537 a53e
00000040: 4a65 2cbe 7d84 abbd 9a96 7c3e 4508 a53e
00000050: be60 4cbe 5597 f63e 1360 263f 3508 c93d
00000060: 60d8 0bbf fe45 9abe c010 98be ceb6 313e
00000070: 7af1 20bf 5837 1e3e 8ae7 84bf 9562 523e
00000080: 5780 cdbe d572 b93e 1155 1dbf ab8d 773e
00000090: f53f a43e bfc3 943d 52a3 1bbf 73b6 b7bc
000000a0: 3dfc 3e3e 889a 5e3c 6418 8ebe 82a6 0a3e
000000b0: 8151 87be 5ac2 273e be6e 533e c43c 903e
000000c0: 11df 91be 4b2e b83e 53eb 1c3e e9a7 a0bd
000000d0: 7a3f 2b3e 8976 193e 11ad 43be d2b1 19bd
000000e0: 235e 0bbf cc09 88be 8f7b eebe 9385 07bd
000000f0: 8e86 d23e e59c d63d 020c d6bd b52f 5d3c
00000100: 59d9 59be e526 2b3c dd9d d8be 64c6 b93e
00000110: 816e 5ebe b58b f7be 1e44 21be 1885 a6bd
00000120: 1d60 bb3e 891c d43d 0870 4a3f 756f 89bd
00000130: c224 203f 608e 8fbd 8231 613f 5820 073e
00000140: 218b ee3e afe6 e83e bcb1 44bd 8050 46bd
00000150: 0937 d23e 5d29 54be b0e4 513f dc69 c03c
00000160: 59a5 563d 4302 ecbe d5e5 df3e 6343 853d
00000170: 23ca 1dbf c41b d1bd 0ad3 903d 6202 923c
00000180: 9a59 0fbe b87a bb3e e19e 473f 2ec0 95bd
00000190: ca36 063e babe 13be 7bdf 6bbe 5482 e2bc
000001a0: 2bfb f7be 748d d9be 9960 69bf 6499 9b3d
000001b0: 0886 81be 1f68 48bd 97df 183f d7f1 ba3d
000001c0: 51ae eabe 76fc 75be 5887 a93e 77bb 3f3e
000001d0: 5e46 48be 4255 acbc 6aea 8fbe 0c2a cfbe
000001e0: 02e9 04bf a913 65be 35d5 e0be d947 b3be
000001f0: 360a debd 4453 143e 180e ad3e 2536 903e
00000200: 3b65 c73d 0bd0 0b3f ab3b 11be a8e6 ee3c
00000210: 39ff c93e f48b 1d3f 4c93 7b3f 3695 523d
00000220: aa1b 523e 4585 37bd d781 5ebe f7dc c3be
00000230: be85 1ebe 159e 8dbe 6918 f0be 24d0 b9be
00000240: 4a3c 8d3d 9eae 94be ef42 b93e d515 09be
00000250: a451 12bf 7309 1b3e 0037 9ebf 7151 16bc
00000260: ad8c 1abf ffcf d6be ad65 0ebf 5ad9 b03d
00000270: 8bf5 ef3e efd2 abbd 70ac 543f 4647 3a3e
00000280: 0448 053e cbb3 41be 2bfd c7be a405 4fbe
00000290: a5b1 c23e 262c 58be f939 063e 9b01 cb3d
000002a0: 0178 99bd 679d 38bd a72f 1cbf 26d9 e0bd
000002b0: 3c85 c73e 1336 313e 62b7 693e 6415 d4be
000002c0: dbfd ba3e 4407 d83d bb33 393e ef82 cd3c
000002d0: 7243 263e 2b4b ee3c 606d 3f3f 064f 953c
000002e0: 04a3 36bf 3acc 75be 599c 3bbf ebd0 01be
000002f0: b057 b23e c7d7 1d3e 7793 edbe 86e0 bbbd
00000300: b2a8 f33e 9693 f73e 430e 863f abaf fc3d
00000310: bac1 da3e aa18 453f 58e6 663f 991b 113e
00000320: 6aa7 673d d050 cbbd 42d9 303e 8e4a 27bd
00000330: b2be e8be 34d2 cbbe c103 98bf 7434 97bd
00000340: 286c 613c 84fb 143d ee19 233f 1fe8 53bd
00000350: 51b5 023e 1e83 f43a 009d 00bf 5e04 1fbe
00000360: 9927 c3bd f72e 0b3d 28db 34bf 7973 cc3d
00000370: 67c5 ff3d 4414 643d c84b bcbe f69c 74bd
00000380: bb16 28bf f196 aabe ed24 3ebf 4bb6 afbd
00000390: e8e0 26be 6684 b63e 44bd 113f 3b64 913e
000003a0: 9089 2abe 21fa 9ebe 9f71 67be 7ef1 2ebe
000003b0: 01e1 633d 8559 7abe 6e84 243f 1a83 06be
000003c0: 64f7 b23e 2d01 203d d91a 663f 705a acbe
000003d0: 9e85 b53e 27b8 223d 2fff 4e3f 1f59 c1be
000003e0: 94d4 aebe 02a9 acbe b041 80bd 2d13 3cbe
000003f0: b78a c8be c7ef 273e f7be 683e 0e2e 293e
-0.4274515 -0.3615215 -0.01751452 0.12612061 0.36429754 -0.43001816 0.59205395 -0.21831466
0.0388061 -0.5821693 0.03205075 0.076161355 -0.24761306 -0.005585656 0.34576094 0.32268587
-0.16835514 -0.083748795 0.24666825 0.32232872 -0.19958779 0.48162332 0.6499035 0.098160185
-0.5462704 -0.30131525 -0.2970028 0.1735489 -0.62868464 0.154508 -1.038316 0.20545419
-0.40136978 0.36220422 -0.61457926 0.24175136 0.32080045 0.07263898 -0.6079608 -0.022425866
0.18650909 0.013586648 -0.27752984 0.1354008 -0.2642937 0.16382733 0.20647714 0.2817136
-0.284905 0.3597282 0.15324144 -0.07844526 0.16723433 0.14986624 -0.19108988 -0.0375231
-0.54440516 -0.26569974 -0.46578643 -0.03308637 0.41118282 0.10479144 -0.10451509 0.013500144
-0.21274318 0.010446285 -0.4230794 0.36284173 -0.21721841 -0.48348776 -0.15748641 -0.08130854
0.36596766 0.10357005 0.79077196 -0.06710712 0.6255609 -0.07009578 0.8796617 0.13195932
0.46590522 0.45488498 -0.048021063 -0.048416615 0.41057613 -0.20718904 0.81989574 0.023487978
0.05240378 -0.46095476 0.43730035 0.065069936 -0.6163656 -0.10210374 0.070715025 0.017823402
-0.13999024 0.36617064 0.77976805 -0.07312046 0.13106838 -0.14428225 -0.2303447 -0.027650036
-0.48433813 -0.42490733 -0.9116302 0.07597616 -0.2529757 -0.048927423 0.5971617 0.091281585
-0.45836118 -0.24022087 0.33111072 0.18723856 -0.19558093 -0.021036748 -0.2810853 -0.40461767
-0.5191804 -0.22370781 -0.43912664 -0.35015753 -0.10841791 0.14484888 0.33799815 0.2816631
0.09736105 0.54614323 -0.14182918 0.02916272 0.39452532 0.61541677 0.9827163 0.05141183
0.20518366 -0.04480483 -0.21729217 -0.3825452 -0.15480706 -0.2765967 -0.46893623 -0.3629161
0.06896265 -0.29039472 0.3618388 -0.13387235 -0.57155824 0.15140323 -1.2360535 -0.009174691
-0.60370904 -0.41955563 -0.55623895 0.086352065 0.46867022 -0.08389842 0.8307562 0.18191251
0.13015753 -0.18916242 -0.3906034 -0.20216995 0.38026157 -0.21110591 0.13108052 0.099124156
-0.07493592 -0.045071986 -0.6101021 -0.10978918 0.38968837 0.17305784 0.22823861 -0.4142257
0.365218 0.10548261 0.1808614 0.025086848 0.16236666 0.029088577 0.7477627 0.018226158
-0.7134249 -0.24003688 -0.7328544 -0.12677352 0.34832525 0.15414344 -0.4640157 -0.09173684
0.47589642 0.48354787 1.0473102 0.123381935 0.42725927 0.7699076 0.90195227 0.14170684
0.056556143 -0.09927523 0.17270377 -0.040842585 -0.4545799 -0.3980881 -1.1876146 -0.073830515
0.013758697 0.036372676 0.6371144 -0.05173504 0.12764479 0.0018654799 -0.50239563 -0.1552901
-0.09529037 0.033980336 -0.70646906 0.09982962 0.124888234 0.05568339 -0.36776567 -0.059720002
-0.65659684 -0.33318284 -0.74275094 -0.085796915 -0.16296732 0.35647887 0.5692942 0.28396782
-0.16654038 -0.31050208 -0.22601937 -0.1708431 0.055634502 -0.24448211 0.6426457 -0.13135949
0.3495437 0.03906362 0.89884716 -0.33662748 0.35453504 0.039726403 0.8085813 -0.37763306
-0.3414656 -0.33722693 -0.06262529 -0.1836669 -0.3916833 0.16400062 0.22729097 0.16521475

0.bias f4 [64]
00000000: 07e9 a0bd 711b a43e 33cf 203e a132 e9bc
00000010: 8459 e6bd 68a1 efbc 1804 6fbe d9a9 a9be
00000020: 721e 8fbe 1d61 02be 0ed2 41be 3d8b dcbd
00000030: 342a 3bbd 737a 32be da25 cdbd 2d56 39bd
00000040: 458a e0be 7f68 453e 7b7a 133e d2b9 263e
00000050: c438 123c 5ef4 0c3e a277 e23d a61e b4bb
00000060: 0822 803d 8d92 0d3c 2c42 913d 7464 0f3e
00000070: 3048 41be 938c 713e d47d c63d f35b 84bd
00000080: 2c66 84be b200 b7bd d750 143e 53e2 85bc
00000090: 46bd 9b3e 9ed7 5fbe adb2 083e cbd4 8b3d
000000a0: aede 6e3c 9c9a d8bc 7d22 70be f2c8 6e3d
000000b0: 4f80 bc3d 4237 b93d 1f8a fb3c 6e19 8ebd
000000c0: 2602 313d 53a4 af3d 59c8 0d3e f459 62be
000000d0: 8064 7e3e dda5 3a3c 628c 8bbe c90d 96bd
000000e0: 1fbb 21be 6e79 64bd c17b 5d3d f765 843e
000000f0: 9446 b13e a48f 803e 70fc 7f3e d0c8 40bc
-0.078569464 0.32052186 0.1570404 -0.028466525 -0.112475425 -0.02925177 -0.23341405 -0.33137396
-0.27952915 -0.12732358 -0.18927786 -0.10768745 -0.045694545 -0.17429523 -0.10016985 -0.0452482
-0.4385549 0.19278143 0.14402191 0.16281822 0.008924667 0.13765094 0.110579744 -0.0054968176
0.06256491 0.008640897 0.070926994 0.14003164 -0.18875194 0.23588781 0.096919686 -0.064628504
-0.258592 -0.089356795 0.14483963 -0.016343271 0.30417842 -0.21859595 0.1334941 0.068276964
0.014579458 -0.026440911 -0.23450656 0.058297105 0.092041604 0.09043743 0.03070551 -0.06938444
0.04321494 0.08576264 0.13845958 -0.22104627 0.24843025 0.011392084 -0.2725554 -0.07326848
-0.15794037 -0.055779867 0.0540731 0.25859043 0.3462416 0.2510959 0.24998641 -0.011766627

2.weight f4 [64, 64]
00000000: 7926 283d f749 82bb d3d5 4bbb 14ab 3f3c
00000010: 6e1a e3bc 0f7a 283d 7761 35be dc16 4abc
00000020: 5468 e3bd e637 293e 4bbd ca3c 9b5c b7bd
00000030: a8c7 3cbd 46e6 2f3e d065 5bbe 98a1 d03d
00000040: 0d49 0ebd a6fc 0dbe 5b03 7c3b 7d19 9d3e
00000050: 32ec 983d 2f9b bc3c 4314 203d 922f 1fbe
00000060: 2826 fcbc 9fdc 13bb ab11 3cbe 6ce9 13bd
00000070: e008 aabb dded 80bc a65e 5ebd 8b1d 35bc
00000080: bd58 6c3c dcab 6a3e 6883 803d 0c41 96bd
00000090: b5a6 df3d 5e4f 0dbd e8a4 88be 5885 903e
000000a0: b152 6e3c 6d33 4b3e fd76 863c 44f0 463d
000000b0: 6cd8 773e e277 be3d 2fd2 44be 019b 5e3c
000000c0: e850 bb3d 6e78 f23c f9d2 103d be35 bfbd
000000d0: 81ce b1bd a6d0 263d 1935 cf3d 2fe9 bf3d
000000e0: f852 87be 8ad2 14be 2f6c f53c 12a7 12ba
000000f0: 11af 6d3d 6270 1b3e 114b 67be 6274 b3be
00000100: eac1 96be a1a5 32bc cebb 61be e6d8 713d
00000110: e39a 5bbe 8641 9dbc a0cb fcbb 951c 89bc
00000120: 0890 88bd 656e 0c3c b18b 07bd 8e9e bebd
00000130: e0f3 afbb 8e10 c0bb cba1 7dbe e551 083e
00000140: 6e47 253b 1f6c 80be ea45 4b3e 4dce 4dbc
00000150: eedf 7f3b 6d02 a0bd e8e2 56bd 451d dfbd
00000160: de5c 963d 0452 c7bd bc7b 48be 8ca4 8c3d
00000170: 561c 07be dfe9 4e3e 2b12 0ebe 24ae 9f3d
00000180: 18cc ac3d d42a 4fbc 14b5 a2bd 1550 4ebc
00000190: 7cd8 6abd 022c 7cbd 06ed 14be 3d14 0c3e
000001a0: efaa 21be 0505 753d 0ae5 083d 164d 0939
000001b0: e9f0 27bc b6c0 213e f0a6 01be da2f e13d
000001c0: ec1f 1c3e 6f7a b53d c37b e7bd 54bd 3bbe
000001d0: 449f 4f3e 9a26 31bd 07ef aabc c81e e0bd
000001e0: ea35 45bd 5200 bc3d be57 20be 41e5 273e
000001f0: 9f23 7a3d e0e5 c43d 096f b3bd bb35 973d
00000200: a4a2 9a3d d191 b03b 7b8f 1c3e e0e6 43bd
00000210: 2372 2b3d 2f30 babd 77db 543d 6ff0 8cbc
00000220: 2fe3 f6bd d3d0 0ebe d027 03bc 2d8c dfbb
00000230: 7e51 07be b0cd 913d b5e0 8cbd c72e e2bd
00000240: 2396 d7bc 3262 c5bc ad04 cf3d bbfa da3d
00000250: 9e2c 8bbd b37f a2bd 10b8 87bc dd0e 0bbe
00000260: 4d1e fc3b 46db 123e 2896 2cbd cacf 1abd
00000270: 8c2e febd 31f6 a8bd cbf0 b6bd e783 c93c
00000280: 1025 a5bc 8049 fcbd 418a 883d 6e63 5cbc
00000290: c704 c93c 0252 9bbd 17f7 ff3c 3ee8 acbd
000002a0: 4131 7abb 2f69 3c3d f972 06bd a88b d53d
000002b0: cb26 c63b 9ada 22be 52c1 3c3d 5237 3c3d
000002c0: c0a7 433d 9a5c 27be b3c5 0fbe fcce 673d
000002d0: 30e0 763d fe72 97bd 9e5c 3c3c c307 59be
000002e0: aa5e b6bd d259 30be 1790 71bd 52cb 973d
000002f0: 0cf6 ddbd 22e9 ab3d fae0 a73d a0fc db3d
00000300: ae86 ad3d 48b7 01bd b22b 36bd b036 3f3d
00000310: 5b15 063e 6264 16be 7f16 173e 018d 05bc
00000320: 6a7e 4dbe e853 573d c33c f53d f922 533c
00000330: 7ad2 a33c b6f5 9fbd 195c 4a3e 97e7 debd
00000340: fd4b 223d c107 2d3d 0d99 c9bd 2a8a 94bd
00000350: c8a2 283c e03a 51bd 02f7 77bc 4c9b e03c
00000360: 0b77 f1bd 1aba 4c3d 3588 853d 5b5e c4bd
00000370: a4da 323e c913 1dbd 06e6 2d3e 8925 ae3b
00000380: 90cc e03d bca5 a8bd 20be 09be cd46 2e3d
00000390: 2321 c9bd 555b f33b 1859 97bb f194 e8bd
000003a0: a0bb 20bd 4c99 17be ba7c d53c ec67 f9bd
000003b0: e2e4 15be daaf 97be cb16 cb3d 619a aebd
000003c0: 961e 5dbd 1f37 a0bc 01d1 bebd 140b 4e3e
000003d0: 1b7c 3abe 6a1d 6e3d bb6e 433e af22 c5bd
000003e0: 9f3c 263e 307f 5cbd b98d 183e a813 9fbd
000003f0: 0c28 fabc bf74 0b3b 6c1a f23d 92d3 b93d
0.041052315 -0.0039761025 -0.003110279 0.011698503 -0.027722564 0.04113203 -0.17712961 -0.012334552
-0.111038834 0.1652523 0.024748465 -0.0895321 -0.046088845 0.17177686 -0.21425557 0.101870716
-0.034737635 -0.13865909 0.0038454148 0.3068351 0.07466926 0.023023216 0.039081823 -0.1554549
-0.030779913 -0.002256192 -0.18366115 -0.03611128 -0.0051890463 -0.015738422 -0.054289483 -0.011054407
0.014425454 0.22917122 0.06275064 -0.073366255 0.10920469 -0.03449952 -0.26688313 0.28226733
0.014546082 0.19843836 0.01641416 0.04856898 0.24203652 0.093002096 -0.19220804 0.0135867605
0.09146291 0.029598441 0.03535745 -0.093364224 -0.086819656 0.040726326 0.101175494 0.09370648
-0.26430488 -0.1453344 0.029958813 -0.00055943534 0.058028284 0.1517959 -0.2258723 -0.3504973
-0.2944482 -0.010903747 -0.22044298 0.05904474 -0.21445803 -0.019196283 -0.0077147037 -0.016737262
-0.06668097 0.008571242 -0.033092204 -0.09307586 -0.0053696483 -0.0058613485 -0.2476875 0.1331249
0.0025219577 -0.2508249 0.19850889 -0.012561393 0.0039043385 -0.07812963 -0.05246249 -0.108942546
0.07341932 -0.0973244 -0.19578451 0.06867322 -0.13194403 0.20206402 -0.13874118 0.077968866
0.08437365 -0.012644488 -0.07944694 -0.012592335 -0.05733536 -0.061565407 -0.14543542 0.13679595
-0.15787862 0.05981924 0.033421554 0.00013094055 -0.010250309 0.1579617 -0.12661338 0.10995455
0.15246552 0.08861243 -0.113029025 -0.18333942 0.20275599 -0.043249704 -0.02086593 -0.10943371
-0.04814712 0.091797486 -0.15658471 0.16396047 0.061069127 0.09614158 -0.08761413 0.07383295
0.075505525 0.0053884764 0.15289108 -0.0478276 0.041856896 -0.090912215 0.05196711 -0.017204491
-0.120550506 -0.13946848 -0.0080050975 -0.00682213 -0.1321468 0.0711931 -0.06878797 -0.11044078
-0.026316708 -0.024094675 0.10108314 0.10692354 -0.067956194 -0.07934513 -0.01656726 -0.13579889
0.007694042 0.14341459 -0.042135388 -0.03779582 -0.12411222 -0.08250082 -0.08932646 0.024599029
-0.020159274 -0.123187065 0.06666995 -0.01345144 0.02453841 -0.07584001 0.031245751 -0.08442734
-0.003817633 0.04599875 -0.03282449 0.10427028 0.006047105 -0.15903702 0.046082802 0.045951195
0.0477674 -0.16343918 -0.1404026 0.05659388 0.060272396 -0.0739498 0.011496691 -0.21194367
-0.089047745 -0.17221764 -0.058975305 0.07411827 -0.10837945 0.08394076 0.08197208 0.10741544
0.08472954 -0.03166893 -0.044475265 0.046683013 0.13094084 -0.1468673 0.14754675 -0.008151294
-0.20067754 0.052570254 0.1197448 0.012886756 0.019997824 -0.078105375 0.19761695 -0.10884016
0.03962325 0.042243723 -0.09843645 -0.07252915 0.010292716 -0.05108154 -0.015134575 0.027417801
-0.11790284 0.049982168 0.0652012 -0.095883094 0.17466217 -0.038348947 0.16982278 0.005314533
0.10976517 -0.08234736 -0.13451433 0.04254799 -0.098207735 0.007426659 -0.004618775 -0.11356533
-0.039241433 -0.14804572 0.02606045 -0.12178025 -0.14638093 -0.29626352 0.09916457 -0.08525539
-0.053984247 -0.019557534 -0.09317208 0.20121413 -0.18211405 0.05813352 0.19085209 -0.09625756
0.16234063 -0.053832233 0.14897813 -0.07767421 -0.030536674 0.0021279303 0.11821446 0.09073557

2.bias f4 [64]
00000000: e80d 263c 4b52 003d 3797 753d 77b1 71bd
00000010: 6806 e8bd 3536 62bc 8353 233d 9e7f ab3c
00000020: 2e8e e2bd e95e 99bc 4ee8 f5bc 054e 2bbd
00000030: 164a 55bc f841 8cbd 3868 5d3c 48c1 583d
00000040: 4f0b 77bc 5d80 a63c 00b7 40bd 6550 11bc
00000050: d94e b03d eb75 223d 87aa 053e 0269 a73c
00000060: 3d97 bf3b 6ae1 933d a185 aa3e 5bb9 553e
00000070: bfbe 103c aeac d9bc a32f a03d bbb5 66bd
00000080: fe91 54bd f45d afbb e986 04bd c0b7 b33d
00000090: 66ef 223d ea5b 3dbd f747 55bc d15e 823d
000000a0: 9d79 c2bd b65d c33d c04b 4cbd 244a bcba
000000b0: bda0 0e3d 9578 2d3d 5b50 d23d 95e8 8f3d
000000c0: d00b 40be f606 98bd 5d2c 8bbd 0f2a 393d
000000d0: ae43 74bd 5723 f43c 1e94 333d 77a5 383e
000000e0: b912 9cbd 65d2 8bbd d5b9 9f3c 8c7e 6a3c
000000f0: 14ed f23c 06c9 8abb f266 323d 2dd3 cd3c
0.010135151 0.03132848 0.059958663 -0.059007134 -0.11329347 -0.013806869 0.039874565 0.020934876
-0.11062275 -0.018722015 -0.030017998 -0.041822452 -0.013018152 -0.0684852 0.013513617 0.052918702
-0.01507838 0.02032488 -0.047049522 -0.008869265 0.08608789 0.039663237 0.13053332 0.020435814
0.0058468864 0.07220729 0.33305076 0.20871489 0.00883454 -0.026571598 0.07821586 -0.056325655
-0.05189704 -0.0053517763 -0.032355223 0.08775282 0.03977909 -0.046230234 -0.013017646 0.06365741
-0.09495852 0.09539358 -0.04987693 -0.0014365357 0.03482126 0.042351324 0.10269233 0.070267834
-0.18754506 -0.07423203 -0.06795571 0.045206126 -0.059634857 0.029802008 0.043842427 0.1803187
-0.076207586 -0.06827239 0.019497791 0.014312398 0.029654063 -0.0042353896 0.043555208 0.02512511

4.weight f4 [8, 64]
00000000: 9b33 3bbd 0b4f 30be 4a89 8b3d 0846 4e3e
00000010: 3ee6 22be da2e 003e 2344 ce3d fc81 c3bd
00000020: ffde b9bc 5edd bcbd 6a50 3fbe 8244 073e
00000030: 4f21 f1bc 0d5c febd 3c94 7cba 7f9e f0bd
00000040: 8068 13be 8591 ecbd 9cda 923d c587 76be
00000050: 3c57 5d3e e899 2a3e 12af 6e3d 259b fbbd
00000060: 1b81 84bd b0fa 91bd c2ad b93d 0112 d93c
00000070: e3c6 993d 79e8 d23d 6c64 a8bd b175 cbbd
00000080: 406e 333e 623f de3d 7cb8 08bd f8c8 c8bd
00000090: ce5a f83d 5de3 293d e625 83bc 5b56 3ebe
000000a0: 4600 63be 358e cc3d da11 923a 6bef f03c
000000b0: 6a2c ba3a 59a4 d93d 6293 2e3e 038e 873d
000000c0: a28b a7bd 855e 093e c318 1b3e 6205 f73d
000000d0: 8a4c 37be 9d41 89bd 8706 af3d 94e1 843d
000000e0: 523b b6bd b3b1 83bd 7900 abbd 89be 093e
000000f0: d2a8 c2bd 32eb f63d 2bee 1ebd 0469 b33d
00000100: 19fc b4bd c4b5 7cbe c179 0e3d 1c1e 8a3e
00000110: 8b45 15be cec9 1c3e 9eaf 173e 0a8b 23be
00000120: 1459 e63b 5710 14be 1af2 1cbe ae5d 013e
00000130: a14c 9a3c d8d4 e4bd 5a03 35bd 7fb4 27be
00000140: 6581 30be 4745 08be 968e ee3d b841 52be
00000150: 1634 223e 159a 593e 1f7b f63c 4ea6 16be
00000160: 129a e9bd 56a2 fabd 923c 8e3d 53ed 1f3e
00000170: 8d35 8b3d 1eaa 203e 3e55 14be 1fc4 bbbd
00000180: 70a0 6d3e d1bf bc3d 549f 92bc f725 17be
00000190: ec96 d93d 8bc5 aa3d 0c98 02bd b270 76be
000001a0: 2d19 2ebe 1bcf 073e 2b4d ce3c 22ba 4a3d
000001b0: 43fd 183b 7459 1e3e 8c75 133e 89e8 cc3d
000001c0: 670b a5bd 2c1b 2c3e fd26 4a3e 2447 d63d
000001d0: 3334 1ebe d0ca d4bd a866 8b3d f5da ed3d
000001e0: d634 a9bd 5713 c4bd ca97 b5bd 1ae1 3e3e
000001f0: 5467 89bd bc81 303e 13dc 62bd 85c4 e03d
00000200: f33f 94bd c835 75be e976 f83a 1b32 843e
00000210: 579e f9bd b905 f63d dbe7 0d3e 2a57 0ebe
00000220: d86d 163c fecb e8bd 607b 0ebe 1753 b83d
00000230: 6378 283d 55f8 a1bd 4b38 a4bc 1044 3abe
00000240: 785b 16be 37ae d5bd 919f b63d 99dc 3cbe
00000250: fc0e 0c3e 8df9 393e b80c a63b 9407 e9bd
00000260: 3783 0bbe bba4 14be 3858 ac3d c5cd 2c3e
00000270: 752d b83c 0e3d 2e3e 7b49 06be 6fe5 62bd
00000280: 027a 563e 072e 8f3d f910 71bc 729a 1fbe
00000290: 4eb4 953d bf28 b33d 811c 9bbc 84a2 55be
000002a0: 24b5 4dbe ea7c d03d 01bc a1bc c404 0f3c
000002b0: 73d5 25bc 257c 063e 151a 123e 9bd0 c93d
000002c0: 0ea3 e2bc 1d08 453e fe5b 373e 97bc 8b3d
000002d0: d7fd f6bd 6fb2 90bd b731 1a3d 7915 903d
000002e0: 8b0b b9bd d00e 57bd f07a d5bd 29be 213e
000002f0: 6b04 4abd 0535 343e 3484 91bc bd68 eb3d
00000300: 7907 7c3f b35d 903f c01c acbf aa04 8d3d
00000310: ff04 7740 6bed 43bd 2c48 77bf e93b 933f
00000320: fd27 01bd 8345 1a40 cb94 a73f 68f6 f23f
00000330: 0f80 56bf 415b 5f3f 1518 083f df4c ca3e
00000340: 19c1 f9be 020b 6d3f ebbe 9dbf 817c 5cbf
00000350: d8f8 e6bf a2bc c4bf 6ccf 38bf 544d bbbe
00000360: edde 3440 845b 30bf cb49 aac0 0322 9ac0
00000370: 283d 653f f8d1 b4be 500a 003d 4cc9 703f
00000380: 9f9a 05c0 be68 94bf c97d 933f 030f 19bf
00000390: 8602 1dbd 155e 413f 19c8 673f e3ab fd3f
000003a0: bf06 8440 baf8 a4bf 802d 86be 6d1f 5d3e
000003b0: e8ba 323f fb16 343e 4a5b 34c0 f339 dbbe
000003c0: 9d8a c73f f751 3a3e 6722 6abf b5d6 a0bf
000003d0: c93e 153c dcfe f7be 8904 593f 3d05 b9be
000003e0: 0dc1 3a3f af48 163f 3397 14bf 7a17 d3bf
000003f0: 8b32 fb3e f60f e7bf c993 85bf 1411 f03e
-0.04570351 -0.17217652 0.06813295 0.20143902 -0.15908143 0.12517872 0.1007159 -0.09546277
-0.02268934 -0.0922191 -0.1868302 0.13209727 -0.029434828 -0.12419901 -0.0009635126 -0.11748981
-0.14395332 -0.11551193 0.07170603 -0.2407523 0.21615309 0.16660273 0.05827243 -0.12285451
-0.064699374 -0.07127893 0.09066345 0.026497843 0.07508638 0.10298247 -0.08222279 -0.09934557
0.17522526 0.10851933 -0.033379063 -0.09803957 0.121266946 0.041476596 -0.016009282 -0.1858763
-0.22168073 0.09988061 0.0011144236 0.029411038 0.001420391 0.1062705 0.1704841 0.066188835
-0.0818093 0.13414963 0.15146165 0.120615736 -0.17900291 -0.06701968 0.08546167 0.06488338
-0.08898033 -0.06430378 -0.083496995 0.1345159 -0.09504856 0.12056579 -0.038801353 0.087602645
-0.08837146 -0.24678713 0.034784082 0.26976097 -0.1457731 0.15311357 0.14813086 -0.15971008
0.007029662 -0.14459358 -0.1532673 0.12633392 0.018835368 -0.11173409 -0.04419265 -0.16377448
-0.1723686 -0.13307677 0.1164829 -0.20532882 0.15840182 0.21250184 0.030088006 -0.14711878
-0.1140634 -0.122379944 0.069451466 0.15617876 0.067973234 0.15689895 -0.14485642 -0.091682665
0.23205733 0.092162736 -0.01789824 -0.14760576 0.10624489 0.083384596 -0.031883284 -0.24066427
-0.17001791 0.13262598 0.02518328 0.049493916 0.0023344315 0.15463811 0.1440031 0.1000529
-0.080588154 0.1680724 0.19741435 0.10462788 -0.154496 -0.10390246 0.068066895 0.11614028
-0.08262031 -0.09574001 -0.08866842 0.18640557 -0.067091614 0.1723699 -0.05538566 0.10974983
-0.0723876 -0.23946297 0.0018956336 0.25819477 -0.12188404 0.1201281 0.13857977 -0.13900438
0.009181462 -0.113670334 -0.13914251 0.09000223 0.041130435 -0.07908694 -0.020046374 -0.18190026
-0.1468333 -0.104336195 0.089171536 -0.18443526 0.13677591 0.18161602 0.005067434 -0.113783985
-0.13624273 -0.14515965 0.08415264 0.1687537 0.022482613 0.17015478 -0.13113968 -0.055394586
0.2094498 0.06991201 -0.014713519 -0.1558626 0.07309781 0.08748006 -0.01893449 -0.20862776
-0.20088631 0.101800755 -0.019742968 0.008729164 -0.010121691 0.13133295 0.14267762 0.098542415
-0.027665641 0.19241376 0.17906186 0.0682308 -0.12060135 -0.070652835 0.037645068 0.070353456
-0.09035405 -0.05250436 -0.10423839 0.15795197 -0.04932062 0.1759835 -0.017763235 0.114945866
0.984489 1.1278595 -1.3446274 0.06885655 3.85968 -0.04783384 -0.965945 1.1502658
-0.031532276 2.4104927 1.3092283 1.8981447 -0.8378915 0.8724862 0.53161746 0.39511773
-0.48780134 0.9259492 -1.2323889 -0.8612748 -1.8044691 -1.5370066 -0.721915 -0.36582434
2.8261063 -0.6888964 -5.321508 -4.816652 0.8954644 -0.35316443 0.031259835 0.94057155
-2.0875623 -1.1594465 1.1522762 -0.5978853 -0.038332485 0.7553418 0.905397 1.9818081
4.1258235 -1.2888405 -0.2620659 0.21594019 0.69816446 0.17586891 -2.8180718 -0.4281765
1.5589176 0.1819533 -0.91458744 -1.2565523 0.009109207 -0.4843663 0.84772545 -0.3613681
0.7295082 0.58704656 -0.5804321 -1.649154 0.49062 -1.8051746 -1.0435725 0.4688803

4.bias f4 [8]
00000000: d58a 873d bc00 013e e02d a0bc fc6d e5c0
00000010: 8823 a4c0 813a 92c0 3aad 503e 6570 3cc0
0.06618277 0.12597936 -0.019553125 -7.169676 -5.1293373 -4.5696416 0.2037858 -2.94436

0.weight f4 [64, 4]
00000000: b8f9 99be 7cbe 743e ce86 c33e 1a35 8a3e
00000010: e238 af3e 1c2f cc3e 7ca7 b33e c0f7 343e
00000020: 389a adbd 5821 f1bd 1651 f8be 8074 c8bb
00000030: 2020 0d3d 561e ac3e f289 833e 7688 9f3e
00000040: 7cdc 593e d027 cd3e e29d b93e 0064 513c
00000050: 20c2 e2bd eae5 933e fcc5 41be bccd 8bbe
00000060: 68a0 b6bd 361a b13e e6f3 f03e 84a2 61be
00000070: 7e8d b1be 3c11 5ebe 8857 b03d a8bf 14be
00000080: 746c d53e 80f1 023c 4003 d63e 0415 4c3e
00000090: 0008 3c3d 8080 c0be 2c2a a8be 40a0 d3be
000000a0: 7c5e a8be 9a41 c03e c843 c03d 74cb 793e
000000b0: 7472 06be 0001 5abe 603b 973d 722f 84be
000000c0: 84d9 b03e 80f8 8dbc a0be bebd 3853 053e
000000d0: 20ba c5bd 4038 e8bd 783d a33d aa87 c1be
000000e0: 3604 c6be e449 3dbe b0a5 6abe 6c12 d4be
000000f0: 2c7e fcbe 1807 d6be 8043 bbbe c45f 46be
00000100: b8b3 cd3e 0259 fabe b86d db3e 04ad febe
00000110: 10db e63e ee30 c23e fa54 8fbe f488 bf3e
00000120: 6023 60bd 66a9 8a3e 3047 a0be 7048 13be
00000130: d09f 663d 1053 ba3d 967f bebe c05f 9dbe
00000140: a816 4cbe 102e 233e a633 82be e829 863e
00000150: 3038 6b3e 3c86 7ebe 2c04 e93e 2643 d6be
00000160: 8896 773e 3016 183e 2890 60be 80a0 99bc
00000170: 06c9 f93e 4a52 fb3e f406 b03e 4600 ba3e
00000180: bc53 dabe 5a71 ef3e 3094 56be 605e f2bc
00000190: 8edc 84be be5a e5be 583d 8fbd f88b 71be
000001a0: 4eae a7be 08ac fe3e fa8f 89be 4047 673c
000001b0: a02b 8e3e 467c b03e 4255 8a3e ca19 cebe
000001c0: 042d 83be aadf cfbe 8864 9cbe 6c96 aabe
000001d0: 6c68 4cbe d8bc acbd 7888 023e b084 603e
000001e0: 889b 6a3e 483b 743e f0d6 293d b8f8 803e
000001f0: 2ac3 ee3e b4ff 8fbe a65c eb3e 7065 cabe
00000200: 3a20 d2be 783a cfbe 9c77 f03e 40ab 39bd
00000210: bc98 863e 8065 dcbb de81 80be 461a a73e
00000220: 80fa 8cbd 60dc b3bd dc5a 6f3e 1c47 98be
00000230: 4099 80bc 58b3 923e 40c9 58be 0852 3dbe
00000240: 4066 bb3e 2ef6 b1be a465 dfbe 0033 403e
00000250: b0ce 543e d09a fa3e 8ceb 7a3e 5a54 97be
00000260: e4d4 3abe a47a 59be 9cd2 bcbe 300c 643e
00000270: a084 f33e a017 ed3d 30a7 73be 0413 d3be
00000280: 50a3 d73e 982e d43e e032 a2be 3a6e 8fbe
00000290: 88dc 473e 1643 ba3e 5c96 8f3e f269 b0be
000002a0: 20e7 1abe 882c f2be fc19 32be 764a 94be
000002b0: 8068 acbe e072 dabd 8055 213d 76e5 f73e
000002c0: c02f 3abc c824 84bd d466 013e e080 853e
000002d0: 90c7 af3d 8af3 c13e 9ed2 81be d6ce 8cbe
000002e0: d8d2 a43d 9815 163e c25f e83e 746f c13e
000002f0: 0843 183e 40cd 7c3d cc08 dd3e 0427 55be
00000300: c010 d33c 40d4 ecbe b0e4 ddbe 001b 723d
00000310: 0c5c e53e 9435 023e 6cf5 6d3e 1861 8fbe
00000320: c28c dfbe 3605 9b3e 5a65 87be 9653 993e
00000330: 808d 693d 961b a6be c0de 883c 9cd3 f2be
00000340: d80b 12be c8fd d1be 58a7 c93d 18b5 0dbe
00000350: e4a4 64be 1091 4cbd 6cd6 fe3e e4c5 613e
00000360: 1e9c dd3e ac16 3a3e 2c65 3dbe 30d3 193e
00000370: 00a7 60bd 866f 8ebe 0cf4 40be 28bb 93be
00000380: 807d 60bc 0cd5 be3e b435 f6be b200 c3be
00000390: 0cb3 cbbe 6057 acbc 8030 fb3c 948e c63e
000003a0: 382d a23d 38e1 92bd c2ad c73e 2043 483d
000003b0: da03 bfbe 5052 9e3d b421 bf3e 3c16 933e
000003c0: aa63 8b3e 60dd 47bd 8c0d 4abe 9c87 1c3e
000003d0: c8e2 a03e 7631 c7be 564b ea3e 6047 aabc
000003e0: 942f 263e 3449 e3be 0066 dabc 6478 a9be
000003f0: 2c09 93be 2284 bb3e 2a00 a1be ba8e e43e
-0.30073333 0.23900789 0.38188785 0.26993638 0.34223086 0.39879692 0.35088718 0.17672634
-0.084766805 -0.11773938 -0.48499364 -0.0061174035 0.034454465 0.33616894 0.2569118 0.311588
0.21275514 0.40069437 0.36253268 0.0127801895 -0.11072183 0.28886348 -0.18923181 -0.273054
-0.08917314 0.3459031 0.4706108 -0.22034651 -0.34678262 -0.21686262 0.08610445 -0.14526236
0.41684306 0.007992148 0.41799355 0.19929892 0.045906067 -0.37598038 -0.32844675 -0.413332
-0.32884586 0.3755005 0.09387928 0.24394017 -0.13129598 -0.21289444 0.07384372 -0.25817448
0.3454095 -0.017330408 -0.093137026 0.13020027 -0.09654641 -0.11338854 0.079707086 -0.37798816
-0.38675088 -0.18485218 -0.22914767 -0.41420305 -0.49315012 -0.41802287 -0.36574936 -0.19372469
0.40176177 -0.48896033 0.42857146 -0.49741375 0.45089006 0.37927955 -0.2799452 0.37409174
-0.054721236 0.27082366 -0.31304312 -0.14383101 0.056304753 0.09097874 -0.37206715 -0.30737114
-0.19930518 0.1593554 -0.2543003 0.26203847 0.22970653 -0.24855894 0.45510995 -0.41848105
0.24178517 0.14852214 -0.21929991 -0.01875329 0.4878618 0.4908622 0.34380305 0.36328334
-0.4264201 0.46766168 -0.20954967 -0.029586017 -0.2594952 -0.44795793 -0.06994122 -0.2358855
-0.3275017 0.49740624 -0.26867658 0.014116108 0.27767658 0.34469813 0.27018172 -0.4025405
-0.25620282 -0.4060033 -0.3054545 -0.33317888 -0.19961709 -0.084344566 0.12747371 0.21925616
0.22910893 0.23850739 0.041464746 0.25189757 0.46633273 -0.28124774 0.45969123 -0.39530516
-0.41040212 -0.40474296 0.46966255 -0.045329332 0.26288402 -0.006725967 -0.2509908 0.32637233
-0.068837166 -0.087822676 0.23374504 -0.29741752 -0.015698075 0.28652453 -0.21170521 -0.18488324
0.36601448 -0.34758133 -0.43632233 0.18769455 0.2078197 0.48946238 0.24503917 -0.29556543
-0.18245274 -0.2123819 -0.36879432 0.22270274 0.47562122 0.11576772 -0.23794246 -0.41225445
0.42116785 0.41441798 -0.3167944 -0.28013784 0.1951772 0.36379308 0.28044403 -0.3445583
-0.1512723 -0.472996 -0.17392725 -0.2896306 -0.33673477 -0.10666442 0.03938818 0.48417252
-0.011363924 -0.06452328 0.12636882 0.26074886 0.085829854 0.37881118 -0.25356 -0.27501553
0.08048028 0.14656675 0.45385557 0.37780344 0.1486932 0.06171918 0.43170774 -0.20815665
0.025764823 -0.46255684 -0.43338537 0.05910778 0.4479679 0.12715751 0.23238152 -0.28003764
-0.43662077 0.30277413 -0.26444513 0.29946584 0.05701971 -0.3244292 0.016707778 -0.4742707
-0.1426233 -0.41013932 0.098463714 -0.13838613 -0.22328526 -0.04994303 0.49772966 0.22048146
0.4328317 0.18172711 -0.18495625 0.15021968 -0.054846764 -0.2781946 -0.18843096 -0.28853726
-0.0137017965 0.37271917 -0.48087847 -0.38086468 -0.3978504 -0.021037757 0.030662775 0.38780653
0.07918781 -0.07171863 0.38999754 0.04889214 -0.37307626 0.077305436 0.373304 0.287279
0.27224475 -0.048795104 -0.1973173 0.15286106 0.3142302 -0.38904923 0.45760602 -0.020785987
0.16229087 -0.44391787 -0.026659966 -0.33099663 -0.28717935 0.36624247 -0.31445438 0.44640142

0.bias f4 [64]
00000000: b89b f1be 10a5 08bd 7cd3 7bbe 9279 94be
00000010: e8a7 80be 9a07 edbe 3a2d d0be 4eff e5be
00000020: 30ea 70bd 7412 283e 18c8 e3be 9a43 b7be
00000030: 3408 233e e0ab f5be 404c 903c e007 e6bc
00000040: b017 3dbd 8c13 3ebe 484e 6fbe c05b 523e
00000050: e01e d03e 90f6 6f3d 80fd 7fbd 5418 f4be
00000060: a0de 183e aef0 f4be 940e 2f3e 36ab f63e
00000070: 4895 4f3e 3082 99bd 4ec4 f4be 1e8c b0be
00000080: f084 093e a459 bd3e d4e0 17be 50d7 983d
00000090: 50c4 123e 7a82 b9be a46d 0dbe b021 87be
000000a0: ecd4 aabe a09f c6bd f83d 053e f071 afbd
000000b0: 4e42 eebe 1c32 f53e c0a7 2d3e dc74 8b3e
000000c0: 74e5 8b3e c07c 67bc 4c93 7fbe 60c3 fb3c
000000d0: 68c0 123e 4cb2 10be b0c0 603e b46f 8b3e
000000e0: bc2f 2f3e 4c9a a6be 3854 b2be 6802 e3be
000000f0: 3c86 c9be b0bf 6bbd 72fd 9f3e da40 d33e
-0.47189116 -0.03336054 -0.24592394 -0.28999 -0.25128102 -0.46294862 -0.40659505 -0.44921345
-0.05881709 0.1641329 -0.44488597 -0.35793763 0.15921098 -0.47982693 0.017614484 -0.028079927
-0.04616517 -0.18562144 -0.23369706 0.20542812 0.40648556 0.05858475 -0.062497616 -0.4767481
0.14928675 -0.47839874 0.17095405 0.481775 0.2027179 -0.074955344 -0.4780602 -0.344819
0.13429618 0.36982453 -0.14831859 0.074629426 0.143327 -0.36232358 -0.13811356 -0.2639289
-0.33365571 -0.09698415 0.1301192 -0.08566654 -0.4653496 0.47889793 0.16958523 0.27237594
0.27323496 -0.014128864 -0.24958533 0.03073281 0.1433121 -0.14130515 0.21948504 0.2723366
0.17108053 -0.32539594 -0.3482988 -0.44337773 -0.39360225 -0.057555854 0.3124805 0.41260415

2.weight f4 [64, 64]
00000000: 30b2 c13d 7ac8 e23d 700e e23c 48cf 8d3c
00000010: fc1a 8dbd 38c4 e2bd e879 be3d aaa9 c53d
00000020: fc05 343d 94d4 f4bd 88ff ccbd f8d4 d83c
00000030: f027 193c a04c a53b be7e b33d 643e dbbd
00000040: 5080 6cbc 544f 9c3d f639 bf3d b0f6 43bd
00000050: a0a2 1dbd f496 bdbd 706f 703d c023 343b
00000060: a076 5bbd 9cf1 723d 706e 703c 4855 75bd
00000070: fc26 363d ae49 d4bd 0e69 e33d 20c1 d0bd
00000080: d0fd 53bc d0c5 ecbc 8ab2 ef3d 1837 aebc
00000090: 3857 a1bc d8ab 13bd 10dd ff3d c0cc 303c
000000a0: be6b 823d 580e fcbc 7c80 933d c065 fe3b
000000b0: 608e 76bc a0c0 3a3d 302a 2d3c 4c1c 413d
000000c0: 6089 2f3d 1456 abbd fc73 f73d 00c0 65b9
000000d0: e8fc 813c e8e1 b3bd c6a5 eb3d 586f d4bc
000000e0: ba6d febd 2e2d efbd d031 2a3d 9854 6a3d
000000f0: b8cc 823c e257 a9bd c893 8cbd c413 c83d
00000100: 1a35 d9bd 9aaa f1bd a0af 40bd f8cc 3e3d
00000110: e050 ec3b b6c7 c4bd 9c25 d5bd a451 b63d
00000120: b89d 883d ca70 a3bd 8a10 b4bd a0e1 a23b
00000130: 5094 e33d fafc 83bd dcbf 683d 08db 24bd
00000140: 9eaf d73d 7cd3 1abd 6e4c 983d 6c5b 2dbd
00000150: 8c6e 9fbd 1851 dc3c 942a 3a3d 7e3f f1bd
00000160: ccc7 213d c235 a6bd 0064 e939 bade cf3d
00000170: 80f9 7bbc a4a9 163d b84e 2ebd d632 abbd
00000180: d84d 8ebd 36d7 c5bd b458 633d 1edd ef3d
00000190: 70db 0abd dc5c 01bd 40be 633b 0064 59bb
000001a0: 9882 a33d 663f dabd 20d6 97bb 6088 41bd
000001b0: d69d b6bd 6cb6 6a3d c0aa 723c f410 403d
000001c0: dc49 4f3d 5cfe 71bd a64c d3bd b293 a53d
000001d0: f0be 9bbd 2a16 90bd 2083 49bc cc6b 2b3d
000001e0: 8c73 ef3d f63b b13d 1808 01bd 7064 513d
000001f0: 8021 943c 389c 0e3d c057 02bb 2a9c ae3d
00000200: f077 99bc 4e11 e53d 30ca 68bd 240b 3a3d
00000210: a0ec 263c 340c 34bd bce8 0e3d 4234 f8bd
00000220: 10af 8d3c 0022 c43d 30bf e4bd 54a0 82bd
00000230: f228 d6bd 62b2 c43d 8cd2 f43d 30d5 e13d
00000240: 62fe b13d c04a 91bd 0a5a f5bd 008e 183d
00000250: 405b 463c 006c 69bb b0a7 193d 6028 6fbd
00000260: fc02 e83d 8068 e03d 20f0 0c3d c0f3 413c
00000270: 26d6 d23d a077 0bbd 22cd c7bd 90c8 82bd
00000280: 0885 203d 2231 c73d 607e d03d 8890 76bd
00000290: c8c6 fa3c 5cb5 abbd ac3d ec3d 3058 f1bd
000002a0: 5cd3 243d 4cad 513d 4c0c 713d 782e 8abd
000002b0: 8856 0cbd 2296 a8bd 6a28 fc3d 22f3 b7bd
000002c0: 44e0 16bd 7894 d03d b07a 7b3c fc19 b83d
000002d0: d289 b1bd 44ef 483d d034 d1bd 90d4 1dbd
000002e0: aca5 8f3d 82b2 d3bd 3868 91bc 360f a53d
000002f0: 50b9 343c 7220 9bbd 1e66 e83d 52d3 a7bd
00000300: fae3 dd3d ec81 71bd 40d7 4d3c bc4f ddbd
00000310: 62d2 9b3d 7408 623d 3853 5e3d 204a 843d
00000320: ac8d 09bd 2003 1b3d 4c9b e73d dcc4 93bd
00000330: a04d 253d 26fe 8dbd c6cf c0bd 00f6 d3ba
00000340: 0e5a 9a3d 8a9d 9e3d c0b3 e63d 8edb babd
00000350: ee37 9bbd 0a5a 8d3d a0ec 3ebc da76 a53d
00000360: 00ca 95b9 4092 023c 628d d63d 2856 49bd
00000370: d070 dabc de60 dcbd c8be a43c 60f3 b1bb
00000380: 9278 90bd b417 d0bd ec3d 72bd 7488 a53d
00000390: ca27 cc3d 1cd0 25bd 00b6 a13b 22d0 bfbd
000003a0: 10ec 783c 508f 163c da79 debd f89c dfbd
000003b0: 906f 8ebc 001c a2bc ca88 cd3d 8249 d1bd
000003c0: 1867 fcbd 6234 a73d fc48 c23d 206e 67bc
000003d0: 60e8 debb 26d4 f9bd 2044 6cbd 1e64 a2bd
000003e0: 5ca1 383d 2809 e03d c01a 9abb 0867 603d
000003f0: 288f 4fbd 0c54 e73d 38a4 d0bd 00f4 acbd
0.09457815 0.11073394 0.027594775 0.017310753 -0.068899125 -0.11072582 0.093005955 0.096515015
0.04395102 -0.119546086 -0.10009676 0.026468739 0.009347901 0.005044535 0.087644085 -0.107052594
-0.014434889 0.07632318 0.09337227 -0.04784268 -0.03848517 -0.09257308 0.058700025 0.002748713
-0.053579926 0.059312448 0.014674768 -0.059895784 0.044470772 -0.10365616 0.11104022 -0.10193086
-0.012938932 -0.028902918 0.117039755 -0.021266505 -0.01969491 -0.036052555 0.12493336 0.010791004
0.063682064 -0.030768558 0.07202241 0.0077635944 -0.015048593 0.045593858 0.01056914 0.047146127
0.04285562 -0.083660275 0.12082669 -0.00021910667 0.015867665 -0.087833226 0.11506228 -0.025932
-0.124232724 -0.11678539 0.04155141 0.05720958 0.015966758 -0.082687154 -0.068641245 0.09769395
-0.106058314 -0.11800118 -0.04704249 0.046582192 0.0072117895 -0.09608404 -0.10407564 0.089022905
0.066707075 -0.07980497 -0.08792217 0.0049707443 0.11112273 -0.06444736 0.056823596 -0.040247947
0.10531543 -0.037799343 0.07436453 -0.042323515 -0.07784757 0.026894137 0.045450762 -0.11779688
0.03949718 -0.08115722 0.0004451573 0.101499036 -0.01537931 0.036782876 -0.04255554 -0.083593056
-0.06948441 -0.09660189 0.055504516 0.11712097 -0.03390068 -0.0315827 0.003475085 -0.0033171177
0.07983893 -0.106566235 -0.00463368 -0.047249198 -0.089168236 0.057302877 0.014811218 0.046891168
0.050607547 -0.059080467 -0.10317354 0.08084811 -0.07604778 -0.070354775 -0.012299329 0.04185085
0.11691961 0.08654015 -0.03150186 0.051121175 0.01808238 0.03481695 -0.001988873 0.0852588
-0.018733948 0.11184941 -0.056833446 0.04542078 0.010188252 -0.04395695 0.03488992 -0.121193424
0.01729539 0.095767975 -0.111692786 -0.063782364 -0.104570284 0.09604336 0.11954221 0.110269904
0.08691098 -0.070943356 -0.11980064 0.037244797 0.012106717 -0.0035617352 0.037513435 -0.058388114
0.11328694 0.10957432 0.03440869 0.0118379 0.10294752 -0.03404963 -0.09755923 -0.063859105
0.03918937 0.09726168 0.10180354 -0.06019643 0.030612364 -0.08384201 0.115352005 -0.117843986
0.04024063 0.05119066 0.058849618 -0.067471445 -0.03426221 -0.082317606 0.12312396 -0.08981921
-0.03683497 0.10184568 0.015349075 0.08989331 -0.08668865 0.049056306 -0.10215151 -0.038532794
0.07014021 -0.10336782 -0.01774989 0.08059542 0.01103051 -0.07574548 0.11347602 -0.08194603
0.10834499 -0.058961794 0.012563527 -0.10806224 0.07608487 0.055183843 0.054278582 0.06459451
-0.033582374 0.037844777 0.113089174 -0.07215282 0.040357232 -0.069332406 -0.0941463 -0.0016171336
0.07536708 0.07744892 0.11264753 -0.09123908 -0.07579027 0.06901939 -0.0116530955 0.0807931
-0.00028569996 0.007969439 0.104761854 -0.04915443 -0.026665121 -0.107606634 0.020110503 -0.005430624
-0.07054247 -0.10160771 -0.059141085 0.08082667 0.09968527 -0.04048167 0.004935026 -0.0936587
0.015193 0.009189442 -0.10863085 -0.10918611 -0.017387182 -0.019788742 0.10035856 -0.10219099
-0.12324351 0.08164288 0.09486577 -0.014125377 -0.0068026036 -0.12198667 -0.057682157 -0.07929252
0.04507576 0.109392464 -0.004702896 0.05478576 -0.050673634 0.112953275 -0.10187572 -0.08444977

2.bias f4 [64]
00000000: 8ac2 983d b41f 59bd c07d 4a3c 2889 993c
00000010: fc20 98bd e853 323d 0c59 913d 5c9b 063d
00000020: 805f f8bb fa5e dcbd 2a84 903d ec2e 843d
00000030: d61c 933d 7484 1bbd 600f 1a3c 50c9 c3bc
00000040: b260 f4bd 7854 003d b011 1a3d c0bf 68bd
00000050: 3cfa 2fbd 48f7 eebd 10fe 62bc bc40 ecbd
00000060: 60c5 f9bd 50a0 adbd 8a49 c13d 647d 323d
00000070: 089c 94bd bcdf 743d c006 43bb e851 8f3d
00000080: bc98 46bd e21c 943d 200b 2dbd 1431 0abd
00000090: 56af abbd b6c0 c63d 9023 193c 1e07 fa3d
000000a0: f872 bdbd e867 bf3c 201d 94bb c0d7 c03d
000000b0: d8ef c93d a880 bc3d c83e 9d3c b614 c8bd
000000c0: 38d7 03bd a0d8 7dbd da27 8bbd 7256 a33d
000000d0: 8019 42bc 7c78 fe3d d81a aabd 70b7 1e3c
000000e0: bede b3bd 9851 ef3d a46e 4e3d 78b1 f13d
000000f0: 64ee f5bd d803 7a3d 103c 40bd 7244 f83d
0.074589804 -0.05300875 0.012359083 0.018742159 -0.07428166 0.04353705 0.070970625 0.032863006
-0.007579744 -0.10760303 0.07056458 0.06454262 0.071832344 -0.037968114 0.00940308 -0.023899704
-0.11932506 0.031330556 0.037614524 -0.056823492 -0.04296325 -0.11668259 -0.0138545185 -0.115357846
-0.121958494 -0.08477843 0.094378546 0.043576613 -0.07256323 0.059783682 -0.0029758662 0.06998044
-0.048485503 0.072320715 -0.042246938 -0.03373821 -0.08383052 0.097047254 0.009346858 0.12208389
-0.09250444 0.023364976 -0.0045200735 0.09416151 0.098602 0.09204227 0.019194975 -0.09769575
-0.03218767 -0.061974168 -0.067947105 0.079754725 -0.0118469 0.12425324 -0.08305901 0.00968729
-0.08782719 0.11685485 0.050398484 0.118014276 -0.1200836 0.061038822 -0.04693228 0.1212243

4.weight f4 [1, 64]
00000000: 8064 043c 4c8e 97bd 188e 883d c695 d8bd
00000010: ec86 c13d 905c 893c 1c69 82bd 7417 6c3d
00000020: 9cba a7bd eaec fd3d 2e76 e43d 9834 5bbd
00000030: 8e19 e3bd 48c3 8ebd b80e eb3d 3c50 96bd
00000040: 20b8 1fbc e875 e1bd 18e6 e43c f294 9fbd
00000050: 5042 9f3d 8e1c dbbd 6093 b0bc fe4c f53d
00000060: 0415 61bd 28c8 f8bc f44a 94bd 3259 823d
00000070: 68bc ee3d 5a40 af3d 00dc d2bb 44a7 3c3d
00000080: 9ca8 933d c0bf 453c 78f3 4a3d baa2 bd3d
00000090: f420 c33d be48 d1bd 9098 023c 1892 aebc
000000a0: f491 94bd b474 3bbd 9898 c03c f0fa cd3c
000000b0: 5e0c c03d b8da a53c 9ebf b6bd 1e23 9ebd
000000c0: f655 dabd 74e1 b93d 8090 01bd b88c 973d
000000d0: 34e9 92bd 4053 49bd 4ef1 dcbd 6471 febd
000000e0: 0096 9f3c 9a1b 9ebd 0a6e 8dbd d08a c63c
000000f0: 389d 4b3d 10d8 f63d 1426 41bd 9846 783d
0.008080602 -0.07400188 0.06667727 -0.10575442 0.094495624 0.01676777 -0.06367704 0.057639554
-0.0818989 0.123987034 0.111553535 -0.053516954 -0.110888585 -0.06970841 0.11477417 -0.07339522
-0.009748489 -0.11008817 0.027941748 -0.07792081 0.0777632 -0.10698806 -0.021554649 0.11977576
-0.054951683 -0.03036888 -0.07240859 0.06364669 0.116570294 0.08557196 -0.0064349174 0.046057954
0.07209894 0.012069643 0.049548596 0.09259553 0.0952777 -0.102189526 0.007970944 -0.021309897
-0.07254401 -0.045765594 0.023510262 0.02514407 0.09377359 0.020245895 -0.08923267 -0.07721542
-0.10660927 0.09076205 -0.031631947 0.07399887 -0.07173386 -0.04915166 -0.10788213 -0.12423971
0.019480705 -0.07720108 -0.06905754 0.024236113 0.049710482 0.120529294 -0.047155455 0.0606142
